models/models_lower_params/NSW/MULTI_SPECIES_MLP/model.pt (torch, 351127 bytes, 10 tensors)

weight f4 [256, 21]
0.16647543 0.18182899 -0.050626237 0.20106006 -0.04795962 0.043340206 -0.105435915 0.12882255
0.19287103 -0.15915668 0.19059034 0.041580994 0.16023983 0.02976923 0.10555145 -0.030332014
0.16867581 0.032307483 -0.10243125 0.05593105 -0.09993073 -0.024813976 -0.087801985 0.14391844
-0.17289002 -0.10107041 -0.061989147 -0.13188316 0.020324925 -0.21527895 0.19755435 -0.18541312
0.16784522 0.035459302 -0.0710756 0.13512516 0.034604914 0.17645696 0.023930416 -0.06809168
0.058891956 -0.05841638 0.09241937 0.1956523 0.12594211 -0.0956771 0.12537596 0.0385335
0.11051411 -0.13348895 -0.21567422 -0.08447344 -0.16759858 0.17880405 0.06266395 0.09035234
0.06927441 -0.0047163665 0.16995773 -0.15528312 0.013278705 -0.1491788 0.06793545 -0.075112
0.06700108 -0.044998538 0.18100497 -0.1291261 -0.13033937 -0.12969063 0.19666629 0.07259337
0.20930153 -0.18038508 -0.21722893 -0.17115624 -0.14679581 0.08774965 0.07767102 0.1815044
-0.113123715 -0.14902745 0.11613551 -0.087694086 0.13306431 -0.051739037 0.12527 -0.16909508
-0.109606326 0.066418484 0.046661396 -0.05554212 0.13081 0.14831015 -0.15817425 -0.117080964
0.1994539 -0.07322189 -0.07788462 -0.21091028 -0.124708 0.05474851 -0.028426506 -0.15816519
0.0050619463 -0.14848424 -0.18491128 -0.11959748 -0.19062671 -0.13891056 0.21810307 0.041826013
0.067540415 -0.20362318 -0.14404523 -0.07330547 0.03368813 -0.19239539 -0.09404993 -0.1312241
-3.6849e-05 -0.08104342 -0.01430291 -0.14779799 -0.14940692 -0.12701654 -0.07469292 -0.17225237
0.18311346 -0.043197382 0.18748926 0.068168975 -0.18433397 0.15126452 -0.059875328 -0.08314696
-0.18040596 -0.21682976 0.062954426 -0.048270185 0.08527682 -0.17956543 0.1616514 -0.15948556
-0.036996137 0.0456141 0.11308445 0.17637278 0.19794641 -0.17348905 0.054366432 -0.09435827
-0.023975551 -0.16400221 0.19814353 -0.16017513 0.11638337 0.07643343 0.07127571 -0.117404684
0.19854052 0.048483264 0.028091243 -0.19173157 0.09171118 -0.03216529 -0.09939697 0.18660153
0.04947242 -0.11993107 -0.11093072 -0.010216733 0.12150189 -0.05652704 -0.123758204 -0.074599594
-0.16213202 0.07863342 0.16951802 -0.20603104 0.05027439 0.11225901 0.039163947 -0.07779237
0.113794476 0.115488686 0.08245917 -0.038162738 -0.057375066 0.022663081 -0.03941158 -0.06406643
0.1404297 0.18820897 -0.02074414 -0.04937816 0.0030825953 -0.013907593 0.05181639 0.060703445
-0.19817036 -0.07961693 0.18395175 0.0841713 -0.011352712 -0.13159467 -0.13353626 -0.19549862
-0.071159735 0.072911136 0.13935025 0.09996174 -0.19341806 -0.13110039 -0.03429154 0.21203434
0.03122809 -0.05729244 0.089997426 -0.0821853 -0.14036572 0.15865856 -0.09947616 -0.043465648
-0.21630833 0.14664309 0.16626786 0.07875114 -0.15145628 -0.2145677 -0.17799759 0.16223055
0.1048292 0.18429084 0.114734456 0.055058308 -0.0017627034 -0.16635208 -0.18604875 -0.20427866
0.08847319 -0.10797818 -0.043260764 -0.12558787 -0.0393672 -0.15367648 -0.14232188 0.07155593
-0.065247126 0.13454358 -0.07024073 -0.15993235 -0.03833043 -0.10549037 -0.06704709 -0.2081539
00000000: 8978 2a3e 6131 3a3e 755d 4fbd b0e2 4d3e
00000010: 4e71 44bd 8085 313d c9ee d7bd 0fea 033e
00000020: fc7f 453e f8f9 22be 1d2a 433e d550 2a3d
00000030: e915 243e 9ade f33c 5c2b d83d d87a f8bc
00000040: 5ab9 2c3e da54 043d 7ac7 d1bd f517 653d
00000050: 7ca8 ccbd ae46 cbbc 87d1 b3bd 5b5f 133e
00000060: 150a 31be 01fe cebd 55e8 7dbd 610c 07be
00000070: 7580 a63c 1672 5cbe b04b 4a3e f0dc 3dbe
00000080: 9edf 2b3e c63d 113d 1690 91bd 405e 0a3e
00000090: e2bd 0d3d 22b1 343e b809 c43c a773 8bbd
000000a0: b138 713d 0446 6fbd 5e46 bd3d 1459 483e
000000b0: f8f6 003e 5bf2 c3bd 8e62 003e 4ed5 1d3d
000000c0: 3955 e23d 54b1 08be b4d9 5cbe 6900 adbd
000000d0: f69e 2bbe 6918 373e f555 803d a60a b93d
000000e0: bedf 8d3d c08b 9abb 6609 2e3e 8a02 1fbe
000000f0: ed8e 593c 54c2 18be be21 8b3d 52d4 99bd
00000100: dd37 893d 6350 38bd 5e59 393e a239 04be
00000110: af77 05be 9fcd 04be e362 493e d5ab 943d
00000120: 2453 563e deb6 38be 4371 5ebe 9543 2fbe
00000130: a451 16be 17b6 b33d fc11 9f3d 4adc 393e
00000140: 68ad e7bd a79a 18be 74d8 ed3d f598 b3bd
00000150: 0342 083e 50ec 53bd c746 003e 4327 2dbe
00000160: 4879 e0bd 6a06 883d 0520 3f3d 2280 63bd
00000170: 0ef3 053e 9ede 173e 6ef8 21be 25c8 efbd
00000180: a53d 4c3e 5cf5 95bd f981 9fbd ddf8 57be
00000190: e866 ffbd f93f 603d b4de e8bc 0ef6 21be
000001a0: afde a53b 410c 18be 6259 3dbe 86ef f4bd
000001b0: a633 43be 923e 0ebe 6956 5f3e c151 2b3d
000001c0: a152 8a3d 9882 50be 9880 13be 2e21 96bd
000001d0: 91fc 093d 4c03 45be 409d c0bd 9c5f 06be
000001e0: 508e 1ab8 18fa a5bd c156 6abc 5b58 17be
000001f0: 21fe 18be a010 02be 9af8 98bd ed62 30be
00000200: 1882 3b3e bdef 30bd 2ffd 3f3e 2d9c 8b3d
00000210: 0bc2 3cbe 16e5 1a3e d53f 75bd f448 aabd
00000220: 57bc 38be 9f08 5ebe 40ee 803d f5b6 45bd
00000230: 9da5 ae3d 00e0 37be f287 253e 2f50 23be
00000240: 4389 17bd dad5 3a3d d298 e73d 119b 343e
00000250: 77b2 4a3e 1da7 31be 56af 5e3d e93e c1bd
00000260: 6068 c4bc 32f0 27be 23e6 4a3e f304 24be
00000270: 675a ee3d 2189 9c3d 00f9 913d de71 f0bd
00000280: 354e 4b3e 6396 463d 9b1f e63c 4855 44be
00000290: 12d3 bb3d c0bf 03bd a390 cbbd 7914 3f3e
000002a0: 98a3 4a3d 6c9e f5bd a52f e3bd 1664 27bc
000002b0: fcd5 f83d e688 67bd f174 fdbd acc7 98bd
000002c0: f005 26be 8f0a a13d 2296 2d3e cdf9 52be
000002d0: 85ec 4d3d 0de8 e53d 606a 203d 9b51 9fbd
000002e0: 140d e93d 5585 ec3d 5ae0 a83d 8850 1cbd
000002f0: 1e02 6bbd eda7 b93c 096e 21bd 4335 83bd
00000300: cecc 0f3e dab9 403e 9def a9bc c140 4abd
00000310: 5e05 4a3b acdc 63bc 6c3d 543d 2da4 783d
00000320: 2ced 4abe 330e a3bd d95d 3c3e 0162 ac3d
00000330: ba00 3abc c1c0 06be bbbd 08be ca30 48be
00000340: 32bc 91bd 6f52 953d d5b1 0e3e beb8 cc3d
00000350: 620f 46be 2e3f 06be 4975 0cbd 881f 593e
00000360: 0dd2 ff3c 7aab 6abd 9250 b83d c450 a8bd
00000370: 08bc 0fbe 6477 223e 28ba cbbd 0909 32bd
00000380: ee7f 5dbe 9b29 163e 1f42 2a3e 4748 a13d
00000390: 5b17 1bbe a3b7 5bbe 0045 36be c41f 263e
000003a0: b1b0 d63d bdb6 3c3e e6f9 ea3d d284 613d
000003b0: 830a e7ba 3358 2abe 9083 3ebe 6d2e 51be
000003c0: 6f31 b53d aa23 ddbd 3332 31bd 1b9a 00be
000003d0: 803f 21bd 5e5d 1dbe d4bc 11be ea8b 923d
000003e0: 49a0 85bd cbc5 093e 5fda 8fbd 4ec5 23be
000003f0: 5e00 1dbd 560b d8bd fc4f 89bd 4c26 55be

bias f4 [256]
-0.141931 -0.014991871 -0.0005599169 0.01882659 0.18308637 0.19727018 -0.0645446 -0.1014555
0.017491959 0.02764121 0.13377844 0.07776148 0.06854972 0.0711149 0.16205221 0.12910865
-0.022107836 -0.15258494 0.1478549 -0.018681137 -0.15691446 -0.035768226 0.1603749 -0.099599935
-0.02030354 0.07381264 0.1563452 -0.031814285 -0.15731281 -0.09038041 -0.070679314 0.024015859
-0.14795983 0.19286005 0.057144314 -0.15720657 0.11940818 0.011813941 0.21386175 -0.0037456222
-0.0021019874 -0.21037577 -0.17979297 0.0015662238 0.18445541 -0.13424799 0.042139236 -0.15053472
-0.1685859 -0.08074652 -0.14621888 -0.18109849 -0.06667073 -0.03051979 0.108169705 0.09999441
-0.0022143354 -0.050170727 -0.04668551 -0.17924747 0.15116535 0.19515936 -0.2000301 -0.2090283
-0.20401515 -0.03438826 -0.0005503084 -0.14252509 0.12030505 0.013882438 -0.11034102 -0.21050736
0.16906467 0.21715745 0.019469367 -0.10377961 0.13906886 0.12864462 -0.030944642 0.2048535
-0.16138162 -0.025708124 0.18536668 -0.13477407 -0.0665175 -0.092214756 -0.08932786 0.19135247
0.13433953 -0.1991691 -0.13321987 -0.0025345676 -0.070784785 -0.11983935 -0.21508507 0.1606571
0.12132218 0.06253904 -0.049745634 -0.21057801 -0.013171877 0.08392672 -0.06374939 0.17224066
0.049984176 -0.010167057 0.08637403 0.113071196 -0.15983227 0.06672488 -0.19740771 -0.045592602
-0.070486166 0.16608888 -0.2105093 0.0784395 -0.19926806 0.09543145 0.054015353 -0.08569324
0.06473133 0.20861486 0.13270502 -0.19847563 -0.05708237 0.1986211 0.033884864 0.027455932
0.016003283 -0.07699853 -0.057226833 0.014628826 0.16450022 -0.062083494 -0.056494996 0.042234678
-0.08005394 0.18996648 0.16342185 0.009409275 -0.14065048 0.06104822 0.18439747 0.07207953
0.0914604 -0.115141116 -0.2152367 -0.082607366 0.007518314 0.19433025 0.045334656 -0.040303722
-0.05498042 -0.041323584 -0.11726724 -0.09109802 0.04119401 0.14830337 0.18502426 0.0843536
-0.1506971 0.20137258 0.2100096 -0.06434339 0.00686385 0.19763345 -0.0772456 0.103018366
0.035371743 0.121332094 0.07555631 0.21672133 0.18473813 -0.14819427 0.13160023 -0.043077875
-0.11340186 0.036163397 -0.029494096 -0.1430535 -0.19215514 -0.1207175 0.021582834 0.13333075
0.12923591 0.057555422 0.20783792 -0.18719895 -0.1372523 0.094704434 -0.19844213 0.20622066
0.030217139 -0.0799059 0.19509412 0.10199928 0.18372689 0.16410998 -0.0379336 0.19857673
0.028019728 0.021745736 0.075765006 -0.17093165 -0.12984422 0.2056867 -0.14266615 0.11751582
0.13258478 -0.17649785 -0.025218109 -0.0021055068 0.16280627 -0.0591972 0.19754437 -0.18277729
0.091153055 0.1193898 -0.07871961 -0.07128771 -0.13914408 0.05852534 0.072257794 -0.077283055
0.17654505 -0.032858025 -0.033680055 0.17106085 0.03855705 0.117451005 0.12877133 -0.14321528
-0.0018285128 0.1919605 -0.13419652 0.029110422 0.16289666 0.024067938 -0.04934544 0.0788958
-0.17978933 0.17873825 0.17173313 -0.061875787 -0.07963576 -0.042752545 0.21733852 -0.08380693
0.06520257 -0.20737311 0.065936595 0.13129823 0.07045531 -0.010886215 0.015614886 0.18914962
00000000: 5c56 11be 77a0 75bc 63c7 12ba 393a 9a3c
00000010: fe7a 3b3e 3201 4a3e f62f 84bd e7c7 cfbd
00000020: 4c4b 8f3c d26f e23c 37fd 083e 6941 9f3d
00000030: cc63 8c3d b0a4 913d 04f1 253e 0f35 043e
00000040: 7e1b b5bc 3a3f 1cbe 4667 173e 2f09 99bc
00000050: 2fae 20be b481 12bd 5139 243e 0dfb cbbd
00000060: 9c53 a6bc 152b 973d f518 203e b24f 02bd
00000070: 9c16 21be 5d19 b9bd 51c0 90bd e8bc c43c
00000080: c882 17be 1b7d 453e 2810 6a3d c2fa 20be
00000090: 478c f43d 438f 413c 93fe 5a3e 1d79 75bb
000000a0: 7fc1 09bb bf6c 57be a61b 38be c049 cd3a
000000b0: e1e1 3c3e 4e78 09be 319a 2c3d c625 1abe
000000c0: c8a1 2cbe 6e5e a5bd 67ba 15be e271 39be
000000d0: aa8a 88bd a304 fabc 1488 dd3d dfc9 cc3d
000000e0: 621e 11bb d27f 4dbd 4e39 3fbd a68c 37be
000000f0: 17cb 1a3e dbd7 473e b1d4 4cbe 840b 56be
00000100: 59e9 50be b4da 0cbd 9242 10ba 19f2 11be
00000110: 7e62 f63d 2a73 633c 79fa e1bd 3e8f 57be
00000120: 4a1f 2d3e 865e 5e3e 397e 9f3c 678a d4bd
00000130: 1168 0e3e 6abb 033e 9e7f fdbc 1ec5 513e
00000140: 3941 25be d899 d2bc c3d0 3d3e 3702 0abe
00000150: 543a 88bd 17db bcbd 86f1 b6bd e7f1 433e
00000160: 4d90 093e fcf2 4bbe ca6a 08be fd1a 26bb
00000170: 9df7 90bd 556e f5bd 433f 5cbe 4b83 243e
00000180: c377 f83d 7814 803d 14c2 4bbd c3a1 57be
00000190: dbce 57bc c6e1 ab3d 0a8f 82bd db5f 303e
000001a0: 35bc 4c3d ba93 26bc dee4 b03d df91 e73d
000001b0: 12ab 23be 0ea7 883d 3f25 4abe 4fbf 3abd
000001c0: 0d5b 90bd 3413 2a3e c08f 57be e3a4 a03d
000001d0: ed0c 4cbe 9071 c33d 343f 5d3d f07f afbd
000001e0: dc91 843d 229f 553e d3e3 073e 323d 4bbe
000001f0: 34cf 69bd 5463 4b3e dbca 0a3d 43eb e03c
00000200: 5119 833c 68b1 9dbd af66 6abd bead 6f3c
00000210: bf72 283e 434b 7ebd 4c67 67bd 45fe 2c3d
00000220: 52f3 a3bd 9386 423e 0f58 273e 5c29 1a3c
00000230: ae06 10be b30d 7a3d b1d2 3c3e 6f9e 933d
00000240: 974f bb3d 1bcf ebbd 0267 5cbe 0d2e a9bd
00000250: 305c f63b 82fe 463e d5b0 393d 8415 25bd
00000260: 2633 61bd eb42 29bd cf29 f0bd 9991 babd
00000270: 0dbb 283d d7dc 173e 0077 3d3e 95c1 ac3d
00000280: 5750 1abe 9d34 4e3e c20c 573e 78c6 83bd
00000290: 26ea e03b 6c60 4a3e f132 9ebd 4bfb d23d
000002a0: f6e1 103d f67c f83d 44bd 9a3d 32ec 5d3e
000002b0: fe2b 3d3e 3dc0 17be 36c2 063e 6d72 30bd
000002c0: 3c3f e8bd 1220 143d 9a9d f1bc 9e7c 12be
000002d0: 51c4 44be bd3a f7bd 7cce b03c db87 083e
000002e0: 6b56 043e 3cbf 6b3d 77d3 543e 15b1 3fbe
000002f0: de8b 0cbe 66f4 c13d 6a34 4bbe 822b 533e
00000300: ef89 f73c b4a5 a3bd c1c6 473e 00e5 d03d
00000310: e722 3c3e 720c 283e 4360 1bbd b357 4b3e
00000320: a189 e53c 1d24 b23c af2a 9b3d b508 2fbe
00000330: e2f5 04be 899f 523e 1317 12be 22ac f03d
00000340: 4ec4 073e dabb 34be 3596 cebc 8bfc 09bb
00000350: b0b6 263e c378 72bd 1249 4a3e f829 3bbe
00000360: 74ae ba3d a482 f43d bf37 a1bd 4aff 91bd
00000370: c97b 0ebe 44b8 6f3d e5fb 933d 9446 9ebd
00000380: 3ac8 343e 2396 06bd 19f4 09bd 932a 2f3e
00000390: ffed 1d3d 278a f03d a2dc 033e 07a7 12be
000003a0: b5aa efba 4b91 443e d06a 09be fb78 ee3c
000003b0: 62ce 263e 202a c53c 721e 4abd 1f94 a13d
000003c0: b21a 38be 2907 373e cfda 2f3e 7771 7dbd
000003d0: 1318 a3bd 4b1d 2fbd fd8d 5e3e f8a2 abbd
000003e0: ed88 853d 9e59 54be c409 873d 0b73 063e
000003f0: e04a 903d 185c 32bc 94d5 7f3c 70b0 413e

weight f4 [256]
0.9990207 0.9990914 0.9999179 0.99956757 1.0000885 0.9992984 0.9997201 0.9990903
1.0000765 0.9995563 0.99928546 1.000057 1.000559 0.9992965 0.99915177 1.0002775
1.000324 0.999282 0.9996081 0.9993349 0.99908584 0.99957055 0.99979496 1.0000877
1.0007887 0.9995026 0.99916977 0.99998736 0.9998838 0.9999816 0.99921435 1.0006591
0.99973303 1.0003512 0.99962467 1.0000387 0.99957734 0.99939084 1.0008506 1.0000328
1.0007461 0.99989957 0.99906445 1.0005536 0.99938637 0.9998429 1.0001848 0.99932164
0.99924153 1.0001848 1.0008106 0.99946904 0.99968225 1.0003372 0.99965304 0.9996693
1.000612 0.9996662 1.0000049 0.9994642 0.9992052 0.9995495 1.0001817 0.99959004
1.000275 0.9998378 0.99926096 0.9990971 0.9997995 0.99953336 0.99907506 1.000209
1.000345 1.0000796 0.999974 0.9998916 1.0001599 0.99968696 0.99972 0.999836
1.0005994 0.9994482 1.0001327 1.0001321 0.9997516 0.9998095 0.9999613 0.99921715
0.99915624 0.9997889 1.0005765 1.000032 1.0003178 0.99989736 0.99914914 1.0006928
1.0001261 1.0007333 0.99926764 1.0001454 1.0006913 1.0001962 1.000878 1.0004368
0.9994909 0.9995323 0.99912816 0.9993916 1.00017 1.000375 1.0004629 0.99985594
1.0009009 0.99960107 1.0005367 0.99952847 1.0004733 0.99904674 1.0002176 1.0007222
0.9999236 0.99932617 1.0006549 0.99984056 0.99924046 1.0010352 1.0000437 1.0000218
0.9995977 0.99925905 1.0005816 1.0004796 1.0006764 1.0002517 1.0000272 0.9991438
1.0003068 0.9991819 0.99987614 0.99957764 1.0008758 1.0005319 1.000787 0.9996981
0.9997065 1.0009378 0.9997201 1.000297 1.0002785 1.0000299 0.9990006 1.0000606
1.000046 0.99996144 0.99997914 1.0003603 0.999529 0.9991731 1.0009824 0.99979097
1.0006838 0.9991514 1.0002855 1.0000975 1.000687 0.99998105 0.9998497 0.9997181
0.9996244 0.99995565 0.9996099 0.9999001 0.9992524 0.999068 0.9998887 1.0007203
1.0002652 0.99952906 1.0005544 0.9994162 1.0005497 0.9996382 1.0001502 0.99973947
0.99980617 0.9997217 1.0000705 1.0003957 0.9991549 1.0003577 0.9991729 0.9997425
0.9996357 1.0005358 0.9998484 1.0002062 0.9998582 0.9998231 1.0007803 0.9990654
0.9993975 0.9995702 0.9994922 0.99905455 1.0002278 1.0005609 1.0004236 0.99989665
0.999553 1.0004227 0.9999535 0.99911386 1.0008466 0.99908334 1.0008966 1.0000088
0.99991894 0.99919665 1.0005064 0.99996066 1.0003852 0.99948585 0.99921465 1.0000997
1.0006205 1.0003003 0.99940276 0.99979967 1.0007523 0.9991186 1.0007778 1.000206
1.0008463 0.999719 0.9998598 1.0006367 1.0007033 0.9993816 1.000152 1.0000718
1.0006661 0.9995495 0.9992028 1.0009128 0.99912304 0.9991037 0.9993603 1.0006872
0.9997782 0.9996059 1.0000153 0.99919367 1.000355 1.000145 0.9999462 0.9994254
00000000: d2bf 7f3f 74c4 7f3f 9ffa 7f3f a9e3 7f3f
00000010: e602 803f 05d2 7f3f a8ed 7f3f 62c4 7f3f
00000020: 8202 803f ece2 7f3f 2cd1 7f3f de01 803f
00000030: 5112 803f e5d1 7f3f 69c8 7f3f 1809 803f
00000040: 9e0a 803f f2d0 7f3f 51e6 7f3f 69d4 7f3f
00000050: 17c4 7f3f dbe3 7f3f 90f2 7f3f e002 803f
00000060: d819 803f 67df 7f3f 97c9 7f3f 2cff 7f3f
00000070: 62f8 7f3f cbfe 7f3f 83cc 7f3f 9915 803f
00000080: 81ee 7f3f 820b 803f 67e7 7f3f 4501 803f
00000090: 4de4 7f3f 14d8 7f3f df1b 803f 1301 803f
000000a0: 7318 803f 6bf9 7f3f b0c2 7f3f 2412 803f
000000b0: c9d7 7f3f b4f5 7f3f 0e06 803f 8bd3 7f3f
000000c0: 4bce 7f3f 0e06 803f 901a 803f 34dd 7f3f
000000d0: 2deb 7f3f 0d0b 803f 43e9 7f3f 54ea 7f3f
000000e0: 0e14 803f 20ea 7f3f 2900 803f e3dc 7f3f
000000f0: e9cb 7f3f 7ae2 7f3f f405 803f 22e5 7f3f
00000100: 0309 803f 5ff5 7f3f 91cf 7f3f d4c4 7f3f
00000110: dcf2 7f3f 6be1 7f3f 62c3 7f3f d906 803f
00000120: 4e0b 803f 9c02 803f 4cfe 7f3f e5f8 7f3f
00000130: 3d05 803f 7ceb 7f3f a6ed 7f3f 41f5 7f3f
00000140: a413 803f d6db 7f3f 5904 803f 5404 803f
00000150: b9ef 7f3f 84f3 7f3f 77fd 7f3f b2cc 7f3f
00000160: b4c8 7f3f 2af2 7f3f e412 803f 0c01 803f
00000170: 6a0a 803f 46f9 7f3f 3dc8 7f3f b416 803f
00000180: 2204 803f 0718 803f 01d0 7f3f c404 803f
00000190: a716 803f 6e06 803f c51c 803f 500e 803f
000001a0: a3de 7f3f 59e1 7f3f ddc6 7f3f 21d8 7f3f
000001b0: 9205 803f 4a0c 803f 2b0f 803f 8ff6 7f3f
000001c0: 851d 803f dbe5 7f3f 9611 803f 19e1 7f3f
000001d0: 820f 803f 87c1 7f3f 2107 803f aa17 803f
000001e0: fefa 7f3f d7d3 7f3f 7615 803f 8df5 7f3f
000001f0: 39ce 7f3f ec21 803f 6f01 803f b700 803f
00000200: a3e5 7f3f 71cf 7f3f 0f13 803f b70f 803f
00000210: 2a16 803f 3f08 803f e400 803f e3c7 7f3f
00000220: 0e0a 803f 63ca 7f3f e2f7 7f3f 52e4 7f3f
00000230: b31c 803f 6e11 803f ca19 803f 37ec 7f3f
00000240: c4ec 7f3f bb1e 803f a8ed 7f3f bb09 803f
00000250: 2009 803f fb00 803f 81be 7f3f fc01 803f
00000260: 8201 803f 79fd 7f3f a2fe 7f3f ce0b 803f
00000270: 22e1 7f3f cfc9 7f3f 3120 803f 4df2 7f3f
00000280: 6816 803f 63c8 7f3f 5b09 803f 3203 803f
00000290: 8316 803f c2fe 7f3f 26f6 7f3f 87ed 7f3f
000002a0: 62e7 7f3f 18fd 7f3f 6fe6 7f3f 74f9 7f3f
000002b0: 01cf 7f3f ecc2 7f3f b5f8 7f3f 9a17 803f
000002c0: b108 803f 23e1 7f3f 2b12 803f bdd9 7f3f
000002d0: 0312 803f 4ae8 7f3f ec04 803f edee 7f3f
000002e0: 4cf3 7f3f c3ed 7f3f 4f02 803f f70c 803f
000002f0: 9ec8 7f3f b90b 803f ccc9 7f3f 20ef 7f3f
00000300: 20e8 7f3f 8f11 803f 11f6 7f3f c206 803f
00000310: b5f6 7f3f 68f4 7f3f 9219 803f c0c2 7f3f
00000320: 84d8 7f3f d5e3 7f3f b9de 7f3f 0ac2 7f3f
00000330: 7707 803f 6112 803f e10d 803f 3af9 7f3f
00000340: b5e2 7f3f da0d 803f f4fc 7f3f edc5 7f3f
00000350: be1b 803f edc3 7f3f 611d 803f 4a00 803f
00000360: b0fa 7f3f 5acb 7f3f 9810 803f 6cfd 7f3f
00000370: 9f0c 803f 4ede 7f3f 88cc 7f3f 4403 803f
00000380: 5514 803f d709 803f dcd8 7f3f dff2 7f3f
00000390: a718 803f 3dc6 7f3f 7d19 803f c006 803f
000003a0: bb1b 803f 96ed 7f3f d0f6 7f3f dd14 803f
000003b0: 0c17 803f 79d7 7f3f fb04 803f 5a02 803f
000003c0: d415 803f 7ae2 7f3f c1cb 7f3f e91d 803f
000003d0: 87c6 7f3f 43c5 7f3f 14d6 7f3f 8516 803f
000003e0: 77f1 7f3f 2ce6 7f3f 8000 803f 28cb 7f3f
000003f0: a20b 803f c004 803f 79fc 7f3f 58da 7f3f

bias f4 [256]
-6.599902e-05 -6.485732e-07 0.00019834611 0.00053986255 0.00030041387 0.00077455764 0.00059676776 -0.00069346244
0.00056734966 0.00020812576 -0.00037383928 -0.00033225658 -0.00017823568 -0.00018356067 0.00037851062 0.0006381916
0.0004975414 0.00019656372 -0.00020388905 0.00012196474 -4.095068e-05 0.00045307452 -0.0008340928 0.00020430546
0.0008575265 -0.00010735111 -0.0004953396 -9.044607e-05 -0.00038363796 -0.00040821813 0.00046494434 0.00035995894
0.0003669294 -0.00041004067 1.3304595e-05 0.0005043841 -0.0008390468 0.0002605403 -0.00046734704 0.00029201785
-0.00040050648 0.0007384134 0.00018039603 0.00037246678 0.00079329393 -0.0004015086 7.411505e-05 -0.00039136756
-0.0002477102 -0.00044654158 0.00034627906 -0.00035994666 -0.00055713893 -8.206249e-05 -0.00028984473 4.1506024e-05
-0.00016942919 0.0005221196 0.00018031482 0.0006244096 -0.00037118842 0.00030647428 0.00029081502 -0.00016367636
-0.0005714723 -9.302161e-05 9.99308e-05 0.00048318674 0.0001707897 0.0002984842 -0.0006901633 -0.0004522504
8.8498506e-05 0.0005319961 -0.0003656663 9.454915e-05 -8.989197e-05 0.000858617 0.0005248202 6.7399196e-05
2.233489e-05 -0.00060710014 -0.00036706554 -9.664149e-05 -0.00011071351 0.00068203965 0.00060590584 -0.0003316665
0.00048495567 0.00029115603 -0.00042446546 0.00056282163 0.00089774287 0.00024987286 0.0002759388 -0.00025049588
-8.365345e-05 -2.7929285e-05 -8.6567714e-05 -0.0008205163 0.00013565483 -0.00032834362 0.00082385115 -0.00015297096
0.00024281177 0.00050149934 0.0008698596 3.2320615e-06 -0.00033808153 0.00047738242 0.00021494838 0.0006587912
0.00037978456 0.00050866324 -0.00059663376 -0.00017345723 0.00052950263 -0.00017261843 6.366688e-05 -0.0002224485
0.00074913865 0.00015661692 -0.0005256999 0.0006084616 -7.91182e-05 0.0005509494 -0.0008381164 0.0004587879
-0.00032022773 -1.7554608e-05 0.00088759564 2.3184855e-05 -0.00048552168 -0.0006116135 -0.00011470624 -0.00013581966
-0.00071733573 -0.0006591778 0.00012628999 -0.00020858212 0.00023534962 0.0001963453 -0.00025365644 0.00032600242
3.260959e-05 -0.0003464269 -0.0005609352 -0.0006249743 0.0003350405 -0.0003086756 0.00057341927 0.00028769145
-0.00044815207 0.0008943746 -0.00028962982 0.00043757487 0.0003798842 -0.00057624996 0.00030949627 0.0005090929
2.9211453e-05 0.00022868585 0.0006252815 -0.00094449724 1.3760977e-05 0.00014755498 -0.00053419336 4.292553e-05
-0.00020936849 -0.00031103694 -0.0004892699 -0.0004903918 -0.00043842112 7.88275e-05 -0.00081783277 0.00058880035
-0.00014953283 0.0001763596 -3.339598e-06 -0.00038764454 -0.00028285722 -0.00062794826 0.0006047171 0.0004461914
-0.00069346285 -0.00070170796 -9.769373e-05 -0.00027382793 0.00044973075 0.00013404504 -0.00017552801 -0.00038434973
0.00012452634 0.00023299367 0.0007954503 0.00037444168 0.00034367928 0.0007887936 -0.00035914005 0.0005283351
0.000660468 0.00035108224 -0.00026598285 0.0005493 -0.00029460323 0.00023520406 0.0005636374 -0.0002592511
-0.00036700504 0.00015719661 0.0005636579 0.0007279693 -0.00031708367 0.00035584 -0.00058302615 -0.0007797701
0.00038514662 -0.00085567456 -0.00031352215 -0.00060567434 0.00040885044 0.00037322636 0.00037848053 0.0007818402
-0.00073904195 0.00048573426 -0.00046960264 0.00036539746 -0.0001332294 -0.0007482699 0.0007791998 -9.3394636e-05
0.00046761418 0.0005386759 -0.0002121198 0.0004911094 0.00058522366 0.00048239328 0.00031300378 0.00015405282
0.00050568115 0.00011591881 -2.2266664e-05 0.00029330346 0.00080447627 -0.0003138632 0.00075096695 -6.798288e-05
-0.00013243528 8.319932e-05 0.00016005454 8.697281e-05 0.00024238197 -0.0005479135 0.0004396448 0.00057732494
00000000: f468 8ab8 9c19 2eb5 21fb 4f39 9085 0d3a
00000010: de80 9d39 af0b 4b3a 6870 1c3a 7ac9 35ba
00000020: 31ba 143a 553c 5a39 dcff c3b9 b932 aeb9
00000030: c7e4 3ab9 317a 40b9 d672 c639 504c 273a
00000040: 706d 023a ac1c 4e39 0dcb 55b9 52c7 ff38
00000050: 75c2 2bb8 a28a ed39 05a7 5aba d43a 5639
00000060: a1cb 603a b021 e1b8 aed9 01ba ddad bdb8
00000070: 0423 c9b9 1c06 d6b9 c6c3 f339 dfb8 bc39
00000080: 6e60 c039 bafa d6b9 cd36 5f37 a538 043a
00000090: 7af3 5bba 2199 8839 4206 f5b9 f919 9939
000000a0: 12fb d1b9 1692 413a b128 3d39 a547 c339
000000b0: 0ef5 4f3a 9281 d2b9 376e 9b38 7730 cdb9
000000c0: 1adf 81b9 cc1d eab9 ca8c b539 39b7 bcb9
000000d0: f60c 12ba f718 acb8 4df6 97b9 c116 2e38
000000e0: cda8 31b9 dade 083a e412 3d39 6baf 233a
000000f0: 119c c2b9 48ae a039 8878 9839 8aa0 2bb9
00000100: dbce 15ba 9914 c3b8 f191 d138 3a54 fd39
00000110: 0316 3339 df7d 9c39 13ec 34ba 051c edb9
00000120: 4698 b938 a775 0b3a e6b6 bfb9 b048 c638
00000130: 6284 bcb8 d014 613a 1694 093a ab58 8d38
00000140: d05b bb37 cd25 1fba b472 c0b9 01ac cab8
00000150: dd2e e8b8 e8ca 323a a7d5 1e3a 86e3 adb9
00000160: a641 fe39 4da6 9839 ca8a deb9 528a 133a
00000170: 8156 6b3a 5e01 8339 e1ab 9039 fd54 83b9
00000180: 1b6f afb8 af49 eab7 b08b b5b8 eb17 57ba
00000190: 913e 0e39 8925 acb9 b7f7 573a d466 20b9
000001a0: 4a9b 7e39 0d77 033a 4a07 643a 65e6 5836
000001b0: 8940 b1b9 2f49 fa39 c463 6139 bbb2 2c3a
000001c0: d21d c739 d057 053a 6a67 1cba 12e2 35b9
000001d0: 52ce 0a3a e800 35b9 e584 8538 1141 69b9
000001e0: d861 443a 8939 2439 20cf 09ba 2b81 1f3a
000001f0: 43ec a5b8 976d 103a 0ab5 5bba 7889 f039
00000200: 3de4 a7b9 3c42 93b7 89ad 683a 197d c237
00000210: 9e8d feb9 b054 20ba 728e f0b8 d06a 0eb9
00000220: 960b 3cba accc 2cba b66c 0439 d6b6 5ab9
00000230: 2fc8 7639 0ae2 4d39 31fd 84b9 4eeb aa39
00000240: 48c6 0838 a2a0 b5b9 b90b 13ba 51d5 23ba
00000250: 60a8 af39 bdd5 a1b9 8451 163a 4bd5 9639
00000260: f4f5 eab9 7774 6a3a 75d9 97b9 4e6a e539
00000270: 322b c739 7b0f 17ba e343 a239 a574 053a
00000280: 1e0b f537 64cb 6f39 eee9 233a 2398 77ba
00000290: f2de 6637 fdb8 1a39 1c09 0cba f00a 3438
000002a0: ed89 5bb9 ac12 a3b9 5942 00ba a38d 00ba
000002b0: e3db e5b9 3150 a538 d463 56ba b959 1a3a
000002c0: eacb 1cb9 2bed 3839 db1d 60b6 c53c cbb9
000002d0: 744c 94b9 e59c 24ba e185 1e3a ccee e939
000002e0: 81c9 35ba d3f2 37ba ece0 ccb8 9090 8fb9
000002f0: d7c9 eb39 718e 0c39 f10d 38b9 8c82 c9b9
00000300: 4993 0239 c34f 7439 c485 503a b650 c439
00000310: da2f b439 0bc7 4e3a f64a bcb9 f87f 0a3a
00000320: 4223 2d3a 7611 b839 9d73 8bb9 e6fe 0f3a
00000330: fa74 9ab9 1ca1 7639 11c1 133a 18ec 87b9
00000340: 956a c0b9 25d5 2439 71c2 133a 31d5 3e3a
00000350: 403e a6b9 0990 ba39 39d6 18ba 7c69 4cba
00000360: 81ed c939 594f 60ba 3b60 a4b9 1ec6 1eba
00000370: fa5a d639 98ad c339 cc6e c639 68f4 4c3a
00000380: 44bc 41ba 26aa fe39 0035 f6b9 d192 bf39
00000390: 7fb3 0bb9 8b27 44ba 3743 4c3a dddc c3b8
000003a0: 1d2a f539 ed35 0d3a 7a6c 5eb9 cbbd 003a
000003b0: b269 193a bbe9 fc39 a81a a439 3d89 2139
000003c0: b08f 043a 7019 f338 4cc9 bab7 86c6 9939
000003d0: 7de3 523a 018e a4b9 8adc 443a 0892 8eb8
000003e0: 53de 0ab9 4b7b ae38 50d4 2739 2c65 b638
000003f0: ea27 7e39 daa1 0fba 2080 e639 9f57 173a

running_mean f4 [256]
0.12347622 0.14972991 0.17619413 0.13298944 0.26768383 0.25200164 0.2240281 0.09846636
0.19795989 0.19464569 0.1929205 0.20247032 0.16725084 0.17815547 0.22627665 0.18445183
0.11482045 0.084301956 0.25860858 0.23874564 0.1440939 0.28026286 0.29197174 0.093080625
0.21398464 0.1361431 0.2955405 0.13941532 0.102055445 0.09429166 0.25251135 0.16201396
0.09462517 0.42994565 0.21563506 0.14452025 0.22690205 0.24115904 0.2181083 0.10542686
0.16774867 0.075156316 0.16920035 0.11435118 0.28952968 0.0851299 0.34423518 0.06082685
0.074919455 0.10771399 0.21539225 0.090158105 0.21751146 0.262538 0.2230625 0.19164617
0.18586837 0.20661114 0.21622957 0.11928485 0.21760985 0.22436796 0.16029575 0.20246422
0.057974435 0.39485914 0.11515208 0.15920952 0.30995646 0.16829568 0.06501453 0.1052292
0.32941887 0.2289644 0.14857554 0.17255463 0.23914243 0.18807678 0.11771443 0.3140729
0.36223862 0.18820895 0.3938627 0.24194205 0.29113823 0.14032723 0.107047565 0.24625865
0.35164627 0.12409816 0.107760236 0.15591282 0.19245808 0.15072525 0.04596 0.26583588
0.23493047 0.1634363 0.17395963 0.18357027 0.09184526 0.24805064 0.26294124 0.1980808
0.14544138 0.13472141 0.16681758 0.19002223 0.13753726 0.19671096 0.17630254 0.19028762
0.25106218 0.3349977 0.19306967 0.17562176 0.06955945 0.20558746 0.15418367 0.12718576
0.20107903 0.2878015 0.20728144 0.10184945 0.19269823 0.27321392 0.21876828 0.17344494
0.36188468 0.25832245 0.18875055 0.30002525 0.2578277 0.17150475 0.20304674 0.13189813
0.21661076 0.20896281 0.19536725 0.17800008 0.21879302 0.14518769 0.22883795 0.20557164
0.21003905 0.14232934 0.11774802 0.18742533 0.13099678 0.25467277 0.16731232 0.12644723
0.28206974 0.13854799 0.096922286 0.116762385 0.25061885 0.18957095 0.31476817 0.2810158
0.11008879 0.21830529 0.28410533 0.13233179 0.14337176 0.28734958 0.1549356 0.20125893
0.16279694 0.1892436 0.2255191 0.3289729 0.32756868 0.18213782 0.19025876 0.17130817
0.08967095 0.3524621 0.17000966 0.22387049 0.10775338 0.116146296 0.25176802 0.18129349
0.167161 0.17780419 0.3652111 0.102003366 0.15773322 0.27572134 0.12317674 0.29291457
0.3255556 0.13302371 0.24164973 0.34124777 0.19394515 0.23369132 0.20261645 0.4883547
0.18823193 0.15428734 0.19515647 0.16020226 0.20428203 0.31998014 0.19144581 0.20246159
0.210434 0.10894839 0.29875228 0.12219896 0.22729063 0.13928364 0.21499674 0.09887592
0.21844259 0.24307239 0.27244514 0.12311876 0.21819668 0.210561 0.21803354 0.20263816
0.43643308 0.21924387 0.16894285 0.19858001 0.28656343 0.4537891 0.34666753 0.11835074
0.118455105 0.2844611 0.17971964 0.14250478 0.21048243 0.18073891 0.19381604 0.27435338
0.21162331 0.43453532 0.24996424 0.10653829 0.2564738 0.14246869 0.43794152 0.21917647
0.30125678 0.09436899 0.19189641 0.21385133 0.17500597 0.15864606 0.23211765 0.22629076
00000000: 1ae1 fc3d cc52 193e 3c6c 343e 622e 083e
00000010: db0d 893e 5c06 813e 9f67 653e bba8 c93d
00000020: ffb5 4a3e 3351 473e f48c 453e 6154 4f3e
00000030: ce43 2b3e 636e 363e 11b5 673e f1e0 3c3e
00000040: fc26 eb3d 81a6 ac3d 5868 843e bd79 743e
00000050: 5a8d 133e 9d7e 8f3e 527d 953e 0ea1 be3d
00000060: ca1e 5b3e 1969 0b3e 1651 973e e4c2 0e3e
00000070: 7202 d13d fc1b c13d 2b49 813e fde6 253e
00000080: d7ca c13d d621 dc3e 70cf 5c3e 1efd 133e
00000090: 0359 683e 65f2 763e c857 5f3e 0aea d73d
000000a0: 4fc6 2b3e 8eeb 993d db42 2d3e f430 ea3d
000000b0: 3c3d 943e 9658 ae3d 983f b03e 9325 793d
000000c0: 5f6f 993d 2799 dc3d c98f 5c3e d0a4 b83d
000000d0: 53bb 5e3e 616b 863e 7f6a 643e e53e 443e
000000e0: 4754 3e3e df91 533e 496b 5d3e 9e4b f43d
000000f0: 1ed5 5e3e b7c0 653e 9224 243e c852 4f3e
00000100: 9a76 6d3d fa2a ca3e dbd4 eb3d d207 233e
00000110: 9db2 9e3e b455 2c3e 5726 853d 6882 d73d
00000120: 97a9 a83e a575 6a3e 3024 183e 29b2 303e
00000130: c1e1 743e 3397 403e 4314 f13d 2ace a03e
00000140: 5777 b93e d9b9 403e 5fa8 c93e a8bf 773e
00000150: 1210 953e f1b1 0f3e c13b db3d 3a2b 7c3e
00000160: fb0a b43e 2d27 fe3d 66b1 dc3d 9ca7 1f3e
00000170: bb13 453e b857 1a3e 8e40 3c3d a41b 883e
00000180: 9d91 703e d85b 273e 7922 323e d8f9 3b3e
00000190: 5e19 bc3d fd00 7e3e 3ca0 863e b1d5 4a3e
000001a0: 96ee 143e 69f4 093e 3ad2 2a3e 3095 423e
000001b0: 91d6 0c3e 996e 493e a788 343e c2da 423e
000001c0: 398b 803e d284 ab3e 0eb4 453e 31d6 333e
000001d0: 2f75 8e3d 8585 523e 53e2 1d3e fc3c 023e
000001e0: a9e7 4d3e b85a 933e 9641 543e 7296 d03d
000001f0: af52 453e b2e2 8b3e cb04 603e 8d9b 313e
00000200: f348 b93e d742 843e d347 413e e99c 993e
00000210: fe01 843e f19e 2f3e 7ceb 4f3e 4e10 073e
00000220: 36cf 5d3e 59fa 553e 5a0e 483e a745 363e
00000230: 470b 603e 15ac 143e 7f54 6a3e 5f81 523e
00000240: 7a14 573e c8be 113e e025 f13d 6dec 3f3e
00000250: 0524 063e 7864 823e ec53 2b3e 627b 013e
00000260: 726b 903e 86df 0d3e 317f c63d 1e21 ef3d
00000270: 1d51 803e e31e 423e 4b29 a13e 4ee1 8f3e
00000280: 3b76 e13d 6c8b 5f3e 4176 913e fc81 073e
00000290: 0cd0 123e 7c1f 933e 70a7 1e3e d216 4e3e
000002a0: 3eb4 263e 13c9 413e 7bee 663e 236f a83e
000002b0: 15b7 a73e 5682 3a3e 31d3 423e 696b 2f3e
000002c0: 67a5 b73d ea75 b43e 0317 2e3e 4e3e 653e
000002d0: cead dc3d 1cde ed3d bde7 803e 00a5 393e
000002e0: 412c 2b3e 4d12 363e f3fc ba3e 24e7 d03d
000002f0: d184 213e 592b 8d3e 1644 fc3d e6f8 953e
00000300: 39af a63e 5e37 083e 0773 773e 07b8 ae3e
00000310: 8f99 463e c74c 6f3e b07a 4f3e a109 fa3e
00000320: dfbf 403e 80fd 1d3e 19d7 473e 100c 243e
00000330: 4f2f 513e 70d4 a33e 5f0a 443e 1752 4f3e
00000340: 037c 573e 5520 df3d 0ff6 983e 7343 fa3d
00000350: e0be 683e 5fa0 0e3e 1b28 5c3e 757f ca3d
00000360: 6aaf 5f3e f8e7 783e ee7d 8b3e b025 fc3d
00000370: f36e 5f3e 4e9d 573e 2f44 5f3e 6180 4f3e
00000380: 2874 df3e 7781 603e 5bff 2c3e 8f58 4b3e
00000390: 71b8 923e 0b57 e83e 687e b13e df61 f23d
000003a0: 9798 f23d e3a4 913e 6d08 383e c6ec 113e
000003b0: b588 573e 9f13 393e b677 463e 0c78 8c3e
000003c0: c8b3 583e 6a7b de3e a0f6 7f3e bf30 da3d
000003d0: 8950 833e 50e3 113e df39 e03e cc6f 603e
000003e0: 543e 9a3e 8744 c13d 7e80 443e d8fb 5a3e
000003f0: c434 333e 1d74 223e 40b0 6d3e c4b8 673e

running_var f4 [256]
0.2839514 0.2884571 0.29127234 0.27412456 0.3584328 0.36077586 0.35338375 0.25290897
0.29275963 0.2910605 0.32918963 0.29973865 0.2496185 0.3387744 0.32325014 0.3230922
0.25513414 0.2352181 0.34136128 0.32957125 0.28771013 0.378735 0.33824784 0.23267646
0.3592641 0.2753739 0.32566142 0.28577256 0.23054285 0.24526992 0.39546907 0.27845675
0.261867 0.47680148 0.33802217 0.314634 0.30924016 0.37950674 0.30588174 0.24755117
0.33272964 0.24768166 0.3265577 0.24494222 0.331463 0.2463987 0.4093961 0.22426172
0.23905122 0.2658721 0.35470796 0.2568138 0.34657255 0.35039192 0.39169043 0.32212737
0.2870528 0.34317833 0.3737832 0.28715423 0.3481422 0.30365428 0.32151642 0.33365026
0.21999188 0.5610718 0.24244659 0.27030435 0.38602316 0.30483386 0.2788467 0.2623079
0.39698383 0.27704224 0.2811715 0.28060523 0.3135935 0.27232236 0.25410265 0.3745007
0.5286358 0.28394654 0.39973643 0.38265234 0.4405268 0.28538805 0.2416288 0.31940562
0.5411431 0.27334198 0.2566566 0.31797805 0.36209464 0.31120533 0.22877778 0.31779307
0.30736274 0.26408708 0.30289355 0.28762048 0.24528785 0.398562 0.4114127 0.28065142
0.27490547 0.25877756 0.26436237 0.33689284 0.28781638 0.35485265 0.31239653 0.2794437
0.40936965 0.37369695 0.36131915 0.26328155 0.24044181 0.3248773 0.2529809 0.2844305
0.30850336 0.33035985 0.2818572 0.26182708 0.3071354 0.336964 0.2935591 0.2813848
0.51623905 0.40104055 0.34235457 0.4413337 0.34341148 0.325979 0.29945153 0.2738123
0.37501398 0.3214631 0.28679046 0.30847812 0.34551135 0.303515 0.32633433 0.30831885
0.27248564 0.30048674 0.26303315 0.30902874 0.27153274 0.3521263 0.29922307 0.28479046
0.43890896 0.2580578 0.24777406 0.2695933 0.33721298 0.29939586 0.45894292 0.3486204
0.30199233 0.28529608 0.3236657 0.2802788 0.28096056 0.3820508 0.30587465 0.3278674
0.27600297 0.30052873 0.32314724 0.41584483 0.39194927 0.3664259 0.2945193 0.28860798
0.26365948 0.47427183 0.27816793 0.40446457 0.2652819 0.26397878 0.3550635 0.29064122
0.276214 0.26981178 0.4734872 0.28869054 0.351949 0.31409585 0.27948162 0.36563367
0.4086969 0.25680915 0.35671082 0.47702828 0.35716668 0.30464363 0.31393155 0.52157354
0.3162229 0.3067092 0.33770415 0.29829136 0.3136773 0.4386862 0.35905337 0.29276395
0.33208254 0.25762188 0.38012415 0.2788232 0.3315507 0.2642596 0.33504635 0.26283398
0.33611462 0.3550866 0.44255945 0.28177902 0.43807042 0.32018402 0.30231935 0.33675852
0.5282991 0.32479948 0.29586032 0.2605707 0.40286672 0.5059577 0.536322 0.2608781
0.26914638 0.35424915 0.27679208 0.26961893 0.38213706 0.2923114 0.35069618 0.34953114
0.43760204 0.5059376 0.3235478 0.23226827 0.30236614 0.26794738 0.48438242 0.3324842
0.40684274 0.30658275 0.30625868 0.3236201 0.29590803 0.3149308 0.39333856 0.37093392
00000000: 1462 913e a6b0 933e a621 953e 0e5a 8c3e
00000010: 8184 b73e 9db7 b83e b7ee b43e 497d 813e
00000020: 97e4 953e e205 953e 8b8b a83e 5877 993e
00000030: fe9b 7f3e d773 ad3e 0b81 a53e 576c a53e
00000040: f1a0 823e 03dd 703e e8c6 ae3e 90bd a83e
00000050: be4e 933e 8ee9 c13e d22e ad3e bd42 6e3e
00000060: 77f1 b73e cffd 8c3e 18bd a63e c850 923e
00000070: 6d13 6c3e 0a28 7b3e ec7a ca3e e291 8e3e
00000080: 6e13 863e 531f f43e 3e11 ad3e b517 a13e
00000090: ba54 9e3e b54e c23e 889c 9c3e 0e7e 7d3e
000000a0: 8a5b aa3e 43a0 7d3e 9232 a73e 22d2 7a3e
000000b0: 85b5 a93e f14f 7c3e 5e9c d13e dda4 653e
000000c0: d8c9 743e 6320 883e 489c b53e 197d 833e
000000d0: f571 b13e 9266 b33e a68b c83e e1ed a43e
000000e0: 96f8 923e 12b5 af3e 8360 bf3e e105 933e
000000f0: b23f b23e 9378 9b3e cd9d a43e 35d4 aa3e
00000100: 8d45 613e 67a2 0f3f eb43 783e 5565 8a3e
00000110: d4a4 c53e 2f13 9c3e ffc4 8e3e 394d 863e
00000120: 7741 cb3e 7bd8 8d3e b6f5 8f3e 7dab 8f3e
00000130: 548f a03e d66d 8b3e be19 823e 8ebe bf3e
00000140: ad54 073f 7161 913e 41aa cc3e 02eb c33e
00000150: bb8c e13e 621e 923e 8a6d 773e 2289 a33e
00000160: 5b88 0a3f 7bf3 8b3e 7e68 833e 05ce a23e
00000170: 7864 b93e 4e56 9f3e b944 6a3e c6b5 a23e
00000180: a65e 9d3e 6c36 873e dd14 9b3e fe42 933e
00000190: bd2c 7b3e 5210 cc3e afa4 d23e 8bb1 8f3e
000001a0: 69c0 8c3e 7e7e 843e 815a 873e 387d ac3e
000001b0: ab5c 933e 3faf b53e 70f2 9f3e 3f13 8f3e
000001c0: e698 d13e 3555 bf3e d3fe b83e d7cc 863e
000001d0: 6136 763e 5156 a63e b686 813e e0a0 913e
000001e0: 27f4 9d3e ed24 a93e 964f 903e 330e 863e
000001f0: da40 9d3e 8c86 ac3e 614d 963e ab11 903e
00000200: 3e28 043f 3055 cd3e 1949 af3e 7ef6 e13e
00000210: a1d3 af3e b8e6 a63e b651 993e 2031 8c3e
00000220: d501 c03e d096 a43e 33d6 923e d8f0 9d3e
00000230: dde6 b03e 5166 9b3e 4b15 a73e f8db 9d3e
00000240: 3d83 8b3e 66d9 993e 48ac 863e 0439 9e3e
00000250: 5706 8b3e e649 b43e c433 993e 0ed0 913e
00000260: adb8 e03e 2720 843e 7cb8 7d3e 2208 8a3e
00000270: 2ea7 ac3e 6a4a 993e 91fa ea3e 607e b23e
00000280: bd9e 9a3e 5412 923e 83b7 a53e b480 8f3e
00000290: 10da 8f3e 2a9c c33e 9a9b 9c3e 3cde a73e
000002a0: 4350 8d3e e7de 993e 8e73 a53e 9de9 d43e
000002b0: 93ad c83e 2d9c bb3e 3ccb 963e 6dc4 933e
000002c0: 60fe 863e c2d3 f23e 076c 8e3e fb15 cf3e
000002d0: 07d3 873e 3a28 873e e2ca b53e edce 943e
000002e0: ec6b 8d3e c524 8a3e ea6c f23e 3fcf 933e
000002f0: a932 b43e 2cd1 a03e 3718 8f3e 5634 bb3e
00000300: b840 d13e 7d7c 833e cda2 b63e 0d3d f43e
00000310: 8dde b63e 40fa 9b3e a3bb a03e d885 053f
00000320: f8e7 a13e fd08 9d3e 8fe7 ac3e a5b9 983e
00000330: 509a a03e 7a9b e03e d8d5 b73e 28e5 953e
00000340: b906 aa3e 04e7 833e a29f c23e eac1 8e3e
00000350: 03c1 a93e 094d 873e 328b ab3e 2d92 863e
00000360: 3717 ac3e e9cd b53e 2797 e23e 5745 903e
00000370: c44a e03e 29ef a33e 9ac9 9a3e 9d6b ac3e
00000380: 9c3e 073f 1e4c a63e 017b 973e 8669 853e
00000390: 8c44 ce3e 7286 013f 664c 093f d091 853e
000003a0: 8ecd 893e 2560 b53e b1b7 8d3e 7e0b 8a3e
000003b0: 78a7 c33e d7a9 953e 738e b33e bff5 b23e
000003c0: 600d e03e 2085 013f 0fa8 a53e bcd7 6d3e
000003d0: bccf 9a3e 6630 893e f900 f83e 5e3b aa3e
000003e0: b14d d03e 6af8 9c3e f0cd 9c3e 89b1 a53e
000003f0: 4281 973e 9c3e a13e ac63 c93e 0deb bd3e

weight f4 [256, 256]
0.026622204 -0.015081474 -0.04985826 0.044931617 -0.02338305 0.03835614 -0.01328211 0.0004160282
-0.0496879 -0.024072561 0.0046416717 -0.06034992 -0.01320642 0.03549657 0.044125307 0.045391347
-0.019084584 0.004440966 -0.05111835 0.031493783 0.010797096 0.051601715 -0.010224513 0.059805974
0.031249812 0.05308474 -0.004977158 -0.049348526 -0.04849943 -0.05835951 0.0097361915 -0.048576202
-0.0209162 0.03112708 0.05673874 -0.016608018 0.042499617 -0.0050837602 -0.012283994 -0.007699649
-0.028506137 0.017656695 -0.0003600092 -0.029872706 0.038982086 -0.028377874 -0.042954024 0.021186965
-0.004180071 -0.03476597 -0.051862054 -0.019344568 -0.04830859 0.033069048 -0.0085612405 0.032611255
0.029574607 0.005178089 -0.009048797 -0.03220966 0.013177342 -0.054815233 -0.030026667 0.050205357
-0.012493189 0.0506348 0.03757104 -0.01397173 -0.05101714 0.0500713 0.005289995 0.05865387
-0.055994034 0.013466944 -0.054166995 -0.008265008 -0.055180956 -0.056994785 0.003564695 0.06200768
0.004080522 -0.005402281 0.058651935 0.005534442 -0.03410263 0.03961761 0.044189215 0.053308643
0.048393223 0.057757784 -0.0236244 0.008325716 -0.02207489 -0.0089926645 0.04925041 -0.050137956
0.03323035 -0.03595909 0.0002766426 -0.008198999 -0.028913397 0.004430662 -0.032017384 0.056379996
-0.023392962 0.038858924 -0.013945869 -0.049774714 0.049077515 -0.0169161 -0.026718527 0.0040528607
-0.0015355477 0.01695557 -0.015645275 -0.017879091 0.0344318 0.02942695 0.055820778 0.0066157808
-0.01574942 -0.012330319 -0.011972456 -0.020234877 -0.021423934 -0.018121447 0.018392736 0.024655035
0.047712658 -0.061043877 0.048637114 -0.0124642 -0.061884835 0.040728886 -0.036035247 -0.028343942
0.020691236 0.01091864 0.042556107 -0.04335743 0.034011006 0.03295957 0.039414167 -0.021265
0.010193992 0.018053507 0.05845296 -0.038513 -0.057778195 -0.057389222 0.0074817124 -0.047555324
-0.011099282 -0.028392669 0.0110068545 -0.044754464 0.03831238 -0.061819453 -0.03475074 0.0126722185
-0.06181273 0.015246359 -0.023090627 -0.031730864 0.045610007 -0.019811403 0.015623718 -0.024148863
0.028431492 0.0573237 0.059466198 -0.03748016 -0.062132627 -0.04447565 0.017263541 0.025220633
0.03217203 0.026519703 0.06130249 -0.047725283 -0.048315063 -0.020166568 0.049032733 -0.048471082
0.046837557 0.00947576 0.03835753 0.06205691 0.06037922 0.06009246 -0.0144878235 -0.027586276
0.025704676 0.052494396 0.0016587838 -0.014143497 -0.010350769 -0.02287175 0.030099057 -0.06285585
0.052439965 -0.0028330365 -0.03722376 -0.02295481 -0.03923178 -0.054346904 0.0053177304 -0.013979237
-0.028345834 -0.011337861 -0.0094106365 0.026586447 -0.051114824 -0.0010261054 -0.0013781218 -0.05182144
0.057286777 -0.030445201 0.050318792 0.046988156 0.0011106253 0.045975454 -0.04789523 -0.006264886
-0.0523908 -0.03858555 0.019676482 0.045697223 -0.037830286 -0.026104812 -0.03524698 -0.0054553994
-0.052170783 -0.04909076 -0.014365167 0.06041378 0.010144511 -0.02673092 0.041774713 0.045653064
0.042592783 -0.00024682505 -0.0066543724 0.04077609 0.03277207 0.0473819 0.044542525 -0.017674025
0.052483294 0.012219287 0.06252721 0.06137218 0.0515321 0.041028947 0.048196897 -0.030249508
00000000: cf16 da3c 4918 77bc 2d38 4cbd 370a 383d
00000010: cf8d bfbc 541b 1d3d 359d 59bc 5c1e da39
00000020: 8a85 4bbd d233 c5bc 2a19 983b 7a31 77bd
00000030: bd5f 58bc da64 113d bdbc 343d 47ec 393d
00000040: 4657 9cbc 8685 913b 7a61 51bd a0ff 003d
00000050: 4ee6 303c 525c 533d b784 27bc 1cf7 743d
00000060: 9bff ff3c 626f 593d 6d17 a3bb ae21 4abd
00000070: 57a7 46bd 620a 6fbd 8c84 1f3c d7f7 46bd
00000080: 7358 abbc 38fe fe3c e266 683d 8a0d 88bc
00000090: 1414 2e3d ac95 a6bb ce42 49bc 564d fcbb
000000a0: b485 e9bc c6a4 903c 9ebf bcb9 9bb7 f4bc
000000b0: aeab 1f3d b778 e8bc 8ff0 2fbd 4990 ad3c
000000c0: faf8 88bb c366 0ebd 4e6d 54bd 8078 9ebc
000000d0: 3adf 45bd 6973 073d 7244 0cbc 6193 053d
000000e0: 7246 f23c f5ac a93b 6841 14bc 47ee 03bd
000000f0: c7e5 573c f085 60bd 7cfa f5bc 22a4 4d3d
00000100: 3cb0 4cbc 7066 4f3d 17e4 193d afe9 64bc
00000110: 59f7 50bd 9017 4d3d b257 ad3b 0a3f 703d
00000120: 005a 65bd 75a4 5c3c 36de 5dbd f569 07bc
00000130: 6d05 62bd 5d73 69bd a89d 693b c4fb 7d3d
00000140: e6b5 853b 9e05 b1bb 033d 703d 445a b53b
00000150: 33af 0bbd 1346 223d c0ff 343d 2a5a 5a3d
00000160: f937 463d 6d93 6c3d f587 c1bc 9568 083c
00000170: 66d6 b4bc f855 13bc ccba 493d 755d 4dbd
00000180: 8c1c 083d d749 13bd 570a 9139 1855 06bc
00000190: cadb ecbc 162f 913b a924 03bd b6ee 663d
000001a0: 99a2 bfbc 892a 1f3d 377d 64bc 92e0 4bbd
000001b0: 8105 493d a293 8abc d0e0 dabc dccd 843b
000001c0: 6e44 c9ba 68e6 8a3c 852a 80bc 2c77 92bc
000001d0: 5c08 0d3d c910 f13c 54a4 643d 31c9 d83b
000001e0: ed04 81bc 1b05 4abc 1f28 44bc 9dc3 a5bc
000001f0: 3f81 afbc 6e73 94bc 5dac 963c 5bf9 c93c
00000200: 596e 433d 2509 7abd b637 473d a536 4cbc
00000210: f47a 7dbd 55d3 263d b299 13bd 8e31 e8bc
00000220: ab80 a93c 18e4 323c 504f 2e3d 8f97 31bd
00000230: 204f 0b3d 9d00 073d c070 213d f033 aebc
00000240: b404 273c f3e4 933c 5f6c 6f3d cfbf 1dbd
00000250: d4a8 6cbd f610 6bbd 2729 f53b 5fc9 42bd
00000260: c3d9 35bc be97 e8bc 1856 343c 7550 37bd
00000270: 71ed 1c3d 6536 7dbd cb56 0ebd 239f 4f3c
00000280: 582f 7dbd ddcb 793c 8e28 bdbc 39f8 01bd
00000290: 8fd1 3a3d 864b a2bc 9ffa 7f3c d6d3 c5bc
000002a0: 29e9 e83c 42cc 6a3d d492 733d cc84 19bd
000002b0: c87e 7ebd 192c 36bd 456c 8d3c 809b ce3c
000002c0: d2c6 033d d93f d93c 5218 7b3d 967b 43bd
000002d0: 04e6 45bd 5c34 a5bc 8cd6 483d 9d89 46bd
000002e0: bdd8 3f3d 3840 1b3c c91c 1d3d 632f 7e3d
000002f0: 3350 773d 8323 763d 565e 6dbc 9dfc e1bc
00000300: 9d92 d23c 5d04 573d 8c6b d93a 20ba 67bc
00000310: 4696 29bc 895d bbbc 4c92 f63c 91ba 80bd
00000320: 4acb 563d 77aa 39bb f177 18bd ba0b bcbc
00000330: 81b1 20bd dc9a 5ebd 5b40 ae3b 2b09 65bc
00000340: 8635 e8bc 70c2 39bc 122f 1abc d2cb d93c
00000350: c75d 51bd 627e 86ba 18a2 b4ba b842 54bd
00000360: 8aa5 6a3d 3768 f9bc 141b 4e3d a776 403d
00000370: 6792 913a c250 3c3d ca2d 44bd ac49 cdbb
00000380: bc97 56bd e20b 1ebd 9330 a13c 032d 3b3d
00000390: eef3 1abd c2d9 d5bc 235f 10bd 35c3 b2bb
000003a0: 08b1 55bd 6513 49bd e15b 6bbc 7174 773d
000003b0: 2a35 263c cdfa dabc f61b 2b3d b5fe 3a3d
000003c0: c575 2e3d 4c68 81b9 ec0c dabb d404 273d
000003d0: 023c 063d 8613 423d 3972 363d 1ec9 90bc
000003e0: b9f8 563d 6833 483c 440e 803d 6561 7b3d
000003f0: 5313 533d f80d 283d 1c6a 453d d1cd f7bc

bias f4 [256]
0.024930656 -0.02273931 -0.057770595 -0.023341361 -0.01825402 0.0519494 0.014305826 0.035904974
0.012848665 -0.055489082 -0.04651058 0.05146644 0.034647454 -0.0041285856 0.025966145 0.020840107
0.015394115 -0.019957235 -0.055234674 -0.03447675 -0.044544794 0.051113762 -0.01457801 0.044672363
0.006676877 0.059684645 0.015875168 0.046563435 -0.048757877 0.042295314 -0.013605224 -0.03836755
-0.024582207 -0.0034047063 -0.056512836 0.061015952 -0.046453323 0.033316698 -0.017714662 0.034935243
-0.04798834 0.032650724 -0.037808575 0.05746107 -0.046738964 0.0049615046 0.051070705 0.0184691
-0.0014008784 -0.04054166 -0.0055882228 -0.009017782 0.034216136 -0.04672995 -0.015246031 0.05747694
0.020613348 0.011259623 0.042408224 -0.03010589 -0.033025604 -0.04159228 -0.013447177 -0.053002145
0.059803292 -0.024426434 -0.034135953 0.0011040396 0.034762282 -0.016543688 -0.0057737436 0.035826508
0.030716363 -0.00246136 -0.00017072071 -0.037592538 -0.038347818 0.05196008 0.03192247 0.011565167
-0.058241036 0.050523434 -0.044880506 0.0488007 -0.018304406 -0.036432397 -0.054366242 0.050910093
-0.040211294 -0.024698168 0.0065216445 0.011996537 -0.029264437 0.01278493 0.0025810963 -0.01845249
0.0029671935 0.032110117 0.0038658257 0.0035179679 -0.019262655 -0.0078001567 0.0306355 -0.014970474
-0.0010804121 0.05157286 -0.011188217 -0.0250273 -0.035618212 -0.0439927 0.022791998 -0.046465866
-0.0003240691 0.054116234 0.057821315 0.0037414178 0.044605847 0.024122752 -0.013859455 0.051929824
-0.008020381 0.027774483 0.0017469304 -0.055459198 0.047375847 -0.048736516 0.039051704 0.042123977
0.03521963 -0.015883347 0.013787828 0.033172823 -0.05780729 0.022148177 0.0077238483 0.025519062
0.0043429127 0.016119674 0.042675637 -0.051051237 -0.03732692 0.029385287 -0.0054953247 0.048220705
-0.018142564 0.051024407 -0.0009998601 -0.042308018 0.03938751 0.035641067 -0.0017216674 0.0027351724
0.04302644 -0.026203819 -0.013027449 -0.05318268 0.03947482 0.019019736 -0.044524588 0.04410656
-0.043453183 -0.043356303 -0.051750384 0.0119883865 0.03027606 0.051366106 -0.052906524 -0.048743393
0.011823941 0.014086984 -0.0045992713 0.013709954 -0.03753319 -0.05011625 0.043063745 0.043674998
-0.02374473 -0.06101715 0.052710872 -0.05717447 -0.0074355486 -0.0066593285 -0.058479033 0.036471847
-0.043563288 -0.05336258 -0.061871115 0.0012031798 -0.048288416 0.04158216 0.0038607898 -0.03990265
0.051385157 0.05455566 0.031798184 0.009840228 -0.0050964206 0.013522038 0.029258369 -0.006407198
-0.012903149 0.015870972 0.02882594 0.056187425 -0.023693781 -0.056754705 -0.007941041 0.006928449
0.04406379 -0.02891263 -0.031936366 0.021099003 0.060412392 0.050137825 -0.038989704 0.039661903
0.049591508 0.024197994 0.0060856845 0.03978744 -0.054652885 -0.04251136 -0.01958438 -0.007381001
0.057863627 -0.05702988 -0.040423475 -0.03677722 -0.06137022 0.019114353 -0.025915813 -0.05547247
0.012240536 0.040881626 0.058484554 -0.008829866 -0.05597409 -0.012950731 -0.013873551 -0.021365875
0.043246035 0.00070993823 0.060488936 0.0005646591 0.01745758 -0.004625059 0.0037856693 0.007312125
-0.060583387 -0.0076083234 -0.056966454 0.018517448 -0.045970514 -0.025584808 -0.052253574 -0.03933001
00000000: 603b cc3c ca47 babc dca0 6cbd 6236 bfbc
00000010: 7489 95bc e5c8 543d fc62 6a3c 1811 133d
00000020: 3583 523c 8548 63bd e181 3ebd 79ce 523d
00000030: 7dea 0d3d 1649 87bb f4b6 d43c dfb8 aa3c
00000040: 9937 7c3c 5b7d a3bc c13d 62bd 7e37 0dbd
00000050: 9a74 36bd aa5c 513d 9bd8 6ebc 5efa 363d
00000060: b4c9 da3b e377 743d a40c 823c 4db9 3e3d
00000070: 57b6 47bd da3d 2d3d 72e8 5ebc 4b27 1dbd
00000080: a060 c9bc 7e21 5fbb 017a 67bd ddeb 793d
00000090: d745 3ebd 1777 083d 571e 91bc 4218 0f3d
000000a0: 6c8f 44bd c4bc 053d 2add 1abd 4d5c 6b3d
000000b0: 5b71 3fbd 1e94 a23b 842f 513d 834c 973c
000000c0: ae9d b7ba 030f 26bd 691d b7bb 52bf 13bc
000000d0: 3826 0c3d e767 3fbd 7dca 79bc f16c 6b3d
000000e0: 53dd a83c 487a 383c 3fb4 2d3d a1a0 f6bc
000000f0: db45 07bd ab5c 2abd 8c51 5cbc c718 59bd
00000100: 4cf4 743d f219 c8bc 24d2 0bbd 6cb5 903a
00000110: e562 0e3d a186 87bc ac31 bdbb d1be 123d
00000120: e2a0 fb3c c54e 21bb 7e03 33b9 a2fa 19bd
00000130: 9a12 1dbd 18d4 543d 23c1 023d d47b 3d3c
00000140: 278e 6ebd a9f1 4e3d 9fd4 37bd 3ee3 473d
00000150: 1ff3 95bc 233a 15bd 23af 5ebd 1a87 503d
00000160: 99b4 24bd d053 cabc 85b3 d53b 208d 443c
00000170: f9bb efbc e277 513c 9c27 293b ad29 97bc
00000180: 3f75 423b e685 033d cb59 7d3b b58d 663b
00000190: b7cc 9dbc 7598 ffbb 4df7 fa3c b846 75bc
000001a0: 9d9c 8dba 103e 533d c94e 37bc 0d06 cdbc
000001b0: 67e4 11bd b031 34bd 49b6 ba3c fe52 3ebd
000001c0: d1e7 a9b9 fca8 5d3d 0bd6 6c3d 9332 753b
000001d0: 9fb4 363d 149d c53c c412 63bc 5eb4 543d
000001e0: eb67 03bc 5087 e33c 42f9 e43a 2f29 63bd
000001f0: 2d0d 423d f19f 47bd aef4 1f3d 318a 2c3d
00000200: 7542 103d cb1d 82bc 58e6 613c 3ae0 073d
00000210: 56c7 6cbd 1870 b53c 5618 fd3b 5a0d d13c
00000220: fe4e 8e3b 680d 843c a6cc 2e3d 1a1b 51bd
00000230: 1de4 18bd 6ab9 f03c 2012 b4bb 1383 453d
00000240: b79f 94bc f8fe 503d bd0d 83ba 2c4b 2dbd
00000250: cc54 213d 5efc 113d 92a9 e1ba 9440 333b
00000260: 7e3c 303d 64a9 d6bc 1571 55bc 15d6 59bd
00000270: 59b0 213d 47cf 9b3c 6a5f 36bd 15a9 343d
00000280: f7fb 31bd 6196 31bd 36f8 53bd f06a 443c
00000290: 8005 f83c 4465 523d 83b4 58bd 27a7 47bd
000002a0: 34b9 413c 18cd 663c 7cb5 96bb b79f 603c
000002b0: 67bc 19bd b246 4dbd 9c63 303d 8ee4 323d
000002c0: 4f84 c2bc 1eed 79bd 5be7 573d c72f 6abd
000002d0: e7a5 f3bb 7f36 dabb b687 6fbd 8163 153d
000002e0: 6b6f 32bd b892 5abd 916c 7dbd 04b4 9d3a
000002f0: 13ca 45bd 0e52 2a3d 4e05 7d3b f670 23bd
00000300: 3e79 523d c175 5f3d d03e 023d e838 213c
00000310: e0ff a6bb 8a8b 5d3c 3faf ef3c 79f3 d1bb
00000320: bb67 53bc d703 823c 6124 ec3c c924 663d
00000330: 7619 c2bc 9f77 68bd 241b 02bc 0b08 e33b
00000340: 3c7c 343d 2eda ecbc b5cf 02bd d1d7 ac3c
00000350: fc72 773d 525d 4d3d abb3 1fbd 8574 223d
00000360: 7720 4b3d df3a c63c 6c6a c73b 28f8 223d
00000370: b4db 5fbd 6420 2ebd 6c6f a0bc 53dc f1bb
00000380: 6902 6d3d 2a98 69bd 1693 25bd b6a3 16bd
00000390: 575f 7bbd b495 9c3c 664d d4bc 1a37 63bd
000003a0: 878c 483c 7e73 273d 808d 6f3d 24ab 10bc
000003b0: 1645 65bd 4e2f 54bc e44d 63bc 7d07 afbc
000003c0: c122 313d 261b 3a3a 3fc3 773d a105 143a
000003d0: 3303 8f3c cf8d 97bb fe18 783b 8d9a ef3b
000003e0: 4926 78bd 3e4f f9bb a855 69bd e7b1 973c
000003f0: 944b 3cbd 3b97 d1bc d807 56bd 8118 21bd
