models/models_lower_params/NZ/MULTI_SPECIES_MLP/model.pt (torch, 340887 bytes, 10 tensors)

weight f4 [256, 13]
000000 e3 76 59 3e 7f ea 6a 3e 7e 4d 83 bd d9 7b 82 3e
       0.21236758 0.22941016 -0.06411265 0.25485113
000010 71 3f 7b bd f1 9e 61 3d 4b 71 0a be 78 79 26 3e
       -0.0613398 0.05508322 -0.1351978 0.16257274
000020 1f 0b 7a 3e fa 18 51 be 49 89 77 3e 34 15 51 3d
       0.24418305 -0.20419684 0.24173464 0.05104561
000030 8d c2 51 3e ff 98 1b 3d 18 0a 09 3e 44 25 21 bd
       0.20484371 0.037987705 0.13382757 -0.03934218
000040 3a 88 5a 3e e9 a1 2b 3d 9e 52 04 be e3 27 91 3d
       0.21341029 0.041902456 -0.12922141 0.07087686
000050 50 91 02 be 76 0d 05 bd 1d 97 e8 bd 2d 41 3c 3e
       -0.12750745 -0.03248354 -0.113569476 0.18384238
000060 5c ce 5f be 20 c7 02 be 2b 23 a1 bd 37 68 2b be
       -0.21856064 -0.12771273 -0.07868036 -0.16738974
000070 ef 59 de 3c 91 a9 8c be 5f d6 7f 3e 77 44 72 be
       0.027142493 -0.2747312 0.2498412 -0.2365893
000080 89 17 5b 3e 36 ca 3a 3d 54 10 b8 bd 7a 9e 2e 3e
       0.21395697 0.045603 -0.08987489 0.17052642
000090 a6 16 2f 3d 39 95 64 3e 4c 62 f8 3c 6b 19 b4 bd
       0.04274621 0.22322549 0.03032031 -0.087939106
0000a0 47 2f 97 3d b5 d3 9a bd f3 9a f0 3d 60 51 7e 3e
       0.07382064 -0.07559911 0.11748304 0.2483573
0000b0 da ab 24 3e 68 68 f9 bd b5 b8 23 3e 7e 4f 48 3d
       0.16081181 -0.12178117 0.15988429 0.048903935
0000c0 85 57 10 3e d7 eb 2c be c1 2c 8c be 32 1c db bd
       0.14095886 -0.16886841 -0.27377895 -0.10698737
0000d0 bc ce 59 be 48 11 69 3e 5f ad a5 3d 8e 8d ea 3d
       -0.21270269 0.22760499 0.080897085 0.11452781
0000e0 da e0 b1 3d ee ac bf bb 30 e2 5e 3e 11 8c 49 be
       0.08685465 -0.0058494722 0.21765971 -0.19682337
0000f0 a3 93 8d 3c 92 ad 41 be d1 4e ae 3d 03 a5 c5 bd
       0.017282313 -0.18913868 0.08511127 -0.09650614
000100 8d 9f ac 3d a8 35 6f bd 18 17 6b 3e 13 89 27 be
       0.084288694 -0.05840078 0.22958028 -0.16360883
000110 91 48 29 be 53 51 2a be 36 98 7e 3e cd 03 bf 3d
       -0.16531588 -0.16632585 0.24862751 0.09326897
000120 8a fc 88 3e ea 5f 6a be 8d 89 8c be f8 8a 5e be
       0.26755172 -0.22888151 -0.27448693 -0.217327
000130 ad e9 3f be 12 ee e4 3d 83 0f cb 3d 66 28 6c 3e
       -0.18741484 0.11178221 0.09915068 0.23062286
000140 11 15 12 be ba 23 42 be 88 d9 16 3e 8a 86 e6 bd
       -0.14265849 -0.18958941 0.14731419 -0.1125613
000150 d4 99 2c 3e 31 7f 86 bd 44 ce 22 3e 0f fb 5b be
       0.16855556 -0.065672286 0.15898997 -0.2148249
000160 9b d0 0f be c0 18 ac 3d 9e 88 6e 3d d2 90 91 bd
       -0.1404442 0.08403158 0.058235757 -0.071077004
000170 44 82 29 3e 8b 0b 41 3e 00 b0 4d be bb 90 17 be
       0.16553599 0.1885206 -0.2008667 -0.14801304
000180 97 27 82 3e 0c 1b be bd 72 e0 c7 bd fd 86 89 be
       0.2542083 -0.092825025 -0.097596064 -0.268608
000190 86 83 22 be 12 a9 8d 3d b1 d7 17 bd 53 d1 4e be
       -0.15870485 0.06917013 -0.037070934 -0.20197038
0001a0 f5 e9 ee 3b e0 ab 42 be 8b 5c 70 be 34 0e 1c be
       0.0072910734 -0.19010878 -0.23472802 -0.15239793
0001b0 6a e8 77 be 02 1e 35 be c1 f7 8d 3e 5a d3 56 3d
       -0.24209753 -0.17687228 0.27728084 0.052447654
0001c0 72 50 af 3d 23 bc 84 be 1f a7 39 be 34 05 be bd
       0.085602656 -0.25924787 -0.18130158 -0.09278336
0001d0 c0 17 31 3d f2 1d 7a be 0d b6 f5 bd f1 28 2a be
       0.04323554 -0.24425486 -0.11997614 -0.1661718
0001e0 00 18 8e 3a 28 f1 d4 bd 9d 98 9f bc 9a 98 3f be
       0.0010840893 -0.103975594 -0.019481951 -0.18710557
0001f0 39 15 42 be ef bf 25 be 2f bf c0 bd a2 a2 60 be
       -0.18953408 -0.16186498 -0.094114654 -0.2193704
000200 3a 83 6d 3e f6 40 62 bd 58 ff 74 3e 69 0d b1 3d
       0.2319459 -0.055237733 0.23925531 0.08645136
000210 3d 55 71 be 74 81 44 3e ea 8d 9a bd 27 f4 d7 bd
       -0.23567672 0.19190007 -0.07546599 -0.10544615
000220 5f 9c 6c be 1e 93 8d be 71 49 a4 3d b1 f5 77 bd
       -0.23106526 -0.27651304 0.0802182 -0.060537044
000230 a2 64 dd 3d 5d 4f 68 be ea 6a 53 3e 6d 33 51 be
       0.1081021 -0.22686525 0.20646253 -0.20429774
000240 a5 3c 41 bd 26 e8 6a 3d 65 a0 12 3e ab aa 64 3e
       -0.047176976 0.0573503 0.14318998 0.2233073
000250 1e 59 81 3e ad 89 61 be ac 0a 8e 3d e8 48 f4 bd
       0.25263304 -0.22025175 0.06935629 -0.11927968
000260 f4 72 ff bc 4b aa 54 be b1 88 81 3e 48 c8 4f be
       -0.031182744 -0.20768087 0.252996 -0.20291245
000270 a3 2b 17 3e 1a 40 c7 3d 08 39 ba 3d b4 58 19 be
       0.1476274 0.09729023 0.09092909 -0.14975244
000280 db c2 80 3e 41 9f 76 3d 1a 8a 13 3d 5e 33 7a be
       0.25148663 0.06021047 0.036020376 -0.24433658
000290 f1 05 f0 3d cc 53 2c bd ad 49 02 be 62 26 74 3e
       0.11719883 -0.042072102 -0.12723418 0.23842767
0002a0 2d af 7d 3d cf 85 1d be 78 6c 0f be 80 74 64 bc
       0.06193464 -0.15383075 -0.14006221 -0.013943791
0002b0 78 7f 1e 3e 1b bf 91 bd a2 78 21 be 30 3b c1 bd
       0.15478313 -0.071165286 -0.15768674 -0.09435117
0002c0 8f 94 53 be 05 2c c9 3d 8c bc 5c 3e 31 9b 85 be
       -0.2066214 0.09822849 0.215563 -0.26094964
0002d0 35 80 84 3d 42 fa 11 3e 6e 78 51 3d 32 83 cb bd
       0.06469766 0.14255622 0.05114024 -0.09937133
0002e0 ab e5 14 3e 97 70 15 3e ec 11 d3 3d ee f1 4a bd
       0.14540736 0.14593731 0.10306153 -0.04954713
0002f0 57 60 94 bd 7c 6d fa 3c 76 dc 44 bd bd 76 aa bd
       -0.07244938 0.030569784 -0.04806181 -0.08323429
000300 5e 67 35 3e ca 94 73 3e 80 c5 e8 bc 51 7b 7a bd
       0.17715213 0.23787227 -0.028414488 -0.06115276
000310 07 c8 59 3b 5d 52 86 bc 4f 03 87 3d 02 be 9d 3d
       0.0033230798 -0.016396696 0.06592428 0.07702257
000320 4c 2f 81 be 65 c8 cf bd c8 05 70 3e 86 87 de 3d
       -0.25231397 -0.10145644 0.23439705 0.10865693
000330 a4 1c 56 bc 28 64 2a be eb 9b 2d be 02 e8 7e be
       -0.013068352 -0.16639769 -0.16954009 -0.24893191
000340 9a 74 b9 bd 94 c0 bf 3d fa 3a 34 3e 12 f7 03 3e
       -0.09055443 0.09362903 0.17600623 0.12887219
000350 93 bc 7a be b9 ef 29 be 54 3f 34 bd 59 47 89 3e
       -0.24485998 -0.16595353 -0.044005707 0.26812246
000360 7d fb 23 3d 62 e9 92 bd e5 09 ec 3d 3c ef d9 bd
       0.04003476 -0.071734205 0.11525325 -0.106413335
000370 74 76 37 be 22 92 4f 3e 36 2a 01 be af d7 63 bd
       -0.1791628 0.20270589 -0.12613758 -0.055625614
000380 cd f0 8c be bf 8c 3e 3e a6 61 57 3e 5d 0d ce 3d
       -0.27527466 0.18608378 0.21033344 0.100611426
000390 46 91 46 be a1 13 8c be 12 9f 66 be 09 a4 53 3e
       -0.19391355 -0.27358726 -0.22521618 0.20668043
0003a0 8c 9d 08 3e 06 f4 6e 3e e2 4e 15 3e d7 18 8e 3d
       0.1334135 0.23335275 0.14580873 0.069383316
0003b0 90 0f 03 bb f7 6a 58 be d0 d0 72 be 3a 28 85 be
       -0.001999829 -0.21134554 -0.23712468 -0.26007253
0003c0 92 50 e9 3d b8 b9 0a be 0d 1a 61 bd 6d 5a 23 be
       0.11392321 -0.13547409 -0.054956485 -0.15952463
0003d0 ba 8e 4e bd 05 e5 47 be 1a 03 3a be cd 55 bd 3d
       -0.050429083 -0.19520958 -0.18165246 0.09244881
0003e0 33 55 aa bd ba e1 2e 3e 1c 70 b6 bd 39 ae 50 be
       -0.08317032 0.17078295 -0.08908102 -0.2037896
0003f0 12 dc 46 bd c7 2c 09 be 0f b4 ac bd f3 73 87 be
       -0.04854972 -0.13395987 -0.08432781 -0.2645565

bias f4 [256]
000000 dc 20 8c 3e bb e4 81 be 34 15 84 3e 6f b6 5e be
       0.2736882 -0.2536982 0.25797427 -0.2174928
000010 7b f8 8a bd 71 95 e9 bd e5 1d 18 be 7a e0 c8 3d
       -0.06785675 -0.11405457 -0.14855154 0.098084405
000020 33 5e 25 3e de e9 3a be 16 5c 03 be cb 81 10 3e
       0.16149215 -0.18253276 -0.12828097 0.14112012
000030 71 b9 06 bd a2 64 89 3d 63 9f 14 3e 38 a1 d0 bd
       -0.032891694 0.06708647 0.14513926 -0.10187
000040 3d 87 1d be 8b 1e d1 3d 92 94 ce bd 2e 8f 3c be
       -0.1538362 0.10210904 -0.10086931 -0.18413994
000050 83 fd 0f be f7 62 03 be 51 71 8d 3e 9b d6 56 3d
       -0.14061551 -0.12830721 0.27625516 0.052450757
000060 24 ed f5 3d 80 75 18 3d d8 b5 3f be 07 20 4c 3e
       0.120081216 0.03722143 -0.18721712 0.19934092
000070 30 9d 33 bd e9 fd 93 bd 04 5e 67 3e 5f 8e 10 be
       -0.043851078 -0.07226164 0.22594458 -0.1411681
000080 fd 28 6a 3d 86 56 72 be e6 05 12 3e ba 89 e3 3d
       0.057167996 -0.23665819 0.14260063 0.11110254
000090 d7 b4 69 be 5f 83 1d 3e ef 32 00 3d 75 77 12 be
       -0.22822891 0.15382145 0.031298574 -0.14303382
0000a0 44 ae 72 3e d6 56 f3 3d 81 ce c5 3d 73 d4 d4 bd
       0.2369929 0.11881797 0.09658528 -0.10392084
0000b0 3d 71 1b be 6d 2e 19 be ea d0 d6 3d 1d 13 98 3d
       -0.15179916 -0.14959116 0.10489066 0.074255206
0000c0 6d c8 29 be 6b 25 81 3e 53 39 26 3e 54 09 d8 bd
       -0.16580363 0.2522386 0.16232805 -0.10548654
0000d0 32 aa 12 3e a1 d5 f0 bd fa f8 b1 3d 11 ca 6b 3e
       0.14322737 -0.117594965 0.08690067 0.23026301
0000e0 4e c9 7b be ed bf 0c be e0 d2 83 bc 4c 94 2a 3d
       -0.2458851 -0.13745089 -0.016091764 0.041645333
0000f0 62 bd 68 be 33 12 3a be 27 39 de bc 64 f8 1f bd
       -0.22728494 -0.18171005 -0.027126862 -0.039055243
000100 60 6a 73 3d 78 70 10 3d fb 71 6b 3d c7 1d 97 3c
       0.05942762 0.03526351 0.057481747 0.018446816
000110 22 48 02 3d d1 ed 80 bc b4 f8 cd 3d d0 49 42 3e
       0.031807072 -0.0157384 0.10057202 0.1897347
000120 da 57 0d be 06 f6 12 be 26 17 f9 3d 0c a7 4d be
       -0.13803044 -0.14351663 0.12162618 -0.20083255
000130 a1 64 39 3e b0 6b 03 3e 7d 56 25 3d 90 1d f7 bd
       0.18104793 0.12834048 0.040365685 -0.120661855
000140 41 c6 0a 3c b0 b5 5f be 05 cb 7f be 01 4d 85 3e
       0.008470119 -0.21846652 -0.2497979 0.26035312
000150 d9 f3 7e be 04 69 6b be 36 01 db bd 0c 92 7b 3c
       -0.24897708 -0.22989279 -0.1069359 0.0153546445
000160 6b 05 82 3d fe 40 0b be df dc d7 bc 9e ab 80 bd
       0.0634869 -0.13599011 -0.026350437 -0.062827334
000170 2e 53 6d 3e 92 b3 76 3e 18 0d eb 3d 50 85 07 bb
       0.23176262 0.24091938 0.11477107 -0.0020678826
000180 a6 36 55 3e 9c 46 65 be 48 fb eb 3d b9 bb 24 be
       0.20821628 -0.22390217 0.115225375 -0.16087236
000190 64 ef 5d 3e a0 7e 7b be a2 9f d1 3d 84 1e 6a be
       0.21673352 -0.24560022 0.10235526 -0.22863203
0001a0 81 2a 25 3e b4 89 4d 3d 00 3f 73 3e 80 8a 55 be
       0.16129495 0.050180152 0.23754501 -0.20853615
0001b0 88 53 36 3e d8 38 3e be 26 5a 19 be 3b c7 d7 3d
       0.17805302 -0.18576372 -0.14975795 0.10536047
0001c0 dd 5e 3e bd 95 c4 5f be 90 cc 71 be 86 5e 94 bd
       -0.046477187 -0.21852334 -0.2361319 -0.072445914
0001d0 d0 02 9e 3d fc c0 79 3e de 20 50 3e 86 6d a4 3b
       0.0771538 0.24390024 0.20325038 0.005017939
0001e0 9d 9a 2d be d5 ad 7d be d5 f3 7d 3e f9 3a 1f be
       -0.16953512 -0.24773343 0.24800046 -0.1554984
0001f0 92 ee 44 bd 3f 52 65 be 8a a0 43 be 5b c2 5d 3d
       -0.04807908 -0.22394656 -0.1910421 0.05414043
000200 34 a8 8c bd 71 55 fc 3c b1 32 36 bb 34 d3 62 3c
       -0.0686802 0.03080246 -0.002780121 0.0138443
000210 00 10 62 bd 21 dd 2b bc bd 4f f6 3d ea 7b 4e 3e
       -0.05519104 -0.010489733 0.120269276 0.20164457
000220 3b 75 6f 3e 11 86 67 be 5e ba 6f be 75 bf 29 bd
       0.23384564 -0.22609736 -0.23410937 -0.041442353
000230 a9 1b ab bc f9 a7 1c 3e b8 f8 85 3e 01 6c 93 3d
       -0.020887213 0.15298451 0.2616632 0.071983345
000240 23 57 49 be 45 5f 01 bd 32 28 37 3e dd 4d d2 3d
       -0.19662146 -0.031584997 0.17886427 0.102687575
000250 82 af 48 be 32 b2 7d 3c 5a 6f 89 be 10 d2 e3 bd
       -0.19598201 0.01548438 -0.26842767 -0.111240506
000260 94 83 47 3e 9f 3e f6 bd 61 66 2d 3e f5 c7 67 be
       0.19483787 -0.12023663 0.16933586 -0.22634871
000270 7e 61 7a 3e af 5f 07 3e 60 27 38 3e 64 90 99 3d
       0.24451253 0.13220094 0.1798377 0.074982435
000280 9e d2 a6 3c 26 b1 0b be 5b 1f 1c be 2a 42 43 be
       0.020364102 -0.13641796 -0.15246336 -0.19068208
000290 44 1a 6a 3e a6 fe c5 bd 63 9b d4 3b d7 4e 85 be
       0.22861582 -0.09667711 0.00648825 -0.26036713
0002a0 96 46 98 3d 28 16 c2 bd 12 ed 63 be d5 98 0d 3d
       0.07435338 -0.09476882 -0.22258404 0.03456958
0002b0 a6 00 83 be bc 91 d9 bc 12 fb 66 be fe 35 34 3e
       -0.25586432 -0.02655875 -0.22556713 0.17598721
0002c0 7b 61 61 be 1f da 39 3d c3 95 0c 3e c7 25 63 be
       -0.22009842 0.045374032 0.13729005 -0.2218238
0002d0 a8 1d 38 3e da f0 67 3e 92 c5 2d be 6c 4c bb 3c
       0.17980063 0.22650471 -0.16969898 0.02286359
0002e0 b7 3e ae 3d 93 f8 6b 3e 2d 5e 5e 3e cd cc 6d be
       0.08508056 0.23044042 0.21715613 -0.23222657
0002f0 ae e7 66 be c5 01 7c be 9f 1e fd bd 21 9b 63 bd
       -0.22549316 -0.2461005 -0.12359356 -0.055567864
000300 51 bb cb bd 5b e3 3b 3e a7 91 44 be b0 ab 61 be
       -0.09947837 0.18348448 -0.19196187 -0.2203815
000310 49 d0 5e be d7 2d 28 be ad 10 8b 3e f5 5f 10 3d
       -0.21759142 -0.16423737 0.2716116 0.03524776
000320 ca af 45 bd d7 61 a8 bd 20 ee 58 be be 5d c1 bd
       -0.04826335 -0.082217865 -0.21184587 -0.09441708
000330 4f db 15 3e dc 15 3f 3e 38 72 4d 3e a1 d3 9b 3c
       0.14634441 0.18660682 0.20063102 0.019021811
000340 b6 26 1a be ed 4a 28 be c7 53 8a 3e cb 9c 7f be
       -0.1505383 -0.16434832 0.27017042 -0.24962156
000350 0c 8e 86 3d 49 f3 da bc 3e f2 83 3e 5b 89 26 3e
       0.06570062 -0.026727336 0.25770754 0.16263334
000360 60 ca 8e bd 15 3d 6c be f6 9b 18 3d 2a 12 46 be
       -0.06972194 -0.23070176 0.03725811 -0.19342867
000370 ca 56 f0 bc 1c 7c 8e 3d f0 fc 09 3e 11 0e 9b bd
       -0.02933826 0.06957266 0.13475394 -0.07571042
000380 78 d0 3e be 71 59 71 be 4d 98 86 be 12 aa 0c 3d
       -0.18634212 -0.23569275 -0.2628807 0.03434188
000390 bb 4d 2d be f6 20 19 3c b6 e4 05 be 43 bc 3f be
       -0.16924183 0.009346237 -0.13075528 -0.1872416
0003a0 f9 9e 3f 3e 9b 1b 20 3e 13 26 48 3e 4e 51 88 3e
       0.18712987 0.1563553 0.19545774 0.2662453
0003b0 8e d7 4c be 04 72 17 be 26 d9 55 be 97 d2 3e 3e
       -0.20004103 -0.14789587 -0.20883617 0.18635021
0003c0 13 e5 26 3e ca 14 67 3e 7a f9 46 be f8 84 17 be
       0.16298322 0.22566524 -0.19431105 -0.14796817
0003d0 7a 20 8a 3e 3a 5c 61 be 40 17 3d be 1a b2 d2 3d
       0.26977903 -0.22007838 -0.184659 0.102878764
0003e0 fa c9 77 be 32 c0 a0 bd 62 f7 f2 3d 25 25 69 3e
       -0.24198142 -0.07849158 0.11863591 0.22768076
0003f0 5e 58 01 bd ee 00 7c be cc 6e 21 3e 44 fa 8d 3e
       -0.031578414 -0.2460973 0.15764922 0.2773

weight f4 [256]
000000 74 df 7f 3f 79 f8 7f 3f 9e c8 7f 3f cf db 7f 3f
       0.9995034 0.99988514 0.9991549 0.99944776
000010 1f 0a 80 3f a8 12 80 3f 5d de 7f 3f 2a f4 7f 3f
       1.0003089 1.0005693 0.99948674 0.9998194
000020 c2 1b 80 3f d9 e9 7f 3f 0d 17 80 3f 2b 07 80 3f
       1.0008471 0.999662 1.0007035 1.0002187
000030 2b 06 80 3f 9d e3 7f 3f b9 12 80 3f 3e 09 80 3f
       1.0001882 0.99956685 1.0005714 1.000282
000040 8b eb 7f 3f 6d 17 80 3f 63 17 80 3f 1e 0c 80 3f
       0.99968785 1.0007149 1.0007137 1.0003698
000050 a3 d8 7f 3f 72 09 80 3f e0 e2 7f 3f 4c f4 7f 3f
       0.99939936 1.0002882 0.9995556 0.9998214
000060 d8 c6 7f 3f 5b da 7f 3f d3 c6 7f 3f 29 d2 7f 3f
       0.99912786 0.9994256 0.99912757 0.99930054
000070 30 d2 7f 3f 65 e2 7f 3f 38 c1 7f 3f 2c 12 80 3f
       0.99930096 0.99954826 0.99904203 1.0005546
000080 65 f7 7f 3f 0e d8 7f 3f 16 da 7f 3f c3 1b 80 3f
       0.9998687 0.9993905 0.9994215 1.0008472
000090 d6 10 80 3f fe d9 7f 3f 66 c6 7f 3f 03 f2 7f 3f
       1.0005138 0.99942005 0.99912107 0.99978656
0000a0 c3 12 80 3f 95 c1 7f 3f 49 ce 7f 3f b5 bc 7f 3f
       1.0005726 0.9990476 0.9992414 0.9989732
0000b0 51 1f 80 3f 70 e6 7f 3f 07 fa 7f 3f 15 05 80 3f
       1.0009557 0.99960995 0.99990886 1.0001551
0000c0 a8 06 80 3f e2 f1 7f 3f b4 bd 7f 3f 54 1f 80 3f
       1.0002031 0.9997846 0.9989884 1.000956
0000d0 67 10 80 3f c8 bf 7f 3f 82 e2 7f 3f 71 c0 7f 3f
       1.0005006 0.9990201 0.99955 0.9990302
0000e0 3e 05 80 3f d0 11 80 3f 4c df 7f 3f c2 e5 7f 3f
       1.00016 1.0005436 0.999501 0.9995996
0000f0 b6 17 80 3f 11 e8 7f 3f 4d ec 7f 3f f8 c8 7f 3f
       1.0007236 0.9996348 0.9996994 0.9991603
000100 95 c9 7f 3f 69 12 80 3f 29 e7 7f 3f 87 db 7f 3f
       0.99916965 1.0005618 0.999621 0.9994435
000110 84 bc 7f 3f 4b ea 7f 3f a6 ff 7f 3f d4 06 80 3f
       0.99897027 0.9996688 0.99999464 1.0002084
000120 51 c8 7f 3f a4 06 80 3f b1 d2 7f 3f 36 e5 7f 3f
       0.99915034 1.0002027 0.99930865 0.99959123
000130 a8 ed 7f 3f 4e 05 80 3f 2f 07 80 3f 96 e2 7f 3f
       0.9997201 1.0001619 1.0002192 0.9995512
000140 f8 0b 80 3f 8c 07 80 3f 99 ea 7f 3f 0f c2 7f 3f
       1.0003653 1.0002303 0.9996734 0.99905485
000150 a5 d5 7f 3f 17 f1 7f 3f c5 d5 7f 3f eb 04 80 3f
       0.9993537 0.9997725 0.9993556 1.0001501
000160 30 0a 80 3f 6a ec 7f 3f c4 1f 80 3f 6c c8 7f 3f
       1.0003109 0.99970114 1.0009694 0.99915195
000170 3f c6 7f 3f 28 e2 7f 3f 01 ce 7f 3f 18 fa 7f 3f
       0.99911875 0.9995446 0.9992371 0.9999099
000180 20 1f 80 3f 93 0a 80 3f a3 c9 7f 3f 21 e5 7f 3f
       1.0009499 1.0003227 0.9991705 0.99959
000190 af fa 7f 3f 8d fa 7f 3f ea 0f 80 3f 67 12 80 3f
       0.9999189 0.99991685 1.0004857 1.0005616
0001a0 5e d9 7f 3f ab 03 80 3f 77 d3 7f 3f 73 1c 80 3f
       0.9994105 1.0001119 0.99932045 1.0008682
0001b0 cb 0f 80 3f b1 d1 7f 3f cb eb 7f 3f e8 f0 7f 3f
       1.000482 0.9992934 0.99969167 0.9997697
0001c0 42 e8 7f 3f 94 1d 80 3f 86 15 80 3f 2d d9 7f 3f
       0.9996377 1.0009027 1.0006568 0.9994076
0001d0 ab 0b 80 3f b1 16 80 3f 92 d1 7f 3f 50 0d 80 3f
       1.0003561 1.0006925 0.99929154 1.0004063
0001e0 e1 06 80 3f c9 e3 7f 3f 5e fb 7f 3f ae d4 7f 3f
       1.0002099 0.9995695 0.9999293 0.999339
0001f0 c5 17 80 3f b9 16 80 3f 61 f0 7f 3f b4 f7 7f 3f
       1.0007254 1.0006934 0.99976164 0.9998734
000200 64 c4 7f 3f c9 fc 7f 3f 54 d1 7f 3f 37 1d 80 3f
       0.99909043 0.99995095 0.99928784 1.0008916
000210 2c e7 7f 3f ca 04 80 3f 17 df 7f 3f b0 f2 7f 3f
       0.99962115 1.0001462 0.99949783 0.99979687
000220 bf 05 80 3f 11 06 80 3f a3 19 80 3f 33 e2 7f 3f
       1.0001754 1.0001851 1.0007824 0.9995453
000230 53 eb 7f 3f 67 d9 7f 3f 19 1f 80 3f e0 05 80 3f
       0.9996845 0.99941105 1.000949 1.0001793
000240 ab d2 7f 3f af 10 80 3f 06 cb 7f 3f 67 08 80 3f
       0.9993083 1.0005091 0.99919164 1.0002564
000250 7b e8 7f 3f ee c4 7f 3f 07 c5 7f 3f 67 eb 7f 3f
       0.9996411 0.99909866 0.99910015 0.9996857
000260 b5 06 80 3f 98 dc 7f 3f 4f c9 7f 3f 75 13 80 3f
       1.0002047 0.99945974 0.9991655 1.0005938
000270 45 c1 7f 3f 85 18 80 3f b9 1c 80 3f cf c3 7f 3f
       0.9990428 1.0007483 1.0008765 0.99908155
000280 0e dd 7f 3f 8a 00 80 3f 63 cd 7f 3f fb cd 7f 3f
       0.9994668 1.0000165 0.9992277 0.99923676
000290 d1 00 80 3f 1d d5 7f 3f e2 d1 7f 3f 76 1b 80 3f
       1.0000249 0.9993456 0.9992963 1.000838
0002a0 72 d7 7f 3f 71 03 80 3f 6b f4 7f 3f 87 09 80 3f
       0.9993812 1.000105 0.9998233 1.0002908
0002b0 cc c6 7f 3f 12 10 80 3f ad 21 80 3f c6 02 80 3f
       0.99912715 1.0004904 1.0010277 1.0000846
0002c0 a6 d4 7f 3f 53 fd 7f 3f 31 17 80 3f c6 d3 7f 3f
       0.9993385 0.9999592 1.0007077 0.99932516
0002d0 d1 f0 7f 3f 81 e3 7f 3f a1 f6 7f 3f 0e 17 80 3f
       0.9997683 0.9995652 0.999857 1.0007036
0002e0 22 f4 7f 3f 5b e6 7f 3f 50 10 80 3f 5f 1c 80 3f
       0.9998189 0.9996087 1.0004978 1.0008658
0002f0 b9 14 80 3f 1d 1f 80 3f 5b 1c 80 3f 2a 1d 80 3f
       1.0006324 1.0009495 1.0008653 1.00089
000300 ff ec 7f 3f b4 e6 7f 3f f3 0f 80 3f 37 12 80 3f
       0.99971 0.999614 1.0004867 1.0005559
000310 bf ca 7f 3f ba ef 7f 3f 26 cf 7f 3f 27 e9 7f 3f
       0.9991874 0.9997517 0.9992546 0.9996514
000320 4e de 7f 3f 9f 19 80 3f b5 1c 80 3f 76 d8 7f 3f
       0.99948585 1.0007819 1.0008761 0.9993967
000330 d8 d4 7f 3f 97 de 7f 3f da df 7f 3f f0 0a 80 3f
       0.9993415 0.9994902 0.99950945 1.0003338
000340 31 0b 80 3f 0f d1 7f 3f a3 00 80 3f 67 d4 7f 3f
       1.0003415 0.99928373 1.0000194 0.99933475
000350 3e bc 7f 3f 07 e0 7f 3f ca d7 7f 3f 0e eb 7f 3f
       0.9989661 0.99951214 0.9993864 0.9996804
000360 c3 de 7f 3f 9f 06 80 3f 10 0f 80 3f 3d 10 80 3f
       0.9994928 1.0002021 1.0004597 1.0004956
000370 6a ff 7f 3f ac fb 7f 3f d5 00 80 3f 07 e6 7f 3f
       0.99999106 0.99993396 1.0000254 0.9996037
000380 e5 0a 80 3f 88 e4 7f 3f 3a 1a 80 3f d2 e2 7f 3f
       1.0003325 0.99958086 1.0008004 0.99955475
000390 9a 0e 80 3f fe f9 7f 3f 7e e4 7f 3f e3 10 80 3f
       1.0004456 0.9999083 0.99958026 1.0005153
0003a0 3d 22 80 3f ef c2 7f 3f a6 d0 7f 3f 06 0d 80 3f
       1.0010449 0.9990682 0.9992775 1.0003974
0003b0 38 f4 7f 3f 85 f7 7f 3f 10 cc 7f 3f 62 d8 7f 3f
       0.99982023 0.9998706 0.9992075 0.9993955
0003c0 0f c3 7f 3f 7b 09 80 3f 2b e9 7f 3f ca 16 80 3f
       0.9990701 1.0002893 0.9996516 1.0006955
0003d0 03 0e 80 3f d2 19 80 3f 2e 14 80 3f b2 0a 80 3f
       1.0004276 1.000788 1.0006158 1.0003264
0003e0 93 ef 7f 3f b5 02 80 3f c0 1d 80 3f c8 f7 7f 3f
       0.99974936 1.0000826 1.0009079 0.9998746
0003f0 e7 dd 7f 3f f6 ef 7f 3f 4c 21 80 3f 56 16 80 3f
       0.9994797 0.99975526 1.0010161 1.0006816

bias f4 [256]
000000 fd bb 84 39 b9 17 05 3a 82 39 e7 b9 b3 44 4c 3a
       0.00025317064 0.00050770823 -0.000441026 0.00077922194
000010 ae ee 23 39 83 e9 52 ba 5c 31 28 b9 8b 5f de b8
       0.00015633806 -0.000804566 -0.00016040116 -0.00010603581
000020 f4 5a 08 3a 4c 45 34 b9 a0 0f 9c 39 20 58 e1 b9
       0.00052015414 -0.00017191953 0.0002976628 -0.00042981002
000030 c9 3a ca 39 91 78 56 39 d5 15 9e 39 ea 0c 23 ba
       0.0003857224 0.00020453545 0.00030152375 -0.0006219881
000040 4b 19 41 39 d4 25 ca 39 dd fe b5 39 06 d5 80 39
       0.00018415337 0.00038556627 0.00034712898 0.00024572777
000050 e6 9f 01 3a ac 3b 32 3a f6 ed 51 b8 ba a0 cc b9
       0.0004944786 0.0006799053 -5.00511e-05 -0.00039029663
000060 c4 b1 52 b9 06 d1 8d 39 1f 4a 81 39 16 19 42 3a
       -0.00020093384 0.0002704935 0.00024660022 0.0007404251
000070 09 c8 63 ba 19 3a c6 b9 d1 65 59 3a ea 8d 8b b9
       -0.00086891704 -0.0003780879 0.0008293065 -0.0002661788
000080 1d a1 15 ba 17 64 1b 3a f6 4a 65 ba 64 1c 38 3a
       -0.00057079067 0.00059276953 -0.0008746827 0.00070232735
000090 3f e0 89 b9 12 44 10 ba db a7 bf b9 f0 d2 ac 39
       -0.00026297753 -0.00055033073 -0.0003655542 0.00032963557
0000a0 b2 99 e5 b9 31 6e 5d 3a ae 08 c7 b9 bf c6 54 3a
       -0.00043792796 0.0008446901 -0.00037962705 0.00081167737
0000b0 8b 8b 2e ba 2f f9 97 b9 f0 2d e1 39 2d 0a db b8
       -0.0006658367 -0.0002898662 0.0004294957 -0.00010444629
0000c0 bd 4c b8 b8 c2 85 fc b8 7f 52 7a b9 e4 d6 c9 b9
       -8.788097e-05 -0.00012041211 -0.0002387259 -0.00038497814
0000d0 b5 f4 62 3a c3 aa b6 b9 2b 5b fc 36 a4 d6 e3 b9
       0.000865768 -0.00034840973 7.5207986e-06 -0.00043456734
0000e0 74 1e 29 ba d8 13 e9 b9 73 1c e4 39 96 ee 1a 3a
       -0.0006451376 -0.00044456008 0.00043508745 0.0005910186
0000f0 f4 17 14 ba a7 c6 60 ba 05 74 32 3a 74 44 24 b8
       -0.0005649321 -0.00085745234 0.00068074494 -3.91644e-05
000100 26 10 28 3a 84 4c 32 b8 12 4c 4f 3a 51 e4 2a 39
       0.0006411098 -4.2509768e-05 0.00079077587 0.00016297518
000110 22 fd e9 b9 9d d0 da 39 57 ad 2a 3a 71 70 af b9
       -0.00044629822 0.0004173563 0.0006510815 -0.00033462376
000120 a3 3d a3 b9 57 e9 5a 3a 01 d8 de b9 df d1 2d ba
       -0.00031135706 0.00083508104 -0.00042504075 -0.00066306995
000130 f9 77 a8 b9 d2 10 2e 3a 99 f5 8d b9 e2 a7 49 ba
       -0.00032132844 0.00066400797 -0.000270766 -0.0007692558
000140 36 eb 48 ba 72 7b 51 3a e5 d1 76 b9 98 0c 2d ba
       -0.00076644437 0.0007991112 -0.0002353858 -0.0006601303
000150 e7 26 7c b9 98 34 88 38 96 ad 90 b9 c2 dc 3d b8
       -0.00024047085 6.494782e-05 -0.00027595152 -4.526671e-05
000160 5d 85 06 3a 19 00 3f ba 71 8a d6 39 72 e5 21 ba
       0.0005131567 -0.00072860863 0.00040920408 -0.00061758526
000170 99 b1 72 39 a0 20 9f b9 af 19 61 3a 36 e3 11 3a
       0.00023145079 -0.0003035115 0.0008586896 0.0005565168
000180 17 a3 69 3a db f2 6c 39 60 c7 10 39 22 b1 82 39
       0.0008912547 0.00022597185 0.00013807183 0.00024927506
000190 20 43 60 3a 8c ca 6e 3a 6c 04 2e 3a dc 7d 56 3a
       0.0008554924 0.00091091613 0.0006638232 0.00081822067
0001a0 7e bc 8e 39 6d ff 2b ba d7 81 8c b9 16 c6 76 ba
       0.00027224788 -0.0006561194 -0.0002679962 -0.00094136724
0001b0 8d d1 23 ba bc 7d bf b8 da ab 69 b9 d1 13 1c 3a
       -0.0006249182 -9.1310096e-05 -0.00022284631 0.00059538806
0001c0 22 37 df 39 d3 46 de b9 e5 05 19 3a 07 ca 40 ba
       0.00042574952 -0.00042395908 0.0005837365 -0.0007354323
0001d0 f1 83 2a ba c5 e1 09 b9 82 3f 51 3a 23 51 8c 39
       -0.0006504646 -0.00013149444 0.00079821807 0.00026763332
0001e0 f7 1e 43 39 5d 3d 57 3a f7 c9 55 3a 4d e1 18 ba
       0.00018608184 0.0008210743 0.00081554 -0.0005831912
0001f0 9f bd b3 b9 a7 4e 46 39 85 48 77 b9 e9 f1 e2 38
       -0.0003428282 0.00018912052 -0.00023582771 0.00010821579
000200 f3 4b 95 39 bf 32 2b ba 29 e7 ca 38 f0 39 4d ba
       0.0002847608 -0.0006530694 9.6751675e-05 -0.0007828763
000210 5f fa 12 ba 1f 0d 71 39 bc 5e 4f ba 82 bc e5 39
       -0.0005606766 0.00022988439 -0.000791054 0.00043818733
000220 ef 46 e1 b9 e1 f2 44 3a 38 d1 ec b9 2e 4d 66 39
       -0.00042968194 0.00075129984 -0.00045169308 0.00021963261
000230 48 71 22 b9 12 16 19 b9 cf 19 30 38 51 8c 9a 39
       -0.00015491724 -0.00014599439 4.1985706e-05 0.00029477713
000240 1d 7d ef 39 6e 2c 26 39 c6 b7 33 b9 ca 13 1c ba
       0.0004567885 0.00015847545 -0.00017139231 -0.00059538765
000250 01 67 e3 39 88 95 61 ba 8e dd 44 ba 8a 38 f7 39
       0.00043373558 -0.0008605351 -0.0007509821 0.00047153636
000260 69 71 54 39 ab 32 d9 39 1e 13 1f 3a 99 ec e1 b8
       0.00020260144 0.00041427216 0.00060682173 -0.00010772906
000270 1b 1e 03 39 3c 81 4c ba 0b 25 26 3a c8 c8 7c 3a
       0.00012504349 -0.000780124 0.00063379173 0.0009642956
000280 f7 c4 a0 39 51 9c fd 38 26 37 a4 b9 50 6b 12 3a
       0.00030664328 0.00012093096 -0.00031321606 0.0005585449
000290 83 60 33 3a 2d a2 a1 39 0e 08 9f 39 36 06 16 ba
       0.00068426895 0.00030829143 0.00030332844 -0.00057229714
0002a0 5e 67 3c 3a 6b 69 5f 39 df 99 6c ba d1 81 d7 b9
       0.0007187034 0.00021306209 -0.0009025614 -0.00041104716
0002b0 01 92 1f b9 db e4 68 3a 91 8f 5a 3a 86 67 93 b9
       -0.00015217812 0.00088842 0.0008337433 -0.00028115156
0002c0 57 8f 26 3a 94 09 7b ba 4e c1 0d ba 1e e6 48 ba
       0.0006353757 -0.00095763174 -0.0005407528 -0.00076636847
0002d0 85 a9 74 3a 33 46 05 b9 d9 54 37 b9 49 e8 f0 b9
       0.00093331217 -0.0001271002 -0.00017483848 -0.00045949433
0002e0 f2 2f 43 ba 0c 72 01 b9 5f eb 5a 39 3e c6 c1 b9
       -0.0007445804 -0.00012344884 0.00020877783 -0.0003695953
0002f0 33 40 de b8 5e c4 af 38 b9 5b f2 39 74 f0 27 3a
       -0.00010597743 8.3812265e-05 0.00046226176 0.0006406375
000300 1e ef 5c b9 ce b1 82 39 c9 65 06 3a f5 ae 25 39
       -0.00021069913 0.00024928007 0.00051268615 0.00015800803
000310 cf 7d 20 3a bd 21 1d 3a 45 07 1b ba e1 40 ed 38
       0.00061222626 0.0005994102 -0.0005913864 0.00011313125
000320 3d bb 65 ba f9 8a 6e b9 19 d7 3b ba 77 28 b3 b9
       -0.00087635574 -0.0002274922 -0.0007165536 -0.0003417169
000330 a3 b1 a5 39 8d 40 84 ba a3 87 64 3a c5 82 d3 b9
       0.00031603602 -0.0010090038 0.0008717721 -0.00040342487
000340 ca c3 da b9 d0 8d 94 b9 79 53 2f 3a 20 6a 16 ba
       -0.00041726074 -0.00028334418 0.00066881586 -0.000573786
000350 93 3f 7f ba 53 d0 29 3a 38 52 08 3a 27 6a 39 3a
       -0.00097369513 0.0006477881 0.000520024 0.0007073008
000360 53 71 f5 b8 18 20 40 ba 07 b2 55 ba 69 ac 12 ba
       -0.00011703619 -0.0007329001 -0.00081518333 -0.0005595149
000370 5d 06 f7 38 39 dc 16 3a 7f ef d8 37 54 93 04 3a
       0.00011779063 0.00057548616 2.586073e-05 0.0005057354
000380 72 85 5b 3a 1b cc 08 b9 3f 9d b5 38 78 fd ad b8
       0.0008374072 -0.00013046006 8.660042e-05 -8.296495e-05
000390 9e 8b 11 3a 53 9c 07 3a 24 3a 89 b9 d7 8e 1e 3a
       0.00055521156 0.00051731354 -0.00026173994 0.00060485065
0003a0 13 bb 2c 3a 65 16 01 ba 0c 72 45 ba c0 b8 2f 39
       0.00065891555 -0.00049242965 -0.0007531948 0.00016758125
0003b0 16 fc 5a ba 2e 02 5e 3a fb 74 e1 b9 8e 05 3f 3a
       -0.0008353604 0.0008468953 -0.00043002501 0.00072868995
0003c0 f6 de 11 3a 29 47 e6 38 07 d6 55 b9 e3 55 c4 37
       0.0005564535 0.00010980509 -0.00020392994 2.3405015e-05
0003d0 b8 ea 29 ba c9 35 65 ba 94 39 07 3a e9 b1 d3 b9
       -0.0006481814 -0.00087436714 0.0005158421 -0.0004037761
0003e0 49 e3 6b 3a 80 bb 5a 3a 2a 90 b2 b9 7a d5 2a ba
       0.00089984067 0.000834398 -0.00034058216 -0.0006516796
0003f0 3f bd ca 39 09 86 0d b9 31 67 96 b8 a7 78 ab b7
       0.00038669442 -0.0001349674 -7.171778e-05 -2.0440972e-05

running_mean f4 [256]
000000 3a 43 92 3e 20 ac 2c 3d b7 56 bf 3e cf 0a b8 3d
       0.28566915 0.04215634 0.37370846 0.089864366
000010 ab 99 dc 3d 31 43 26 3e b6 33 b4 3d cb b8 16 3e
       0.10771497 0.16236569 0.087989256 0.1471893
000020 27 23 89 3e 7a aa dd 3d 1d dc 26 3e 6d 6d 91 3e
       0.26784632 0.108235314 0.16294904 0.28403798
000030 de 0c 12 3e 2a 51 0d 3e ec f7 64 3e b7 59 1b 3e
       0.14262721 0.13800493 0.223602 0.15170942
000040 35 ac 33 3e d7 a7 95 3e 17 ac 04 3e 23 e7 59 3d
       0.1754616 0.29229614 0.12956272 0.053198945
000050 6f 19 02 3e dc 07 08 3e be 07 91 3e 5a 3c 30 3e
       0.12705015 0.13284248 0.2832622 0.17210522
000060 88 04 4f 3e 48 24 82 3e c1 f5 c7 3d e0 71 6a 3e
       0.20216572 0.25418305 0.09763671 0.22895002
000070 c9 c9 17 3e 05 a7 08 3e e2 d4 83 3e 14 bc 20 3e
       0.14823069 0.13344963 0.25748354 0.15696746
000080 7c ed 01 3e 7c 50 32 3d 6c 01 31 3e ad 43 63 3e
       0.1268825 0.043533787 0.17285699 0.22193785
000090 94 1c a3 3d b6 00 94 3e da bc 4b 3e c8 b6 13 3e
       0.07964435 0.28906792 0.1989626 0.14425194
0000a0 8f 57 5b 3e cc 2f 5a 3e ba 53 08 3e bc de 10 3e
       0.2142012 0.21307296 0.13313189 0.14147466
0000b0 fd 99 af 3d 9e d9 45 3d f8 26 51 3e 87 61 2f 3e
       0.08574293 0.04830324 0.20425022 0.17127047
0000c0 d8 16 b2 3d 62 ff 8f 3e b2 b9 88 3e 87 fd f9 3d
       0.08695763 0.2812453 0.26704174 0.1220656
0000d0 46 27 82 3e b4 ca 70 3e b5 1c 4d 3e 84 9d a1 3e
       0.25420588 0.23514825 0.20030482 0.31565487
0000e0 7b d2 ed 3d 64 19 71 3d da ae 00 3e 87 f6 3e 3e
       0.116124116 0.058862105 0.125667 0.1864873
0000f0 fc b0 17 3e c3 27 c2 3d d1 21 59 3e 0e 3c 2e 3e
       0.14813608 0.0948024 0.21204306 0.17015097
000100 a8 e9 33 3e f6 92 5f 3e 25 ac 3e 3e 58 ff fe 3d
       0.17569602 0.21833405 0.18620355 0.12451047
000110 07 f4 0b 3e 58 b0 14 3e 10 b4 4e 3e 7e 49 3e 3e
       0.13667308 0.14520395 0.20185876 0.18582723
000120 b4 5b ce 3d 27 03 24 3e d5 c7 2e 3e 9c a9 ed 3d
       0.10076085 0.16016828 0.17068417 0.11604616
000130 81 e0 2d 3e 0d e7 1f 3e d8 dc 9a 3e a9 9e 83 3d
       0.16980173 0.15615483 0.30246615 0.064267464
000140 50 ad 11 3e 28 e2 ad 3d 72 65 b4 3d 15 36 ad 3e
       0.1422627 0.084904015 0.08808412 0.33830324
000150 47 60 3b 3e 66 bb b5 3d be 06 34 3e 0e ac 45 3e
       0.18298446 0.08873634 0.17580697 0.19303915
000160 36 4a 3f 3e 77 72 ed 3d 26 a6 52 3e 4f 36 29 3e
       0.18680653 0.11594098 0.20571193 0.16524623
000170 43 2f 54 3e 5b 70 88 3e 01 b3 7a 3e a4 40 df 3d
       0.20721154 0.2664822 0.24482347 0.10901001
000180 d8 15 6a 3e 4a 06 9b 3d 8d 74 63 3e 5f 85 15 3e
       0.22859895 0.07569559 0.2221243 0.14601658
000190 13 e4 5b 3e 9c 42 03 3d 4a b2 70 3e e9 5c 27 3d
       0.21473722 0.032045946 0.23505512 0.04086009
0001a0 f5 ab 1e 3e 16 69 89 3e dd d6 87 3e 5c df d8 3d
       0.15495284 0.26837987 0.26531115 0.105894774
0001b0 63 e3 58 3e 0f 81 0b 3d cd e4 0d 3e c4 c7 6c 3e
       0.21180491 0.034058627 0.13856812 0.2312308
0001c0 e5 23 cb 3d 94 23 6d 3d 2e b1 b3 3d d0 ae 60 3e
       0.09918956 0.057895258 0.08774029 0.21941686
0001d0 96 82 5c 3e 5c 88 78 3e d2 a8 9e 3e 29 eb 35 3e
       0.2153419 0.24270767 0.30988175 0.17765488
0001e0 10 9a d4 3d d1 df af 3d 71 f9 52 3e 02 ce fd 3d
       0.103809476 0.085876115 0.20602967 0.123928085
0001f0 bc 9c f4 3d 00 b5 22 3e 59 78 99 3d b0 4e 46 3e
       0.11943957 0.15889359 0.074936576 0.19365954
000200 43 ac 07 3e 35 4e 2c 3e 6e 87 2e 3e 71 0a 95 3e
       0.13249306 0.16826709 0.1704385 0.2910953
000210 e8 48 05 3e 15 bb c4 3d 68 4e 7f 3e db 61 ab 3e
       0.13016093 0.096059956 0.24932253 0.33473095
000220 3a 40 63 3e 9d 26 b1 3d 25 20 52 3d 46 4e fb 3d
       0.22192469 0.08649943 0.051300187 0.12270789
000230 0f 9e a2 3d 08 f3 60 3e b6 57 d0 3e 22 e2 35 3e
       0.079403035 0.21967709 0.40691918 0.17762044
000240 db 05 b4 3d ef e5 c9 3d a1 0c b4 3e 2e ae 4e 3e
       0.08790179 0.098583095 0.35165885 0.20183632
000250 33 18 32 3e 64 de 44 3e fc 98 ad 3c 31 de da 3d
       0.17392044 0.1922546 0.021191113 0.10686911
000260 59 57 8a 3e d4 0c fe 3d db 70 26 3e 06 fc c4 3d
       0.27019766 0.124047905 0.16253988 0.09618382
000270 13 76 84 3e c8 d1 a9 3e 67 39 53 3e ea 53 2d 3e
       0.25871333 0.33167863 0.20627366 0.16926542
000280 dd 94 3c 3e 0e c6 34 3d 43 81 8f 3d b6 6e 17 3e
       0.18416162 0.044134192 0.070070766 0.14788327
000290 7c 2f 73 3e c3 94 4f 3e e2 74 2a 3e 30 fd 5f 3d
       0.23748583 0.20271592 0.1664615 0.054684818
0002a0 f4 3b 1f 3e b9 f8 23 3e be fd 92 3d dd 2b 3d 3e
       0.15550214 0.16012849 0.07177304 0.18473764
0002b0 ba 43 d4 3d fa 4c 05 3e 3c cf 78 3e eb 52 75 3e
       0.1036448 0.13017645 0.24297804 0.23957412
0002c0 d4 2e 1f 3e ec 23 de 3d 0d f1 86 3e 50 9b e9 3d
       0.15545207 0.10846695 0.26355782 0.11406577
0002d0 22 f9 67 3e 10 c5 87 3e 80 ba f8 3d c8 84 61 3e
       0.2265363 0.26517534 0.12144947 0.22023308
0002e0 b0 75 9c 3e 8c e2 82 3e e6 82 84 3e b2 37 43 3e
       0.30558538 0.25563467 0.25881118 0.19064215
0002f0 37 3b 67 3d a4 5c 38 3e 8e c5 06 3e 02 72 e7 3d
       0.056452956 0.1800409 0.13161299 0.11301042
000300 51 68 e5 3d b3 d4 ae 3e b3 00 ed 3d 8f 58 fc 3c
       0.112015374 0.34146652 0.11572399 0.030803947
000310 6d 57 61 3d 06 41 5b 3d 96 10 98 3e af 89 5d 3e
       0.055015016 0.053528808 0.29700154 0.21634553
000320 b7 fb a2 3d 69 62 54 3e e6 1d d7 3d 83 2e 82 3d
       0.07958167 0.20740665 0.105037495 0.06356528
000330 d8 b7 3b 3e fe 3c 87 3e d5 6c 68 3e 7f 54 7c 3e
       0.1833185 0.2641372 0.22697766 0.24641608
000340 f6 57 61 3d 84 cd e2 3d f2 32 a9 3e f3 b1 7d 3e
       0.055015527 0.11074355 0.3304668 0.24774913
000350 f2 9c 2d 3e 9e a3 1d 3e 92 fc 88 3e 44 e7 80 3e
       0.16954401 0.15394446 0.26755196 0.25176442
000360 81 07 eb 3d 05 fd ae 3d 60 8e 1a 3e 90 69 d7 3d
       0.11476041 0.085443534 0.15093374 0.10518181
000370 ff 2c 20 3e 6f 82 48 3e 13 f1 39 3e bb 33 b2 3d
       0.15642165 0.19581006 0.18158369 0.08701273
000380 cc 9b 2e 3e 1e fe c9 3d 93 81 17 3e a7 e7 33 3e
       0.1705162 0.09862922 0.14795522 0.17568837
000390 e9 2c d0 3d 29 8d f2 3d 3d 17 8d 3d c5 b0 59 3d
       0.10164816 0.118433304 0.06889198 0.053147096
0003a0 19 97 89 3e 61 16 30 3e 86 f4 96 3e 35 97 a5 3e
       0.2687309 0.17196037 0.29483432 0.32341924
0003b0 b2 50 98 3d 21 ff 9d 3d f5 fe d7 3d 3c 77 63 3e
       0.074372664 0.077146776 0.10546676 0.22213453
0003c0 5d 2f 3d 3e a3 dd 88 3e cc ae d4 3d f5 55 ea 3d
       0.18475099 0.26731595 0.10384902 0.11442176
0003d0 53 a4 8f 3e ce af 14 3e 03 96 25 3e aa cc 72 3e
       0.28055057 0.14520189 0.16170506 0.23710886
0003e0 b9 9d ed 3d 95 08 4c 3e 12 1c 2f 3e 13 dd 6c 3e
       0.11602349 0.19925149 0.17100552 0.23131208
0003f0 b8 25 17 3e 2c f6 e0 3c 8c e6 79 3e 5d c2 54 3e
       0.14760482 0.027461134 0.24404353 0.20777269

running_var f4 [256]
000000 5e 61 b5 3e 23 c9 6b 3e 54 14 d7 3e 48 c8 80 3e
       0.35425848 0.23025946 0.42007697 0.25152802
000010 e6 ce 8f 3e f1 00 b1 3e f9 80 80 3e e9 0a 81 3e
       0.28087538 0.3457103 0.25098398 0.25203636
000020 cc 99 b2 3e da ae a5 3e dd c7 9d 3e 8c c3 bf 3e
       0.34882963 0.32359964 0.30816546 0.37453878
000030 d6 8f 82 3e 7b e2 9d 3e bc d3 8f 3e 91 6f 98 3e
       0.25500363 0.30836853 0.28091228 0.29772618
000040 08 79 b3 3e 50 27 b0 3e d7 97 87 3e 16 c5 65 3e
       0.35053277 0.34404993 0.26483032 0.22438464
000050 6a d0 86 3e 2b 57 8c 3e d5 6a d7 3e b7 cc 95 3e
       0.26330882 0.27410254 0.42073694 0.29257748
000060 e5 8d 91 3e 45 f1 c7 3e 65 49 86 3e 85 97 af 3e
       0.2842857 0.39051262 0.2622787 0.34295288
000070 79 e8 9d 3e 82 76 90 3e 2d b9 a0 3e 9d 8c 97 3e
       0.30841425 0.28215414 0.31391278 0.29599467
000080 fd f6 82 3e 5b d1 65 3e 44 79 9b 3e 89 7a a7 3e
       0.25579062 0.22443144 0.30365956 0.32710674
000090 4c af 7b 3e 71 1a ca 3e df 3c a1 3e e2 7f a7 3e
       0.24578589 0.39473298 0.31491753 0.32714754
0000a0 d3 03 8a 3e f0 3d 9e 3e f8 30 85 3e ef 22 93 3e
       0.26956043 0.3090663 0.26013923 0.2873759
0000b0 21 36 74 3e c2 5a 60 3e c6 ad 9d 3e d1 af 90 3e
       0.23848774 0.21909621 0.3079664 0.28259137
0000c0 f5 8a 70 3e 3c fd a2 3e fe e3 8f 3e e8 87 82 3e
       0.23490508 0.31833827 0.28103632 0.25494313
0000d0 e1 1d ac 3e d8 d3 ce 3e 14 d1 90 3e fc 1c d2 3e
       0.33616546 0.40396 0.28284514 0.41037738
0000e0 6e 67 90 3e 76 89 6a 3e 38 66 74 3e 81 cf 9d 3e
       0.2820391 0.22904 0.23867118 0.30822375
0000f0 c5 8c a2 3e 9c dc 82 3e 7e 21 c4 3e 46 d0 a8 3e
       0.31748024 0.25558937 0.38306803 0.329714
000100 69 b2 ba 3e 4a 44 96 3e 17 39 98 3e 2a 37 72 3e
       0.3646424 0.29348975 0.29731056 0.23653856
000110 a8 69 85 3e 76 f8 83 3e eb d3 bd 3e 7c e4 8f 3e
       0.26057172 0.25775498 0.37075743 0.28104007
000120 5a 5d 99 3e b2 54 8d 3e a2 f6 84 3e 4e eb 8c 3e
       0.29954034 0.2760368 0.25969416 0.27523273
000130 c1 26 81 3e 28 ce 9e 3e 83 bc c9 3e a4 41 79 3e
       0.2522488 0.3101666 0.39401636 0.24341446
000140 32 c7 91 3e 2a a4 8b 3e 13 fd 81 3e e2 fa f5 3e
       0.28472286 0.27273685 0.25388393 0.4804297
000150 6a c3 ce 3e 9e 7f 7f 3e e1 92 aa 3e fe d6 91 3e
       0.40383464 0.24951026 0.33315185 0.2848434
000160 e4 31 8f 3e 0b 53 83 3e 82 b0 94 3e a4 f7 b9 3e
       0.2796775 0.25649294 0.29040915 0.36321747
000170 de eb 84 3e 35 f1 9d 3e 4c 51 9e 3e c9 30 6e 3e
       0.25961202 0.3084809 0.309214 0.23260798
000180 87 3a 96 3e 26 29 66 3e 8d c2 c4 3e b5 20 b0 3e
       0.29341528 0.22476634 0.3842968 0.34399953
000190 72 fe 83 3e 21 51 64 3e 33 7b a6 3e 62 18 62 3e
       0.25780064 0.22296573 0.3251587 0.22079614
0001a0 89 3c 80 3e 76 61 a8 3e 1c b1 b1 3e 6b 15 95 3e
       0.25046185 0.32886857 0.34705436 0.29117903
0001b0 15 c4 95 3e f4 62 5a 3e 5b 30 a1 3e b1 85 93 3e
       0.2925116 0.2132681 0.31482205 0.28812936
0001c0 c9 53 82 3e 6c 4b 66 3e 71 bd 8b 3e 79 82 ce 3e
       0.25454548 0.22489709 0.2729297 0.40333918
0001d0 a1 66 95 3e fd 96 9d 3e c1 d8 be 3e 5f 6b 97 3e
       0.29179862 0.30779257 0.37274745 0.29574105
0001e0 e4 a2 89 3e fa ea 80 3e 3e 2e 80 3e 29 2f 8f 3e
       0.26882088 0.25179273 0.2503528 0.27965668
0001f0 b2 85 84 3e 8d 44 a5 3e da 1b 77 3e 87 33 90 3e
       0.2588325 0.32278863 0.24131718 0.28164312
000200 e8 3c 84 3e 82 ec a7 3e ad 72 b0 3e ff 9f 0a 3f
       0.25827718 0.3279763 0.3446249 0.54150385
000210 0a ac 7d 3e 7d b9 73 3e 3b fc a8 3e 88 fc e2 3e
       0.24772659 0.23801227 0.33004937 0.4433329
000220 06 94 9d 3e 56 9d 90 3e ab 5a 69 3e 71 8e 87 3e
       0.30776995 0.28245038 0.22788493 0.26475862
000230 25 5a 70 3e fa 8c a7 3e 01 50 28 3f ac ca 89 3e
       0.23471887 0.32724744 0.65747076 0.2691244
000240 37 83 77 3e c5 73 7c 3e 8c 9c ff 3e 0a 9e a4 3e
       0.24171148 0.24653538 0.49924123 0.32151824
000250 6f 0e 93 3e 51 db bc 3e 6f fa 58 3e 1c 9b 87 3e
       0.2872195 0.36886075 0.21189283 0.26485527
000260 7b b0 d8 3e 18 14 8c 3e 0f a0 81 3e 24 87 8d 3e
       0.42322144 0.2735908 0.25317428 0.27642167
000270 1b 4a 9f 3e 1b d4 e4 3e 0b fe 93 3e 92 72 98 3e
       0.31111225 0.44693074 0.28904757 0.2977491
000280 a2 28 9c 3e 70 fe 5a 3e e6 30 6f 3e 6e 83 8b 3e
       0.3049975 0.21386123 0.23358497 0.2724871
000290 46 fc 9e 3e 01 de 9c 3e c9 06 8b 3e 0c 49 65 3e
       0.31051844 0.30638126 0.27153614 0.22391146
0002a0 0b 3f 96 3e db 41 a2 3e d6 4f 6e 3e 19 b1 8f 3e
       0.29344973 0.3169087 0.23272642 0.28064802
0002b0 ca 3e 90 3e de 02 8f 3e 44 8e fe 3e f3 e9 c4 3e
       0.28172904 0.27931875 0.49717915 0.3845974
0002c0 d7 c6 aa 3e 22 ea 77 3e 5d bd ae 3e 0d c0 8f 3e
       0.33354828 0.24210408 0.34128848 0.2807621
0002d0 03 4a 8d 3e 2b cb 91 3e 93 d9 88 3e d3 0f cf 3e
       0.2759553 0.28475317 0.26728496 0.4044176
0002e0 55 53 bc 3e 1a a9 ba 3e a7 99 9b 3e 4e ec af 3e
       0.36782327 0.3645714 0.30390665 0.34359974
0002f0 0c cc 6a 3e 27 94 a3 3e 23 bd 8b 3e 68 7d 79 3e
       0.229294 0.3194897 0.27292737 0.24364245
000300 bc 20 84 3e 4b e7 b5 3e 44 73 91 3e 20 15 5d 3e
       0.25806224 0.35528025 0.28408253 0.2159009
000310 b8 da 6a 3e 33 7d 6a 3e 05 2f b7 3e 27 a5 9e 3e
       0.22934997 0.22899322 0.3577806 0.30985376
000320 00 91 77 3e fd fa a9 3e 47 2b 8f 3e ca ea 5f 3e
       0.24176407 0.331993 0.27962705 0.21866909
000330 a8 fe 88 3e 09 43 a8 3e c6 6f 87 3e e8 b6 a5 3e
       0.26756787 0.32863644 0.26452464 0.3236611
000340 bc 6a 6d 3e 02 3f 81 3e 06 d4 f2 3e 6f 7e 03 3f
       0.23185247 0.25243384 0.47427386 0.513648
000350 63 9c 7e 3e 04 09 a3 3e 3c 9d 94 3e 38 58 bb 3e
       0.24864344 0.31842816 0.2902621 0.36590743
000360 98 e7 82 3e 5a 36 8f 3e cc 1d 94 3e 2d a9 8b 3e
       0.25567317 0.27971154 0.28928983 0.27277508
000370 6f 77 8b 3e 94 c9 9f 3e cd 30 7c 3e dc e2 79 3e
       0.27239558 0.3120848 0.24627991 0.24402946
000380 28 68 a2 3e 96 7d 84 3e 4f 2e 93 3e f5 fa ab 3e
       0.3172009 0.25877064 0.28746268 0.33589903
000390 6a 13 90 3e fc 34 84 3e 55 99 74 3e 4b eb 71 3e
       0.28139812 0.25821674 0.23886617 0.23624913
0003a0 91 3f c0 3e cb e4 99 3e 9d f2 b8 3e f5 88 ac 3e
       0.37548497 0.30057368 0.361226 0.3369824
0003b0 63 63 6f 3e c8 87 70 3e ea 2f 80 3e 29 73 87 3e
       0.23377757 0.23489296 0.25036556 0.26455048
0003c0 52 d2 85 3e ad ce b1 3e 3d d8 7e 3e ed d1 8d 3e
       0.26137024 0.34727994 0.24887176 0.27699223
0003d0 e1 90 9e 3e 73 96 a0 3e 9d ab 96 3e 34 f0 8c 3e
       0.3096991 0.31364784 0.29427806 0.2752701
0003e0 d4 7f 80 3e d6 25 aa 3e 95 9a 7c 3e a5 22 a3 3e
       0.25097525 0.33231992 0.24668343 0.3186237
0003f0 a3 20 93 3e a4 ab 59 3e e6 3a 99 3e c4 e8 90 3e
       0.28735837 0.21256882 0.29927748 0.28302586

weight f4 [256, 256]
000000 7b bf 3e bd 9b 0d 30 bb ea a7 36 bd 9f 5a 02 bd
       -0.04656933 -0.0026863578 -0.04459373 -0.031824704
000010 ed 81 b0 3c 0e 92 f3 3c e7 f7 d7 3c c7 f8 70 bd
       0.021546328 0.02973273 0.026363326 -0.058831003
000020 05 3d 70 bc 0d c3 dc 3c 71 2d ba bb b5 46 a2 bc
       -0.014662986 0.026948476 -0.0056816866 -0.019809106
000030 65 ed 06 bd db 89 73 3d 8b 36 4d bd 78 d9 45 bd
       -0.03294124 0.05945764 -0.050100844 -0.048303097
000040 31 c0 3d 3d 62 97 1c bd ed e3 1b 3d dd f0 0e bd
       0.046325866 -0.038230307 0.038059164 -0.034897674
000050 0a 44 09 bc 7d ee f9 bc f9 c4 55 3d 52 c3 32 3d
       -0.008378038 -0.030509228 0.0521898 0.043643303
000060 bd 69 2f 3b dd 46 e3 3a 3d cc ba bc f4 7b 07 bd
       0.0026765906 0.0017339844 -0.022802467 -0.033077195
000070 04 d5 bd bc 18 d5 a8 3c 61 51 2f bc e8 5a 2d 3d
       -0.023172863 0.020609424 -0.010700555 0.042323023
000080 32 6b 20 3c 6d a9 3c 3a be de 1c bd 4a 0a d5 3c
       0.009791182 0.0007196877 -0.03829836 0.026005883
000090 6a da 6e bd 93 b8 7b 3c 68 b5 b9 3c a9 11 35 3c
       -0.058313765 0.01536383 0.022669509 0.011051574
0000a0 98 3d 37 3d 56 fc 76 3c b2 82 90 bc 5f b7 34 bd
       0.044736475 0.01507481 -0.017640445 -0.04412019
0000b0 1c 5a 6c bd 38 3c 05 3d 1f 62 09 3d 17 b2 40 bd
       -0.057703122 0.032528132 0.03354084 -0.04704484
0000c0 e3 29 8b 3c 94 18 c0 bc 69 4d 57 3d 3f 43 b3 bc
       0.016987747 -0.02344922 0.05256406 -0.021882651
0000d0 a5 8a 52 3d 8d 67 38 3d 66 21 0e 3d e9 2f 32 3d
       0.051401753 0.04502063 0.03469982 0.043502722
0000e0 3e 50 a4 3c 1c af b0 3c 0c 75 5c bd 4a e5 5e bc
       0.020057794 0.021567874 -0.053822562 -0.013604471
0000f0 aa 52 df bb 6c e2 fe 3c c6 75 c0 bc 58 22 ef 3c
       -0.0068152742 0.031113826 -0.023493659 0.029191181
000100 05 75 30 3d 94 d8 d9 3c 3a fb 06 3d 45 4d 13 bc
       0.04308035 0.02659253 0.032954432 -0.00899059
000110 35 6c f6 3c c1 2f ab bc ae 01 61 3d ac f3 4b ba
       0.030080894 -0.020896794 0.054933242 -0.00077801454
000120 47 9e 58 bb 88 d2 63 bd 4c 5a 6e 3d 1e a7 06 bc
       -0.0033053325 -0.0556207 0.058191583 -0.008218555
000130 d9 b3 40 3d 1a 55 26 bd cd 4a 57 bd 1c 2e 17 bc
       0.047046516 -0.040608503 -0.05256157 -0.009227302
000140 1e 53 49 bd a6 37 42 3c 20 12 ac 3a 73 c5 b6 bc
       -0.049151532 0.011854088 0.001312796 -0.022310948
000150 98 f9 21 3d 59 3b 25 3d 6e 59 5f bd 84 c1 4d bd
       0.03954467 0.0403398 -0.054528646 -0.05023338
000160 58 f5 15 3d 97 a5 18 bd 17 15 52 3c 81 08 81 bc
       0.03661093 -0.037267294 0.012822411 -0.015751125
000170 76 6e 3c 3c 70 73 0b bd 40 65 41 b9 6a 13 b0 bc
       0.011500945 -0.034045637 -0.00018443633 -0.021493632
000180 0c 57 e1 bc f9 91 00 bd 07 ad 6b 3c 66 c4 28 3d
       -0.027507327 -0.03138921 0.014384515 0.041202925
000190 97 cd fd ba 80 11 8f b9 a5 38 52 3d f7 d1 50 3d
       -0.0019363639 -0.00027288124 0.05132355 0.050981488
0001a0 1e 69 21 bc 91 e5 53 bd 70 a1 7e 3c ee 02 9d 3c
       -0.009851722 -0.051732603 0.015541419 0.019166436
0001b0 f5 a1 46 bd e5 42 63 bd 18 fc e0 3b a0 97 79 3d
       -0.048494298 -0.055483717 0.0068659894 0.060935616
0001c0 a5 64 66 bd b8 59 f7 bc e7 09 ab bc 2c 22 64 bd
       -0.056248326 -0.030194148 -0.020878745 -0.05569665
0001d0 c0 b3 1f bd 77 83 4b 3d 80 39 45 3d ff b7 38 bd
       -0.038989782 0.04968592 0.04815054 -0.045097347
0001e0 32 ec 05 3b 5e c5 4d bd 2f ac d7 3c 05 17 2c bd
       0.0020434973 -0.050237052 0.02632722 -0.04201414
0001f0 db 93 fe bc a0 c8 e9 bc bd c4 17 3c 19 52 29 3d
       -0.031076362 -0.028538048 0.009263215 0.04133806
000200 2e 92 d9 bc 33 8d 46 3c a5 54 4e 3d c3 75 45 bb
       -0.026558962 0.012118625 0.050373692 -0.0030130006
000210 65 c9 c2 3b d1 d6 b1 3b 47 0b 7b ba 85 d8 1a 3d
       0.0059444183 0.0054272194 -0.00095765706 0.037804145
000220 20 2a 0d 3d d2 fa 05 bd 7e f0 75 3d ba 9f 15 3d
       0.034464 -0.032709904 0.060043804 0.03652928
000230 b3 f7 1e bc e9 a1 5f 3d 4d 46 8a 3b 64 e5 20 3d
       -0.009702611 0.05459777 0.0042198063 0.039281264
000240 18 0d 5b bd 35 82 66 3d 6a 09 74 3d fa 49 3d bd
       -0.053479284 0.05627652 0.05957929 -0.046213128
000250 a8 53 66 bd a1 93 8e bc cc 51 1b bd 9b 26 8e 3c
       -0.056232125 -0.01740438 -0.037919804 0.017352393
000260 83 b0 eb 3c 43 da f2 bb d5 59 35 3d a2 b0 45 3b
       0.02877069 -0.0074112727 0.044275124 0.0030165096
000270 f1 bd 99 bc 3b 35 57 bd 12 9b a5 3c ce de 6d bd
       -0.018767329 -0.052541 0.020215545 -0.05807381
000280 36 8d 14 39 25 a2 0f 3c 1b 50 11 bd 2c 28 95 3c
       0.00014166985 0.008766686 -0.035476785 0.018207632
000290 d0 bf 51 3c 93 10 28 3d c0 af 1f 3d 92 c4 4c bd
       0.012802079 0.04103143 0.038985968 -0.04999215
0002a0 14 1d 40 bd b3 eb b7 bc 9b 0f 3a bd f0 79 9d 3c
       -0.04690273 -0.022451257 -0.04542504 0.019223183
0002b0 83 7a 26 bd 2c 4c 44 bd 25 9d 9a 3c e7 21 1b 3d
       -0.04064418 -0.047924206 0.01887376 0.03787413
0002c0 ca cb 8d bc 2d 92 7e bd 83 d0 1c 3c 31 dc 05 3d
       -0.017309088 -0.062151123 0.009571197 0.032680694
0002d0 00 e1 45 3d 46 4f a5 3b e0 d9 2f 3d f9 9b 61 bd
       0.04831028 0.0050448505 0.04293239 -0.055080388
0002e0 7d 10 75 3d 2f 0f 23 bd bb 86 2b bd cb 46 3b 3d
       0.059830178 -0.039809402 -0.041876536 0.04572181
0002f0 76 12 58 bc e3 c6 1d 3d 5e 73 31 bd 1b ca 42 3d
       -0.013187995 0.03851975 -0.043322913 0.047556024
000300 14 05 73 3d 0c ae 9c 3c 38 97 51 3d 9d 91 34 bd
       0.059331015 0.01912596 0.051169604 -0.04408418
000310 de 92 5b bc 77 fc a0 3c 17 d1 12 3d 3f 41 0a bd
       -0.013401715 0.019651635 0.035843935 -0.03375363
000320 50 90 25 3d c5 89 a3 bc 51 2f 05 bd ab 34 39 3c
       0.04042083 -0.019963155 -0.032515828 0.011304061
000330 a6 ec 49 bd 6c 11 67 bd 2e 36 a8 3c a2 92 a6 3c
       -0.04929795 -0.0564131 0.020533647 0.020333592
000340 b9 03 c1 3c 5d 52 15 bc 47 a2 37 bd 89 03 4b bd
       0.023561345 -0.009113875 -0.044832494 -0.04956392
000350 18 37 73 3d 12 7d 5a bd 7a 94 93 3c 98 f4 52 3d
       0.059378713 -0.053341933 0.018015135 0.051502794
000360 9d d1 42 3d 60 4c 1e bd 74 82 9e bc 5e 5e 49 bd
       0.047563184 -0.038647056 -0.019349314 -0.04916226
000370 8d 08 21 3d 3b 8d 6e bd d8 f5 6d bd 94 9b 2b bd
       0.039314795 -0.058240157 -0.058095783 -0.041896418
000380 10 97 51 3d fb 57 26 3d 65 dd 2a 3d 19 b7 46 3d
       0.051169455 0.04061125 0.041715045 0.04851446
000390 d0 62 ec bc 48 41 0c bd dd 60 1d bd b0 14 ac 3c
       -0.028855711 -0.034241945 -0.038422454 0.021005958
0003a0 85 2c cd 3c a9 9f 5a 3c fb 3f 46 bd 3e 04 ca 3b
       0.025045643 0.01334373 -0.04840086 0.0061650565
0003b0 4b ab 09 bd a1 d6 47 bc b6 2f 26 bc dd b2 66 3b
       -0.033610623 -0.012197168 -0.010143211 0.0035201826
0003c0 79 25 64 bd 8a 09 5c 3d a3 10 e0 bc 80 fc 9f 3c
       -0.0556998 0.053720035 -0.027351683 0.019529581
0003d0 a3 b5 30 3d 39 ec d3 3c 3c e2 2f 3d 87 32 0f 3d
       0.043141972 0.025869476 0.042940363 0.034960296
0003e0 21 95 39 3d 49 dd 5f 3c 18 6a 21 3d 29 c3 d8 bc
       0.045308236 0.013663598 0.03940782 -0.026460247
0003f0 fd 05 09 bd 45 6a fa 3c 7e 56 8d 3c fd 78 f8 ba
       -0.033452976 0.030568251 0.017253157 -0.0018956956
