models/models_lower_params/SA/MULTI_SPECIES_MLP/model.pt (torch, 315159 bytes, 10 tensors)

weight f4 [256, 10]
000000 07 40 77 3e fd 4f 86 3e 97 03 96 bd c9 7e 94 3e
       0.24145518 0.262329 -0.073249035 0.2900298
000010 97 6f 8e bd 10 f3 82 3d 20 68 1e be ae e5 3e 3e
       -0.06954878 0.06394017 -0.15469408 0.18642303
000020 0b ac 8e 3e 34 87 6d be 95 f7 8c 3e f2 25 74 3d
       0.27865633 -0.23196107 0.2753264 0.0596065
000030 8c 68 6e 3e bf 27 2f 3d c3 83 1c 3e d2 c2 38 bd
       0.23282069 0.042762514 0.15284638 -0.04510767
000040 41 31 79 3e 28 92 43 3d 0a 25 18 be d3 4a a3 3d
       0.24335195 0.047746807 -0.1485788 0.07973256
000050 c9 ec 15 be d1 f7 17 bd 8e 7c 04 be ff ed 55 3e
       -0.14641108 -0.03710157 -0.12938139 0.2089157
000060 9d f1 7f be e1 93 15 be 3e 16 b8 bd 11 03 42 be
       -0.24994512 -0.14607193 -0.08988617 -0.18946482
000070 5a 87 ef 3c f0 eb 9f be 5a 6e 92 3e cf d6 89 be
       0.029239345 -0.31234694 0.28599817 -0.26921698
000080 3d 15 79 3e 07 e1 57 3d 7b 54 d1 bd e7 8c 47 3e
       0.24324508 0.052704837 -0.102211915 0.19487344
000090 32 b8 4d 3d fb 49 83 3e 90 f3 09 3d 3c dd cb bd
       0.05022449 0.2564238 0.033679545 -0.099543065
0000a0 ed 56 ad 3d 3b 4b af bd 18 43 07 3e a8 30 90 3e
       0.084638454 -0.08559271 0.13209188 0.28162122
0000b0 ae 47 3b 3e 21 f7 0d be 40 fb 3b 3e 31 8e 63 3d
       0.18289062 -0.13863803 0.18357563 0.055555526
0000c0 1f 82 25 3e cf 4b 44 be c9 ff 9f be 3b 46 fa bd
       0.16162919 -0.19169544 -0.31249836 -0.12220427
0000d0 37 e7 78 be ed ef 84 3e 4b c2 bb 3d 1a b5 05 3e
       -0.24306951 0.259643 0.09167918 0.13057366
0000e0 76 5d ce 3d 50 02 c5 bb d1 32 7e 3e c1 2c 65 be
       0.1007642 -0.0060122386 0.24824072 -0.22380354
0000f0 a4 4f ab 3c f0 98 5d be 05 9b c5 3d 69 a1 de bd
       0.020911999 -0.21640372 0.09648708 -0.1087063
000100 cd 9a c8 3d df 12 89 bd 24 cf 86 3e ca ed 40 be
       0.09795151 -0.066930525 0.2632991 -0.1884071
000110 f6 14 40 be 6d 27 40 be 23 e3 91 3e c6 68 d7 3d
       -0.18757996 -0.1876504 0.28493604 0.10518031
000120 f3 4d 9c 3e 5b 55 85 be db 9e a0 be 7f c2 7c be
       0.3052822 -0.26041684 -0.31371197 -0.2468357
000130 4f c9 5a be 3a 36 04 3e 05 c6 e5 3d 3d 29 86 3e
       -0.21365856 0.12911311 0.1121941 0.26203337
000140 9d 5b 26 be 95 c6 5c be 73 0c 2c 3e 4c e9 01 be
       -0.16245885 -0.21560128 0.16801624 -0.12686652
000150 42 f9 44 3e bc 81 99 bd 47 8b 38 3e 50 85 7b be
       0.1923571 -0.07495448 0.1802188 -0.24562573
000160 9b 65 24 be 37 0f c6 3d 96 bb 86 3d e1 e6 a3 bd
       -0.16054384 0.09670871 0.06578748 -0.08003021
000170 5c 17 42 3e 87 78 5b 3e 47 ec 6b be a4 d0 2b be
       0.18954223 0.21432696 -0.23039351 -0.16778809
000180 86 b9 93 3e 23 e0 db bd 6f 4a e4 bd 40 94 9c be
       0.2885248 -0.1073611 -0.111470096 -0.30581856
000190 2a 4e 3a be 85 7e a3 3d fa bc 2b bd 79 f1 6b be
       -0.1819388 0.07983116 -0.04192827 -0.23041333
0001a0 06 76 d9 3b e2 90 5c be 03 ee 88 be cf 60 32 be
       0.006636384 -0.21539643 -0.2674409 -0.17419742
0001b0 15 5b 8d be 8b 7d 4d be 80 f8 a1 3e 61 56 73 3d
       -0.27608553 -0.20067422 0.31634903 0.05940855
0001c0 21 a3 c9 3d 41 cb 96 be b8 ff 54 be 0c bc d5 bd
       0.098455675 -0.29451945 -0.20800674 -0.10436258
0001d0 36 9b 46 3d 55 f4 8d be ea 8d 0c be ec 7d 42 be
       0.048487864 -0.27725473 -0.13726011 -0.18993348
0001e0 2c 12 ad 3a 7d cc f1 bd 80 ea b3 bc 37 31 5b be
       0.0013204268 -0.11806581 -0.021962404 -0.21405493
0001f0 1f c2 5d be a5 51 3d be 29 4b dd bd b1 bf 7f be
       -0.21656083 -0.18488176 -0.10805351 -0.24975468
000200 c6 cc 87 3e 77 4f 80 bd 17 ce 8b 3e 38 83 cb 3d
       0.26523417 -0.06265157 0.27305672 0.09937137
000210 1d f5 88 be 77 1e 61 3e ff 56 b2 bd 06 54 f6 bd
       -0.26749507 0.21984278 -0.087079994 -0.12027745
000220 16 ad 86 be 27 87 a0 be 1b 4d b7 3d 36 f0 8d bd
       -0.2630393 -0.31353113 0.089502536 -0.06930582
000230 b5 75 fa 3d 00 11 85 be 24 56 71 3e 07 1a 6e be
       0.12229482 -0.25989532 0.23568016 -0.23252116
000240 c1 7d 62 bd 9a 81 88 3d 20 51 26 3e f4 79 82 3e
       -0.05529571 0.066653445 0.16241884 0.25483668
000250 f1 28 93 3e 57 2b 80 be 91 20 a1 3d 6b 19 0b be
       0.28742173 -0.25033066 0.0786754 -0.13583915
000260 45 b4 0c bd 2c 06 73 be cf 00 93 3e e4 28 6d be
       -0.034351606 -0.23732823 0.28711554 -0.2316013
000270 31 ee 2c 3e c8 d6 e4 3d 4a 15 d2 3d 0b f4 2e be
       0.16887738 0.11173779 0.10257967 -0.17085283
000280 87 53 93 3e d2 bd 8c 3d d1 32 26 3d 57 d5 8e be
       0.28774664 0.06872143 0.040575806 -0.2789714
000290 e8 7e 08 3e cc 90 44 bd 17 57 14 be 19 d9 8a 3e
       0.13329661 -0.04798965 -0.14486347 0.27118757
0002a0 50 6c 90 3d ed d9 32 be 72 3b 23 be 0e ab 82 bc
       0.07051909 -0.17465945 -0.15940645 -0.015950706
0002b0 59 0c 35 3e 28 6d a4 bd 1c 13 38 be 78 12 df bd
       0.17680492 -0.080286324 -0.1797604 -0.108921945
0002c0 ed 9e 72 be 26 e0 e6 3d fb 40 7a 3e 56 a2 98 be
       -0.23693438 0.11273222 0.2443885 -0.29811352
0002d0 5c 1d 95 3d f3 f4 26 3e 31 31 6d 3d 64 46 e7 bd
       0.072809905 0.16304378 0.05790824 -0.11292723
0002e0 ce 77 28 3e c2 e6 2a 3e 87 ee f1 3d eb 5d 67 bd
       0.16451952 0.1668959 0.118130736 -0.05648605
0002f0 f0 d8 a9 bd 4f b9 08 3d 54 ea 68 bd ca 03 c1 bd
       -0.08293331 0.03337985 -0.056864098 -0.09424551
000300 b7 04 50 3e 96 a8 8a 3e 87 5f 04 bd ae 15 8f bd
       0.20314299 0.27081746 -0.032317664 -0.06986557
000310 89 b1 6c 3b 5d c0 92 bc 31 ae 99 3d 03 aa b3 3d
       0.0036116561 -0.017913992 0.075039275 0.087726615
000320 a6 44 93 be 7f eb ec bd f0 e0 88 3e 4f bb fc 3d
       -0.28763312 -0.11568355 0.26734114 0.12340414
000330 a8 c8 88 bc 3a 2f 42 be 13 fe 46 be df 85 90 be
       -0.016697243 -0.18963328 -0.19432859 -0.28227136
000340 17 7c d4 bd 8a 7d db 3d 17 53 4f 3e 6b 8a 16 3e
       -0.10375231 0.10717304 0.2024654 0.1470124
000350 72 be 8e be 38 b5 41 be 83 19 4d bd 3a 26 9d 3e
       -0.27879673 -0.18916786 -0.050073158 0.30693227
000360 d6 57 37 3d c2 99 a5 bd 72 e2 04 3e ae 9a f8 bd
       0.0447615 -0.080859676 0.12977007 -0.12138878
000370 20 e7 50 be 20 5e 6c 3e d0 29 13 be 0e 27 80 bd
       -0.20400667 0.23082781 -0.14371419 -0.06257449
000380 39 bb a0 be 55 d0 58 3e 53 b6 74 3e df bb ec 3d
       -0.3139284 0.21173222 0.23897676 0.11559271
000390 e8 ac 61 be ef 52 a0 be 50 da 83 be 35 7f 70 3e
       -0.22038615 -0.31313273 -0.25752497 0.23486026
0003a0 3b 72 1c 3e c9 db 87 3e 9a 08 29 3e 81 a0 a3 3d
       0.1527795 0.2653487 0.16507187 0.07989598
0003b0 0f be 82 bb 19 22 77 be ab 72 8a be 49 a5 97 be
       -0.003989942 -0.24134101 -0.2704061 -0.2961829
0003c0 71 a0 04 3e d4 f3 1e be 04 d8 82 bd 37 46 3a be
       0.12951829 -0.155227 -0.06388858 -0.18190847
0003d0 61 a1 6a bd 83 3c 64 be 44 3f 53 be 6e 70 d6 3d
       -0.05728281 -0.22288708 -0.20629603 0.10470663
0003e0 92 5d bf bd eb 83 47 3e 8f d8 d1 bd f7 84 6e be
       -0.09344019 0.19483916 -0.102463834 -0.2329291
0003f0 de 55 60 bd 53 01 1e be c8 37 c8 bd d5 9e 99 be
       -0.05476939 -0.15430193 -0.097762644 -0.30003992

bias f4 [256]
000000 8e e5 23 be 70 24 62 3e 1d 62 56 3e 0f f1 4d 3d
       -0.16005537 0.22084212 0.20935865 0.05027872
000010 12 58 14 be 44 97 88 3d 21 0a f3 3a 14 6f 93 3e
       -0.14486721 0.06669477 0.0018542447 0.28795683
000020 c2 cc 43 3d ba 4e cd 3c be 1b a9 3c af 24 2d 3e
       0.047802694 0.025061954 0.020643111 0.16908525
000030 c0 33 59 bb 30 08 8b 3e cd 2d 29 3e 0c 44 75 be
       -0.0033142418 0.27154684 0.16521378 -0.23951739
000040 f1 9e bf b8 a4 43 89 be 6f fe 78 be b9 17 79 3d
       -9.137195e-05 -0.26809418 -0.24315809 0.06081364
000050 03 6b 93 3d d6 e7 df bc 44 a2 99 3e 39 f3 2c be
       0.07198145 -0.027332228 0.3000661 -0.16889657
000060 08 73 08 be e6 76 4b bd be ae fd 3a 9c f8 e2 bc
       -0.13325131 -0.049673937 0.0019354445 -0.027706437
000070 01 e8 91 3e b4 01 08 be 54 83 28 be f5 11 d6 3c
       0.28497317 -0.132819 -0.16456348 0.02613161
000080 86 2f 72 3e d8 5e 98 3d 66 c0 2d 3e 79 5b 77 3d
       0.23650941 0.07439965 0.16967925 0.06038997
000090 15 18 8a 3e dd b2 41 3e 91 11 68 3e b7 88 30 bd
       0.26971498 0.18915887 0.22662951 -0.04309913
0000a0 bc 65 86 be 20 c0 18 be 89 f9 da 3d 02 9d 63 3e
       -0.26249492 -0.1491704 0.10692126 0.22227862
0000b0 a8 47 fd bd 41 98 85 3e 41 38 3e 3d 2a d9 03 3b
       -0.12367183 0.26092723 0.046440367 0.0020118454
0000c0 b8 13 4d 3c 88 cd 61 bd 8a 30 97 3e a6 2f 66 3c
       0.012516908 -0.05512765 0.2952922 0.014049446
0000d0 64 66 45 3e 69 99 88 be 0b fd 26 be 05 63 14 3d
       0.1927734 -0.26679543 -0.16307466 0.036227245
0000e0 2a 38 81 3e f4 05 1a 3e fd 60 78 3d 4c d9 9f be
       0.25238162 0.15041333 0.06063937 -0.31220472
0000f0 82 08 e0 3b d7 e6 54 be cd dc 89 be 3a 25 2d 3d
       0.0068369517 -0.20791183 -0.2692627 0.04227183
000100 30 e7 4c be eb 77 92 3e 7b 0b 31 be 89 d7 ce 3d
       -0.20010066 0.28607115 -0.17289536 0.10099704
000110 8e 1a 3d 3e 17 f1 7a be 68 4c 25 3e 8e 04 2b bd
       0.18467161 -0.24506031 0.16142428 -0.04175239
000120 07 cb 28 3e 38 a5 9c 3e 7c b3 09 be 86 24 0c be
       0.16483699 0.30594802 -0.13447374 -0.13685808
000130 f2 68 80 3e 9f 9b 13 3d b1 40 fb bc 29 6c 75 3e
       0.25080067 0.036037084 -0.030670496 0.23967041
000140 66 d8 1c be ec 30 74 bc f7 f1 5d 3e 6c b3 fb 3d
       -0.15316924 -0.014904242 0.21674334 0.122900814
000150 06 a5 51 be cc 4d aa 3d de 23 77 be 03 0c 30 be
       -0.20473108 0.0831562 -0.24134776 -0.17192082
000160 79 ca 50 3e 02 cf aa bd 94 21 25 be 35 d0 bb 3c
       0.20389737 -0.08340265 -0.1612609 0.02292643
000170 96 98 9f 3d 7c 5a 48 be 61 5c 59 be 4f c5 9c be
       0.07792775 -0.19565767 -0.21226646 -0.30619285
000180 0f d2 a8 3d e6 64 51 be d4 15 ce 3c aa b2 90 bd
       0.082431905 -0.20448646 0.025156893 -0.070653275
000190 b8 de 53 be 6d 6a cd bd fe c3 78 be 97 77 2a be
       -0.20690429 -0.10030065 -0.24293515 -0.16647182
0001a0 d4 58 1b bc d6 11 8a be 28 b8 8d be 13 3c 72 3e
       -0.0094816275 -0.26966733 -0.27679563 0.23655729
0001b0 2c cb ed 3c 9c 61 0f be 09 17 20 bc 2b 0e 70 3e
       0.029027544 -0.14002079 -0.009771117 0.23442905
0001c0 4d e3 86 be 0a fe 2b be 78 33 69 be f8 61 bc bc
       -0.26345292 -0.16796127 -0.2277354 -0.022995934
0001d0 99 cc 2a bc fd 53 7b be 51 bf 5f 3e 9c 7e 79 be
       -0.010424756 -0.24543758 0.21850325 -0.24364704
0001e0 46 7f 97 3e 50 c7 5e be 01 a2 33 bd c5 d7 75 3d
       0.2958929 -0.21755719 -0.04385567 0.060020227
0001f0 56 ef 0e be de 63 94 3e b1 33 5e be c5 e9 88 bc
       -0.13958487 0.28982443 -0.21699406 -0.016713032
000200 8f 25 6d be 02 9b b2 3d 55 16 8a 3e dd aa 95 3e
       -0.23158859 0.08720972 0.26970163 0.2923192
000210 0b 71 1b 3d 72 9e 21 be 5b 22 9d 3e 02 75 bb 3c
       0.037949603 -0.15783098 0.30690274 0.022882942
000220 be 1d 5b 3e 40 94 27 be c0 67 15 be ef 96 86 be
       0.21398064 -0.16365147 -0.14590359 -0.26287028
000230 21 34 95 3e d2 09 56 3d 8c a5 68 be a0 4d e0 3c
       0.29141334 0.05225546 -0.22719401 0.027380764
000240 60 e0 09 be 96 e2 74 3c f7 9b d5 3d 8b a5 20 be
       -0.13464499 0.0149466 0.104301386 -0.1568815
000250 e3 fe 5f 3d a9 f3 4c be ea b9 7c 3d 0c e6 9b be
       0.05468644 -0.20014824 0.06170074 -0.3044895
000260 d8 b9 51 3d 28 5a a1 3e 3c 72 95 3e 1b a4 ea 3d
       0.051202625 0.31514096 0.29188716 0.11457082
000270 cc 15 6f 3e f7 90 9d 3e b8 14 b9 3d b8 b5 d6 3d
       0.23348159 0.30774662 0.09037155 0.10483879
000280 3d ad 24 3d 18 a1 8f 3e f3 04 8b 3e 19 4e 18 be
       0.040204275 0.28052592 0.27152213 -0.14873542
000290 2c a3 5f bc d1 27 24 be 42 76 e8 3d 20 29 9d be
       -0.013649743 -0.16030814 0.11350681 -0.30695438
0002a0 bd 0c e7 3d 8d 77 b3 bd c1 c2 e8 3d 21 42 cc 3d
       0.112817265 -0.08763037 0.11365271 0.099735506
0002b0 8a b2 21 be a5 0f 27 3e 8c d4 09 3e e9 86 89 be
       -0.15790763 0.16314562 0.13459986 -0.2686074
0002c0 4a 1c a1 3e a8 bc 8b 3e 8e 41 4a 3e 4f 78 05 bd
       0.31466895 0.2729237 0.1975157 -0.03258544
0002d0 f1 f2 e3 3d cf 8a 2e be 6f 3f db bd 69 57 19 3e
       0.11130322 -0.17045139 -0.107054584 0.1497475
0002e0 1a 29 11 3e aa b4 ff 3d 3d be 9a be 52 dd 85 3e
       0.14175835 0.12485631 -0.30223265 0.26145416
0002f0 7b 34 07 be 1d 31 8c 3e 60 bc 85 3e 8d 64 f1 3d
       -0.13203613 0.2738122 0.2612028 0.11786757
000300 17 d8 a0 3e 38 5c 3a 3e 3f 19 3e 3e 4b ce d9 bd
       0.31414863 0.18199241 0.18564318 -0.106350504
000310 01 b3 96 3e 89 ab aa 3d b5 ee 3e 3e ae c9 90 bd
       0.29433444 0.08333499 0.18645747 -0.07069717
000320 fa cf 69 3e 0b 1c 8f 3e 1c 8c 77 be a4 62 84 3e
       0.22833243 0.27951083 -0.24174541 0.25856507
000330 97 34 55 be 49 ba 5f be 5b f5 86 be e0 89 bc 3d
       -0.20820843 -0.21848406 -0.26359066 0.09205985
000340 8b 3c 73 be d5 0b f3 bd 40 ed 21 be 9e 24 af 3d
       -0.23753564 -0.11867491 -0.1581316 0.08551906
000350 8a 4a 9f be 91 40 14 be ba 7e 43 3b a5 96 e3 3c
       -0.31111556 -0.14477755 0.0029830174 0.027781794
000360 a3 5d 11 be 65 34 e7 3d 0c ba 55 be fc d6 88 be
       -0.14195876 0.1128929 -0.20871753 -0.2672652
000370 39 e5 34 bd 54 a2 2e be 23 8c 4b 3e 74 53 5d be
       -0.044163916 -0.17054111 0.19877677 -0.21613866
000380 6a e2 d3 bc 57 b6 05 3e 21 00 8e be 78 1b 7a 3e
       -0.025864799 0.13057838 -0.27734473 0.24424541
000390 1a 21 12 be 88 4f ae bd 7b 1a 45 be b1 b2 f1 bd
       -0.1427044 -0.08511263 -0.19248383 -0.11801661
0003a0 f3 bc fb bd 44 0a 90 be 54 07 df 3d f0 87 51 ba
       -0.122918986 -0.28132832 0.108900696 -0.00079929736
0003b0 47 ce 9e 3e 09 86 5b 3e 0a 72 8c 3e 9c e2 be 3d
       0.31016752 0.21437849 0.27430755 0.09320566
0003c0 f0 06 2b 3e bf 73 97 3e 8d 17 85 3e f1 01 79 be
       0.16701865 0.29580495 0.2599453 -0.24317147
0003d0 3c 8c 91 bd f8 53 9c be ef ca 4e 3c a6 0d e3 bd
       -0.07106826 -0.30532813 0.012621625 -0.110865876
0003e0 6b e8 8c 3e 47 43 4c 3d fd f4 49 3b b9 9b 6a be
       0.2752107 0.04986885 0.003081619 -0.22910966
0003f0 1e 10 7f be d1 c5 4e 3d e8 f2 21 be 8d d5 13 be
       -0.24908492 0.05048162 -0.15815318 -0.14436932

weight f4 [256]
000000 ff ed 7f 3f 61 1f 80 3f 1a f1 7f 3f 59 bd 7f 3f
       0.9997253 1.0009576 0.99977267 0.99898297
000010 10 20 80 3f ba 21 80 3f bb 05 80 3f a1 22 80 3f
       1.0009785 1.0010293 1.0001749 1.0010568
000020 54 f2 7f 3f 6e e3 7f 3f 9d bf 7f 3f 3d 1f 80 3f
       0.9997914 0.99956405 0.99901754 1.0009533
000030 ed 18 80 3f 52 bf 7f 3f e7 cb 7f 3f d7 1c 80 3f
       1.0007607 0.99901307 0.99920505 1.0008801
000040 94 1e 80 3f 91 03 80 3f e8 c3 7f 3f a8 1e 80 3f
       1.0009332 1.0001088 0.99908304 1.0009356
000050 d5 18 80 3f 99 20 80 3f 41 d5 7f 3f b4 1d 80 3f
       1.0007578 1.0009948 0.99934775 1.0009065
000060 3e 1c 80 3f 25 d5 7f 3f 6b 02 80 3f 41 f6 7f 3f
       1.0008619 0.9993461 1.0000738 0.9998513
000070 2d ce 7f 3f 79 ef 7f 3f 7e f9 7f 3f 27 bc 7f 3f
       0.99923974 0.9997478 0.9999007 0.9989647
000080 4e bb 7f 3f 6a fd 7f 3f 58 15 80 3f 3b 0a 80 3f
       0.9989518 0.99996054 1.0006514 1.0003122
000090 15 cb 7f 3f d0 d3 7f 3f 35 1d 80 3f 6f 0d 80 3f
       0.99919254 0.99932575 1.0008913 1.00041
0000a0 17 15 80 3f d7 21 80 3f 9e ed 7f 3f 5e 1f 80 3f
       1.0006436 1.0010327 0.9997195 1.0009573
0000b0 3b 14 80 3f 68 e0 7f 3f 13 16 80 3f 7e c4 7f 3f
       1.0006174 0.9995179 1.0006737 0.999092
0000c0 61 20 80 3f 1e 0d 80 3f a3 c8 7f 3f b8 1c 80 3f
       1.0009881 1.0004003 0.9991552 1.0008764
0000d0 b2 c0 7f 3f df d8 7f 3f b6 c2 7f 3f fd cb 7f 3f
       0.99903405 0.99940294 0.9990648 0.99920636
0000e0 db 16 80 3f 53 0c 80 3f 32 e4 7f 3f 19 22 80 3f
       1.0006975 1.0003761 0.99957573 1.0010406
0000f0 58 ce 7f 3f ab 21 80 3f 9e 17 80 3f f4 1d 80 3f
       0.9992423 1.0010275 1.0007207 1.0009141
000100 ab 10 80 3f ae 1f 80 3f 4b ba 7f 3f f1 c1 7f 3f
       1.0005087 1.0009668 0.99893636 0.99905306
000110 44 c5 7f 3f 0c f8 7f 3f 01 13 80 3f 80 0f 80 3f
       0.9991038 0.99987864 1.00058 1.000473
000120 1a 14 80 3f 9b c7 7f 3f 72 22 80 3f f5 01 80 3f
       1.0006135 0.9991395 1.0010512 1.0000597
000130 69 f5 7f 3f 4d 1e 80 3f 0d 21 80 3f 94 db 7f 3f
       0.9998384 1.0009247 1.0010086 0.99944425
000140 a8 08 80 3f 68 1c 80 3f 83 c6 7f 3f cf e0 7f 3f
       1.0002642 1.0008669 0.9991228 0.99952406
000150 81 eb 7f 3f c5 21 80 3f 89 be 7f 3f 72 16 80 3f
       0.99968725 1.0010306 0.9990011 1.000685
000160 f6 0f 80 3f a5 1d 80 3f 80 bd 7f 3f b7 ea 7f 3f
       1.0004871 1.0009047 0.9989853 0.9996752
000170 83 0c 80 3f 2c db 7f 3f ef 20 80 3f 76 ff 7f 3f
       1.0003818 0.99943805 1.001005 0.9999918
000180 28 c0 7f 3f ab f0 7f 3f 66 22 80 3f 0a 0b 80 3f
       0.9990258 0.99976605 1.0010498 1.0003369
000190 a6 e0 7f 3f e7 1d 80 3f cf 18 80 3f 5c 20 80 3f
       0.9995216 1.0009125 1.0007571 1.0009875
0001a0 d5 d5 7f 3f 23 21 80 3f 4b 03 80 3f bb ea 7f 3f
       0.99935657 1.0010113 1.0001005 0.99967545
0001b0 4a e4 7f 3f 55 c0 7f 3f ec 1e 80 3f b3 dd 7f 3f
       0.99957716 0.9990285 1.0009437 0.9994766
0001c0 64 1f 80 3f a4 0f 80 3f 6c e7 7f 3f cb ce 7f 3f
       1.000958 1.0004773 0.99962497 0.99924916
0001d0 76 03 80 3f 86 21 80 3f 4b e1 7f 3f c9 c1 7f 3f
       1.0001056 1.001023 0.99953145 0.9990507
0001e0 eb 1f 80 3f 6c 01 80 3f 58 fa 7f 3f 35 21 80 3f
       1.000974 1.0000434 0.9999137 1.0010134
0001f0 4a 0e 80 3f e1 c7 7f 3f 85 e9 7f 3f 65 1d 80 3f
       1.0004361 0.99914366 0.999657 1.000897
000200 b0 1a 80 3f 66 1c 80 3f be 06 80 3f 8c bf 7f 3f
       1.0008144 1.0008667 1.0002058 0.9990165
000210 a9 13 80 3f c5 16 80 3f de 1f 80 3f e0 c7 7f 3f
       1.0006 1.0006949 1.0009725 0.9991436
000220 91 be 7f 3f 5a d9 7f 3f 92 20 80 3f 48 e0 7f 3f
       0.99900156 0.9994103 1.000994 0.999516
000230 51 02 80 3f a9 f6 7f 3f 11 17 80 3f 4d fc 7f 3f
       1.0000707 0.9998575 1.0007039 0.99994355
000240 8c 1a 80 3f e8 bf 7f 3f ce c9 7f 3f a3 ee 7f 3f
       1.0008101 0.999022 0.99917305 0.99973506
000250 d8 f3 7f 3f 03 c0 7f 3f 30 14 80 3f 6c 02 80 3f
       0.9998145 0.9990236 1.0006161 1.0000739
000260 72 20 80 3f 2a 09 80 3f 70 db 7f 3f d8 be 7f 3f
       1.0009902 1.0002797 0.9994421 0.9990058
000270 c2 f7 7f 3f 1e 0c 80 3f 36 bb 7f 3f 09 18 80 3f
       0.99987423 1.0003698 0.99895036 1.0007335
000280 22 d7 7f 3f b6 22 80 3f af 0a 80 3f 20 c0 7f 3f
       0.9993764 1.0010593 1.000326 0.99902534
000290 80 bc 7f 3f 13 05 80 3f 5f d3 7f 3f 41 ca 7f 3f
       0.99897003 1.0001549 0.999319 0.9991799
0002a0 f8 dd 7f 3f e7 d6 7f 3f c0 08 80 3f 05 f7 7f 3f
       0.9994807 0.9993729 1.000267 0.99986297
0002b0 73 c4 7f 3f 5a e8 7f 3f 36 06 80 3f 38 10 80 3f
       0.9990913 0.99963915 1.0001895 1.000495
0002c0 9c d8 7f 3f 51 c3 7f 3f 2f c7 7f 3f 17 ce 7f 3f
       0.99939895 0.99907404 0.99913305 0.99923843
0002d0 37 20 80 3f d3 18 80 3f da f3 7f 3f 20 c4 7f 3f
       1.0009831 1.0007576 0.9998146 0.9990864
0002e0 65 20 80 3f b6 04 80 3f 6b f8 7f 3f 2b 12 80 3f
       1.0009886 1.0001438 0.9998843 1.0005544
0002f0 06 c1 7f 3f 52 22 80 3f 33 1b 80 3f 7d 20 80 3f
       0.99903905 1.0010474 1.00083 1.0009915
000300 28 c2 7f 3f 68 21 80 3f a7 d2 7f 3f 36 22 80 3f
       0.99905634 1.0010195 0.99930805 1.001044
000310 25 21 80 3f a8 bd 7f 3f 86 f5 7f 3f d0 21 80 3f
       1.0010115 0.9989877 0.99984014 1.0010319
000320 9f dd 7f 3f 0e bf 7f 3f 54 fa 7f 3f be 20 80 3f
       0.9994754 0.999009 0.99991345 1.0009992
000330 a3 1e 80 3f da d5 7f 3f 41 21 80 3f 03 c8 7f 3f
       1.000935 0.99935687 1.0010148 0.9991457
000340 2f 1d 80 3f 38 ca 7f 3f 22 20 80 3f 88 c2 7f 3f
       1.0008906 0.99917936 1.0009806 0.99906206
000350 6b d7 7f 3f d0 21 80 3f 0d 22 80 3f 69 1a 80 3f
       0.99938077 1.0010319 1.0010391 1.000806
000360 87 df 7f 3f 60 c1 7f 3f f3 16 80 3f 37 1c 80 3f
       0.9995045 0.9990444 1.0007004 1.000861
000370 59 df 7f 3f fb f5 7f 3f a8 11 80 3f 8f be 7f 3f
       0.99950176 0.9998471 1.0005388 0.99900144
000380 01 23 80 3f af cd 7f 3f a3 15 80 3f 3e ec 7f 3f
       1.0010682 0.99923223 1.0006603 0.9996985
000390 e2 20 80 3f 18 22 80 3f 95 21 80 3f cb c1 7f 3f
       1.0010035 1.0010405 1.0010248 0.9990508
0003a0 72 15 80 3f c9 1e 80 3f 3c 1d 80 3f e2 19 80 3f
       1.0006545 1.0009395 1.0008922 1.0007899
0003b0 fa c4 7f 3f 45 1c 80 3f 5c ba 7f 3f e1 15 80 3f
       0.9990994 1.0008627 0.99893737 1.0006677
0003c0 e0 cd 7f 3f 00 16 80 3f 70 d8 7f 3f 44 18 80 3f
       0.99923515 1.0006714 0.9993963 1.0007405
0003d0 f0 cd 7f 3f 1e 14 80 3f 6b be 7f 3f e2 00 80 3f
       0.9992361 1.0006139 0.9989993 1.000027
0003e0 c0 22 80 3f 5e 16 80 3f 53 0e 80 3f 5b d4 7f 3f
       1.0010605 1.0006826 1.0004371 0.99933404
0003f0 76 bd 7f 3f 45 20 80 3f b8 c5 7f 3f ea f8 7f 3f
       0.9989847 1.0009848 0.9991107 0.9998919

bias f4 [256]
000000 85 c7 94 b9 f5 4b 83 ba 21 ea dd 39 ec ef b5 39
       -0.00028377413 -0.0010017144 0.00042326844 0.00034701766
000010 7f 76 60 ba 30 f1 54 ba 74 f0 69 37 df ab 32 3a
       -0.0008562579 -0.0008123098 1.3943867e-05 0.0006815772
000020 c2 7b 14 3a a6 9f d0 b8 b9 08 83 3a 8c 97 5e 39
       0.00056641933 -9.94795e-05 0.0009997106 0.00021228025
000030 86 d3 50 ba ff f9 47 ba f5 ad 2d 3a 97 90 61 ba
       -0.000796609 -0.00076285 0.0006625348 -0.00086046144
000040 d6 5d a7 b9 86 a8 62 3a 45 80 1c 3a 05 3b 67 3a
       -0.00031922635 0.0008646328 0.00059700414 0.0008820745
000050 57 cb a0 b9 b6 fc 3a b7 46 1a 52 b9 c7 96 a8 b9
       -0.00030669078 -1.1145303e-05 -0.00020036948 -0.00032155795
000060 45 17 03 3a 7e c1 4b ba 4c c5 69 39 a6 8d 75 3a
       0.0005000721 -0.0007772668 0.0002229411 0.00093671156
000070 fe 0d 35 3a 33 11 74 3a 5d 52 5b 3a 5b 69 e8 39
       0.0006906687 0.0009310424 0.000836646 0.00044328984
000080 5f 87 4a ba 13 ec 64 ba 2e 12 98 b9 ca 43 61 3a
       -0.00077258603 -0.00087326876 -0.00029005244 0.000859317
000090 59 e9 7d ba b0 74 07 3a ed ae 5e ba 96 a0 27 3a
       -0.00096859556 0.0005167229 -0.0008494694 0.00063944736
0000a0 ab cd 7c ba ba a5 70 b9 cf f5 06 3a 51 44 89 ba
       -0.0009643684 -0.00022949922 0.00051483227 -0.001047263
0000b0 54 68 6c 3a 87 81 55 ba ec f4 34 ba 8e 2f 61 b9
       0.00090182316 -0.0008144606 -0.0006902951 -0.00021475388
0000c0 ee 4d 9e b9 85 86 2f 3a 6f f2 72 3a 84 d7 fc 39
       -0.0003019417 0.0006695765 0.0009267693 0.00048225757
0000d0 d2 c4 b9 39 cd e2 49 3a 4e d5 66 ba c2 b8 82 ba
       0.00035432592 0.00077013375 -0.00088055886 -0.0009973275
0000e0 bc 4d 6c ba 5f 9d 3e 3a cf c6 e1 39 a9 21 11 b8
       -0.0009014269 0.0007271375 0.00043063468 -3.4602042e-05
0000f0 ea 3f 1b 3a 23 d9 5a 3a ff 25 10 3a 8a 1f 19 3a
       0.00059223047 0.0008348396 0.0005498826 0.00058411865
000100 36 8a 21 ba 85 ba 47 39 b5 20 33 ba e6 3e 72 3a
       -0.00061622576 0.00019047603 -0.0006833182 0.000924094
000110 2b 70 81 3a 9b d9 61 3a 49 62 2d 39 ef 68 e3 39
       0.0009875348 0.00086154946 0.0001653518 0.00043374996
000120 2c 5b e3 39 98 3d 25 ba 3d a9 18 ba 3a cc 54 b9
       0.00043364742 -0.00063034287 -0.00058235583 -0.00020293976
000130 4c c5 54 ba 6e 6f 98 b9 41 f7 f1 b9 6e 59 68 39
       -0.0008116558 -0.0002907472 -0.0004615132 0.0002215856
000140 4f 79 46 3a 99 60 5f 3a 9b b9 74 3a 4f e4 67 ba
       0.0007571177 0.0008521169 0.00093355187 -0.00088459713
000150 48 3f 51 3a a7 04 81 ba 17 03 43 b9 cb 3e 6f ba
       0.0007982147 -0.0009843305 -0.000185978 -0.00091264833
000160 f7 76 85 ba 4d 10 36 39 b8 9b 82 3a a5 dd 24 39
       -0.0010182549 0.00017362945 0.0009964621 0.00015722828
000170 a9 6b a4 b9 22 2d 66 ba a8 c7 5b 3a 0e 96 c3 b7
       -0.0003136073 -0.0008780529 0.0008383938 -2.3315686e-05
000180 bd 4b 43 39 97 b5 3f b9 1a f5 57 ba b0 93 9d b9
       0.00018624864 -0.00018282827 -0.0008238122 -0.0003005541
000190 81 35 9e b9 88 d5 35 38 7c d8 a7 b9 09 e6 85 3a
       -0.00030175972 4.335263e-05 -0.00032014016 0.001021565
0001a0 1f 91 22 ba a7 44 7c ba d7 e0 48 ba b0 83 56 3a
       -0.00062014343 -0.0009623267 -0.0007662898 0.0008183075
0001b0 9c c7 80 3a 12 e4 81 3a f2 0f 3b 3a e6 61 05 3a
       0.0009825113 0.0009909889 0.000713586 0.00050881354
0001c0 00 39 5a ba 3e 5a df b9 52 d2 cc 38 80 db 8d 39
       -0.00083245337 -0.0004260111 9.766653e-05 0.00027057156
0001d0 75 39 a1 b8 54 73 d6 b9 9c 92 af b8 5f 90 23 3a
       -7.6877805e-05 -0.00040903187 -8.3719584e-05 0.00062394695
0001e0 af 10 94 39 db d4 b5 b9 69 d4 b9 39 83 b9 42 3a
       0.0002824119 -0.000346816 0.00035444208 0.0007428156
0001f0 18 49 6d ba 61 16 11 38 6b 1d 1a 38 c1 88 54 ba
       -0.00090517243 3.4591536e-05 3.674386e-05 -0.0008107536
000200 1d 88 18 39 2c 80 81 39 8b ef 4a 39 ef b2 7c 3a
       0.00014546556 0.00024700293 0.00019353458 0.00096397003
000210 90 65 4c b9 95 27 51 3a 09 91 69 ba 80 6f 1b b8
       -0.00019492791 0.00079786155 -0.00089098566 -3.7058722e-05
000220 19 e2 4d 38 49 38 6d 3a 89 cb 77 3a 14 a1 4b 3a
       4.908638e-05 0.00090492197 0.00094526313 0.0007767838
000230 9a 86 eb b9 a0 8d 5d 3a dc e9 1c ba 1f f9 89 b8
       -0.0004492298 0.0008451585 -0.00059857755 -6.5790715e-05
000240 75 d1 c8 39 b8 67 b9 36 5e 5d 4c b9 6f d0 d8 39
       0.0003830303 5.525504e-06 -0.00019489738 0.00041354026
000250 82 bc 7c ba 19 6f 5f 3a 80 bd 4b 38 2f d2 7e 3a
       -0.0009641127 0.000852333 4.8575457e-05 0.0009720651
000260 a5 be 7e ba 2c 13 7a 3a 43 88 6a 3a da 05 79 ba
       -0.00097177393 0.00095396 0.0008946696 -0.0009499468
000270 8c 7d 26 ba 93 07 82 ba 23 3f 36 3a 71 06 b0 b9
       -0.00063511054 -0.000992047 0.0006952157 -0.00033574135
000280 88 fc 64 ba af 43 59 39 d3 78 83 3a 3c 0a 81 3a
       -0.000873514 0.00020719947 0.0010030515 0.0009844969
000290 f1 44 57 ba f5 80 94 39 9a f2 5a ba 79 3c 5f ba
       -0.0008211872 0.0002832484 -0.00083521905 -0.0008515786
0002a0 b4 63 84 3a ac d5 50 3a 1f 38 3a ba 7e cc 82 ba
       0.0010100515 0.000796641 -0.00071036996 -0.0009979156
0002b0 b3 3d 7a 39 01 9f 33 ba 31 f9 84 ba 55 ad 3e ba
       0.00023864843 -0.00068520015 -0.0010145066 -0.0007273753
0002c0 f5 cd 9a 39 e5 5b 47 39 49 7b f6 b9 9f 6e 87 3a
       0.0002952662 0.00019012352 -0.0004701263 0.001033265
0002d0 72 61 2f ba 18 e8 40 ba f2 b8 05 ba 5b 94 52 3a
       -0.00066902407 -0.00073588034 -0.00051011064 0.0008032971
0002e0 86 1e 2b ba e1 48 8c b8 e1 30 67 ba 2e 79 89 ba
       -0.00065276807 -6.689295e-05 -0.0008819234 -0.0010488385
0002f0 d4 ae e0 39 d7 67 8a ba 4a 7c 15 3a 26 c3 2b ba
       0.00042854866 -0.0010559511 0.00057024194 -0.00065522117
000300 aa 1d 92 39 90 e1 25 ba 93 b4 de 39 08 67 63 ba
       0.00027869391 -0.0006327862 0.00042477678 -0.00086747156
000310 bc 85 7c ba 1e 86 d6 39 a0 4c 70 ba b1 11 df b8
       -0.0009632965 0.00040917186 -0.00091666915 -0.00010636764
000320 09 9c b7 b9 ce 97 b9 38 44 8f 7f 37 92 19 76 3a
       -0.00035020735 8.849763e-05 1.5232541e-05 0.00093879655
000330 94 4e 77 ba c5 6d af b9 73 f4 c0 39 c0 0e 77 ba
       -0.00094340113 -0.00033460386 0.00036803223 -0.00094245
000340 23 75 1d 3a 4c 63 74 ba d6 24 f9 b9 d0 3e 8a ba
       0.00060065294 -0.0009322658 -0.00047520426 -0.0010547284
000350 81 e4 72 b9 2d 43 3f 3a 9e b3 3a 3a 18 65 fa b9
       -0.00023164043 0.0007296082 0.0007122102 -0.00047759037
000360 b5 e4 23 ba e4 c3 5c 3a b0 36 09 3a 85 4a 04 38
       -0.00062520365 0.0008421524 0.00052342843 3.1540654e-05
000370 7a bc ec 39 47 11 11 ba 6e 35 69 3a 53 8d b2 b9
       0.00045153854 -0.00055338856 0.0008896206 -0.000340561
000380 8f 90 30 3a b5 44 1a ba 57 df 61 3a 91 76 74 3a
       0.0006735408 -0.0005884872 0.0008616349 0.0009325529
000390 7d 46 59 ba 5b 33 87 ba 62 a0 74 b9 ed 1f 73 3a
       -0.00082883966 -0.0010314988 -0.000233294 0.00092744717
0003a0 2b 26 af b9 30 ed 73 ba d8 a1 07 ba f4 7f 04 3a
       -0.00033407038 -0.0009305058 -0.0005173958 0.0005054467
0003b0 81 1b 78 39 c3 1f 1b b8 cd 74 82 3a 9c 08 28 3a
       0.00023661369 -3.698446e-05 0.0009953022 0.00064099743
0003c0 ba 9e 54 ba 8f 13 79 3a 39 5b 45 ba f3 37 80 ba
       -0.00081108103 0.00095015106 -0.0007528547 -0.0009782299
0003d0 a4 28 02 ba df ce 4d ba 47 ad 27 39 5e 4b 72 b9
       -0.00049651624 -0.00078509556 0.00015990912 -0.00023106995
0003e0 5c 1f c4 39 e7 45 75 ba 13 e6 29 3a f3 ff 06 ba
       0.00037407398 -0.00093564246 0.0006481122 -0.0005149834
0003f0 42 c1 74 3a bb 18 64 ba d0 3d 33 b9 68 a6 11 3a
       0.0009336659 -0.0008701195 -0.00017093797 0.00055561075

running_mean f4 [256]
000000 87 ae a5 3d e5 50 84 3e 7c f3 3f 3e d3 9e 0e 3e
       0.08089929 0.25842968 0.18745226 0.13927774
000010 ef 23 10 3e 5e c5 18 3e 4b 72 0c 3e 71 8c a1 3e
       0.14076208 0.1491904 0.13715474 0.3155246
000020 bb 61 53 3e 4a 0c d6 3d 8f 86 16 3e 82 a2 1c 3e
       0.2064275 0.10451563 0.14699768 0.15296367
000030 f0 4b 51 3e 89 23 9e 3e 3c 83 44 3e ef ce 13 3e
       0.20439124 0.30886486 0.19190687 0.14434408
000040 4e f5 ce 3d a9 67 ac 3d 8c 24 3b 3c da d0 09 3e
       0.10105382 0.08418209 0.011422288 0.13458577
000050 1d 80 3d 3e 6e cb 7e 3d f4 7f a1 3e 55 5a a8 3d
       0.18505903 0.062205724 0.31542933 0.082203545
000060 c6 96 65 3d a2 49 97 3e 1a e6 08 3e 1c 86 68 3e
       0.056051992 0.29548365 0.13369027 0.22707409
000070 33 65 74 3e 7e b1 d6 3d 42 59 be 3d 2d 8d 80 3e
       0.2386673 0.10483073 0.09294368 0.2510771
000080 c2 7f 82 3e 21 3d 37 3e 19 fb 63 3e 53 d9 74 3e
       0.25488096 0.17894413 0.22263755 0.23911028
000090 4c b7 86 3e ec c8 43 3e a4 b0 85 3e 8c c1 d8 3d
       0.2631172 0.19119614 0.2611133 0.10583791
0000a0 4c 85 c4 3c 2b 26 d8 3d 9c 67 72 3e 0d a7 4b 3e
       0.023989342 0.10554155 0.23672336 0.19887944
0000b0 3c 2d bb 3d e5 06 88 3e a4 f4 7d 3e c4 db 47 3e
       0.09139487 0.2656776 0.24800354 0.19517428
0000c0 19 da a1 3e d9 16 bd 3d 18 9e 91 3e 07 38 b9 3e
       0.31611708 0.092328735 0.28440928 0.36175558
0000d0 30 4d 87 3e ac 91 4b 3d a1 cc 94 3d 93 45 43 3e
       0.26426077 0.04969947 0.07265592 0.19069509
0000e0 5e 61 92 3e e7 f2 81 3e 67 dd 2e 3e f8 11 cf 3d
       0.2858991 0.25380632 0.17076646 0.10110849
0000f0 ff 4f 42 3e 3a db 43 3e 3f f0 1b 3d 97 71 1d 3e
       0.18975829 0.19126597 0.038070913 0.15375362
000100 fc 41 68 3d da 3b b1 3e 32 6b 91 3d a0 1a a6 3e
       0.056703553 0.34615976 0.07100524 0.32442188
000110 6a 93 84 3e f7 e3 0b 3e 56 86 80 3e f6 b7 bb 3d
       0.25893718 0.1366118 0.2510249 0.09165947
000120 b9 6e 57 3e 2b 4d ce 3e 58 09 e8 3d 39 11 b8 3d
       0.21038331 0.4029325 0.11329907 0.0898766
000130 6a 00 af 3e 9f e3 99 3d d9 c9 0b 3e 50 3f 77 3e
       0.34180003 0.075141184 0.13651218 0.24145246
000140 0c 51 b4 3d 20 83 ae 3d bc 21 66 3e 56 af f5 3d
       0.08804521 0.08521104 0.22473806 0.11996333
000150 20 06 50 3e 11 6c 88 3e 5f e9 7c 3d 75 dd 36 3d
       0.20314837 0.26644948 0.061745998 0.04464479
000160 d7 8a 7f 3e a8 d1 49 3d ac bb f6 3d 8e 2a d3 3d
       0.24955307 0.04927221 0.12047514 0.10310851
000170 a5 7e 0a 3e 27 fc 84 3d 0c d9 da 3d 00 ae c9 3d
       0.13524874 0.06493407 0.1068593 0.09847641
000180 6c 2b d3 3d a1 6e 92 3d 95 99 e3 3d 88 6b b5 3d
       0.103110164 0.07150007 0.11113278 0.088584006
000190 de 42 1a 3d b0 79 5f 3d 4c 33 cb 3d 9c 18 0d 3d
       0.037661426 0.05455941 0.099218935 0.034447297
0001a0 27 55 96 3d c7 a8 c8 3d 8b 39 39 3e 12 a2 8f 3e
       0.0734046 0.09797817 0.18088357 0.28053337
0001b0 8c 7f 03 3e b5 e3 a4 3d 75 8b 01 3e 83 ab 53 3e
       0.12841624 0.08051244 0.12650855 0.20670895
0001c0 19 2c 15 3e 0e f4 f5 3d 90 d1 f1 3d e0 d0 5a 3e
       0.14567603 0.1200944 0.11807549 0.21368742
0001d0 bc 2f 93 3e a0 48 83 3d b7 46 82 3e 90 32 02 3e
       0.28747356 0.064103365 0.25444576 0.127146
0001e0 96 e0 b9 3e 76 a2 77 3d 9f 9e b4 3d 5f 9b 32 3e
       0.36304158 0.06045767 0.08819317 0.17442082
0001f0 1d 0e 7a 3d 9f 91 7b 3e 74 5d d7 3d de 64 fe 3d
       0.061048616 0.24567269 0.10515872 0.12421583
000200 11 4a 29 3e f5 c8 69 3e b9 c3 88 3e 7b 57 85 3e
       0.1653216 0.22830565 0.26711825 0.26043305
000210 af 96 03 3e 57 34 03 3e ad 4c 92 3e 58 fd ec 3d
       0.1285045 0.12812935 0.28574124 0.11571759
000220 0d c3 ae 3e 8f dd 1a 3e 64 7c 15 3e c9 fb 2c 3d
       0.34133187 0.1512358 0.14598233 0.04223231
000230 c9 39 81 3e be 7b 0f 3e 0e bf fa 3b c2 49 47 3e
       0.252394 0.14012048 0.00765217 0.1946173
000240 25 fb c9 3d 40 1b 67 3e 77 e6 98 3e 21 b2 8f 3d
       0.09862355 0.22568989 0.2986333 0.07016397
000250 b4 a8 21 3e 99 6d 02 3e 9d e6 79 3e 61 8e 62 3d
       0.15787011 0.1273712 0.24404378 0.055311564
000260 52 80 12 3e 14 05 95 3e fd 2b 99 3e 11 4b 29 3e
       0.14306763 0.29105437 0.29916373 0.16532542
000270 fa 61 50 3e 4e 87 69 3e 07 b2 19 3e 29 df 22 3e
       0.20349875 0.22805521 0.15009318 0.15905441
000280 14 c2 0b 3e f4 5e aa 3e 20 76 c6 3e 4c d8 a5 3d
       0.13648254 0.33275568 0.38761997 0.08097896
000290 ac 0e 2a 3e e8 9e 63 3e 10 6d 62 3e ce e6 7f 3d
       0.1660716 0.22228587 0.22111917 0.062475972
0002a0 01 7f 86 3e 62 03 4d 3d 39 ca 87 3e 41 30 7c 3e
       0.2626877 0.050052054 0.2652147 0.24627782
0002b0 f6 31 85 3d d9 f3 76 3e 30 6c 45 3e 39 ef 77 3e
       0.0650367 0.24116458 0.19279552 0.2421235
0002c0 fd ed 9a 3e 56 c4 b7 3e fb 39 95 3e 7b 7e 8d 3e
       0.30259696 0.3589198 0.29145798 0.2763556
0002d0 a9 45 3a 3e 7b 77 5a 3d 81 ca ea 3d 73 3b 3b 3e
       0.18190636 0.0533366 0.11464406 0.18284397
0002e0 c5 a2 53 3e fe ae 72 3e b6 b4 fa 3d 07 d9 98 3e
       0.2066756 0.23699567 0.12241499 0.2985308
0002f0 c6 77 dc 3d 54 fd a5 3e fd ee 90 3e dd eb 84 3e
       0.107650325 0.32419837 0.28307334 0.259612
000300 58 e4 e0 3e 1a 7f b7 3e 54 68 81 3e ab d6 d0 3d
       0.43924212 0.35839158 0.2527491 0.10197195
000310 22 1e 7d 3e 1c 4a 12 3e 0a ad 4d 3e 53 17 34 3e
       0.24718526 0.14286083 0.2008554 0.17587022
000320 40 82 65 3e 6a 8b b0 3e 74 61 57 3d 94 ae 9a 3e
       0.22412968 0.34481364 0.052583173 0.30211318
000330 3b 78 97 3d 59 81 cd 3d 8a e7 01 3e b3 d3 5a 3e
       0.07395979 0.10034437 0.12685981 0.2136982
000340 8d ff a3 3d 45 47 81 3d 83 52 2c 3d 5a e6 6d 3e
       0.08007727 0.06312422 0.042070877 0.23232403
000350 d9 99 46 3e ce ef fb 3d 1b 40 80 3e 36 f3 0b 3e
       0.19394626 0.123015985 0.2504891 0.13666996
000360 71 5c fe 3d d1 0c 85 3e 83 ef 04 3e 28 63 0b 3e
       0.124199755 0.2598634 0.12981991 0.13612044
000370 81 a4 5a 3d 11 43 a2 3d 57 1c 2e 3e e6 a6 e7 3d
       0.05337954 0.07922948 0.17002998 0.1131113
000380 23 db 30 3e f9 c3 24 3e a7 ae 5a 3e 4a b6 84 3e
       0.17271094 0.16090383 0.21355687 0.25920326
000390 6e da 3d 3e ad 6b c1 3d 34 9c c8 3d 8d 32 d7 3d
       0.18540356 0.09444366 0.097954184 0.10507689
0003a0 28 90 db 3d 30 24 0b 3e 48 9f 27 3e 60 8f af 3d
       0.10720855 0.13588023 0.16369355 0.085722685
0003b0 31 cb 95 3e 2b 00 63 3e 0a c0 94 3e f5 51 19 3e
       0.29256585 0.22168033 0.29052764 0.1497267
0003c0 a0 3d 7b 3e 05 d0 e3 3e 52 f3 5d 3e 3d fb e1 3c
       0.24535227 0.44494644 0.2167485 0.02758562
0003d0 45 89 67 3d 56 20 8e 3c c8 b4 76 3e e7 a0 ff 3d
       0.056527395 0.017349403 0.240924 0.124818616
0003e0 70 d3 85 3e 63 f9 0d 3e 88 2b cd 3d d3 f3 fc 3c
       0.26137877 0.13864665 0.100180686 0.030877983
0003f0 6f 04 32 3e 5d 30 11 3e 45 8b d9 3d b4 ce 7b 3d
       0.17384504 0.14178605 0.10622267 0.061476424

running_var f4 [256]
000000 ba a1 72 3e 7e 74 7a 3e 19 e2 79 3e d4 3f 72 3e
       0.23694506 0.244585 0.24402656 0.23657161
000010 6d fa 85 3e e1 1d 7f 3e 11 55 7e 3e 48 58 b4 3e
       0.26167622 0.24913742 0.24837138 0.35223603
000020 b7 28 8f 3e 88 15 70 3e 9d 8f 9f 3e e3 dc 71 3e
       0.2796075 0.23445714 0.31164256 0.23619418
000030 96 aa a5 3e a6 15 94 3e c7 26 87 3e 41 68 88 3e
       0.3235671 0.28922766 0.26396772 0.2664204
000040 a7 1b 7c 3e 1a d3 8e 3e 55 9c 54 3e 5a 79 72 3e
       0.24619924 0.27895433 0.20762761 0.23679104
000050 55 68 9b 3e cf af 63 3e 0a 06 fa 3e 47 44 70 3e
       0.30353037 0.22235034 0.48832732 0.23463546
000060 a5 98 67 3e c5 d6 fb 3e b5 99 7a 3e 65 5d a6 3e
       0.22616823 0.49187294 0.24472697 0.3249313
000070 b3 ab a0 3e 41 02 82 3e 35 4d 8d 3e d6 bc 92 3e
       0.31380996 0.25392345 0.27597967 0.28659695
000080 5f 24 a6 3e 97 10 87 3e a5 fb 9b 3e 4a 12 a6 3e
       0.32449624 0.26379845 0.30465427 0.32435828
000090 e0 ff 83 3e ce 46 7d 3e a6 74 8d 3e 07 45 77 3e
       0.25781155 0.24734041 0.27628058 0.24147426
0000a0 a4 83 5c 3e 55 61 80 3e 7b ea 8b 3e 5a 27 7e 3e
       0.21534592 0.25074258 0.27327332 0.24819699
0000b0 5b e4 7a 3e ee 78 a6 3e f7 19 b1 3e 45 f9 9d 3e
       0.24501173 0.32514137 0.34590122 0.3085424
0000c0 07 6b 1c 3f 4e 17 6c 3e 4a 3f 82 3e 92 da 10 3f
       0.6110081 0.23055765 0.2543891 0.5658351
0000d0 09 2a 95 3e e8 f8 5f 3e b1 86 71 3e bb ec b7 3e
       0.29133633 0.21872294 0.23586537 0.359228
0000e0 4b 5c b7 3e ca e2 ab 3e fc bd 70 3e eb 8c 8a 3e
       0.358126 0.33571464 0.23509973 0.27060637
0000f0 6f 01 b3 3e e2 9d 9f 3e 86 18 66 3e 25 f2 81 3e
       0.3496203 0.31175143 0.22470292 0.25380054
000100 a0 c4 68 3e 6a 5f a9 3e d8 ab 60 3e f6 ec dd 3e
       0.22731256 0.33080608 0.21940553 0.4334485
000110 1e 56 9b 3e b7 7c 91 3e 13 e0 90 3e a7 57 82 3e
       0.3033914 0.28415462 0.28295955 0.25457498
000120 03 bd 8f 3e 4f f1 cc 3e 85 21 80 3e 26 68 6f 3e
       0.28073892 0.40027854 0.25025573 0.23379573
000130 77 44 d1 3e da 61 65 3e 18 83 8a 3e fe 0d 95 3e
       0.40872547 0.22400609 0.27053142 0.29112238
000140 41 6e 68 3e c7 32 74 3e b7 09 91 3e 72 68 7d 3e
       0.22698309 0.23847495 0.28327724 0.24746874
000150 e8 a9 cd 3e b1 95 f6 3e c3 9e 79 3e 2b 82 67 3e
       0.4016869 0.4816108 0.24376969 0.22608249
000160 e2 1b 95 3e 8b 5f 5a 3e 88 a8 83 3e 49 a7 6d 3e
       0.29122835 0.21325509 0.25714517 0.23208345
000170 fb 9e 78 3e a0 0b 67 3e fb a6 9a 3e 56 ef 78 3e
       0.24279396 0.22563028 0.3020552 0.2431005
000180 59 11 86 3e 42 37 82 3e 13 71 72 3e 14 9b 6d 3e
       0.2618511 0.25432783 0.23675947 0.23203689
000190 52 b0 59 3e 3f be 60 3e b6 9d 7b 3e 35 85 5b 3e
       0.21258667 0.21947573 0.2457188 0.21437533
0001a0 3a 0d 83 3e 02 a2 73 3e fe 8e b3 3e 14 6b a2 3e
       0.2559603 0.2379227 0.35070032 0.3172232
0001b0 f0 74 90 3e 59 9a 66 3e ca e3 85 3e a9 63 6c 3e
       0.28214216 0.22519816 0.26150352 0.23084892
0001c0 16 b0 99 3e 9f 09 a0 3e cc 23 85 3e 2b 49 ba 3e
       0.30017155 0.3125734 0.26003873 0.36383948
0001d0 49 07 cb 3e c4 b9 7a 3e 43 06 aa 3e 4f d4 ad 3e
       0.39653996 0.24484926 0.33207902 0.3395104
0001e0 88 c7 fb 3e fb 68 6d 3e fe 7d 80 3e 23 46 81 3e
       0.49175668 0.23184578 0.25096124 0.25248823
0001f0 d4 98 63 3e 9d c1 8d 3e 19 96 83 3e 99 4b 87 3e
       0.22226268 0.27686778 0.25700453 0.26424864
000200 24 2e b0 3e 25 ca a8 3e 50 1b 93 3e fd 0c 83 3e
       0.34410203 0.32966724 0.28731775 0.25595847
000210 b3 31 8c 3e 33 b7 a7 3e 85 2f 94 3e 4d d9 7d 3e
       0.27381667 0.32756957 0.28942505 0.24789925
000220 35 60 01 3f 25 a0 b8 3e 7b 33 96 3e 88 fd 63 3e
       0.50537425 0.3605968 0.2933615 0.22264683
000230 63 8f 86 3e 8e 3c 8d 3e 0e 89 54 3e 03 1e 95 3e
       0.2628127 0.27585262 0.20755407 0.2912446
000240 9b a0 a8 3e 58 1c 9c 3e c1 ed fc 3e 43 8d 6e 3e
       0.32935032 0.30490375 0.49400142 0.23296075
000250 2d 82 93 3e 70 db 95 3e c5 48 b4 3e 97 1d 6f 3e
       0.28810254 0.2926898 0.3521177 0.23351131
000260 fc 40 70 3e 33 86 86 3e bf fe a8 3e 2e a6 74 3e
       0.2346229 0.2627426 0.33006856 0.23891518
000270 a4 e2 87 3e 52 32 82 3e c6 89 86 3e e1 d1 85 3e
       0.265401 0.25429016 0.26276988 0.26136687
000280 3b d2 92 3e 2f 62 cc 3e 87 6a eb 3e 5b 8f 69 3e
       0.28676018 0.39918658 0.4597971 0.22808592
000290 6c 36 89 3e 8f 5d b7 3e ba 8c 9f 3e 70 c7 70 3e
       0.26799333 0.35813567 0.31162053 0.2351358
0002a0 50 1d 9c 3e cd a0 5d 3e d4 85 be 3e 0d 9d 97 3e
       0.30491114 0.21643372 0.37211478 0.29612008
0002b0 00 e7 79 3e e2 a3 a2 3e 0f 3d 87 3e c9 a0 f4 3e
       0.24404526 0.31765658 0.26413772 0.4777892
0002c0 2b 3e be 3e e6 6e b6 3e d8 d0 b0 3e 9e c3 c4 3e
       0.37156805 0.35631484 0.34534335 0.38430494
0002d0 be ff 8e 3e 54 db 60 3e 1a b9 84 3e b9 70 83 3e
       0.2792949 0.21958667 0.2592247 0.25671938
0002e0 a2 8b d4 3e b1 99 93 3e 89 4f 99 3e 44 29 bb 3e
       0.4151278 0.28828195 0.29943493 0.3655492
0002f0 98 47 77 3e 59 96 b4 3e 4b e9 92 3e f1 ee 07 3f
       0.24148405 0.35270956 0.28693613 0.5309897
000300 70 06 1c 3f 43 6d 0f 3f 65 f6 a8 3e 84 ef 95 3e
       0.6094732 0.56026095 0.33000484 0.29284298
000310 54 05 8f 3e ba 0c 70 3e 93 99 7d 3e db c8 b4 3e
       0.27933753 0.23442355 0.24765615 0.3530949
000320 cd 67 8a 3e ae 63 c1 3e 3d cf 65 3e 80 06 c4 3e
       0.2703232 0.37771362 0.22442336 0.3828621
000330 3a 3d 70 3e d7 1d a9 3e 08 60 97 3e 47 c5 a4 3e
       0.23460856 0.33030578 0.29565454 0.3218176
000340 0a a7 89 3e 25 08 64 3e eb 91 5b 3e 79 f9 94 3e
       0.26885253 0.22268732 0.21442382 0.29096583
000350 99 c3 cd 3e 32 85 79 3e 9a 87 ad 3e dd 3f 83 3e
       0.40188292 0.24367216 0.33892518 0.2563466
000360 ae 0d 82 3e 5e 59 9e 3e 26 e9 a3 3e 29 b7 a4 3e
       0.25401062 0.30927557 0.32013816 0.3217099
000370 03 21 5d 3e 01 9d 6c 3e 7c c3 82 3e a1 4f 88 3e
       0.21594624 0.23106767 0.25539768 0.26623252
000380 6e 61 8c 3e 12 02 a6 3e 76 df c6 3e 47 59 8e 3e
       0.27418083 0.32423455 0.38842362 0.27802488
000390 3e f4 ac 3e fb 96 6c 3e d4 b1 80 3e 8f 74 74 3e
       0.33780092 0.2310447 0.25135672 0.23872589
0003a0 c7 07 74 3e a7 06 82 3e 93 1a 74 3e c1 30 6e 3e
       0.23831092 0.253957 0.23838262 0.23260786
0003b0 e4 14 8b 3e fe db 88 3e bf 6d af 3e ac f3 b9 3e
       0.27164376 0.2673034 0.34263417 0.3631872
0003c0 65 3f 8e 3e ac 1b 29 3f 50 35 69 3e c0 20 59 3e
       0.2778274 0.6605785 0.22774243 0.212039
0003d0 c4 6c 70 3e ef 56 5f 3e 54 30 a6 3e 05 b3 82 3e
       0.23478991 0.21810506 0.32458746 0.25527206
0003e0 dc da 8e 3e 38 2a 94 3e 90 13 75 3e 72 ca 5c 3e
       0.2790135 0.2893846 0.23933244 0.21561602
0003f0 15 a3 bf 3e ca 74 81 3e 1d b7 72 3e ed b7 5f 3e
       0.3742911 0.25284415 0.23702665 0.21847506

weight f4 [256, 256]
000000 35 7c 37 3d 64 d0 05 bd 34 3b e0 bc e3 be 40 3d
       0.044796187 -0.03266944 -0.02737198 0.047057044
000010 d2 e9 c9 3c 43 dc 0d bd c8 46 97 3c 3a a9 fd 3c
       0.024647627 -0.034633886 0.018466368 0.030964483
000020 2c 7c 67 bd 3e f7 35 3c d7 dc 71 3c 3b b8 37 bb
       -0.056514904 0.01110631 0.014762125 -0.0028033394
000030 20 38 75 3d 2e 9f 25 bd 58 e8 06 3d b3 36 07 bd
       0.059867978 -0.04043501 0.032936424 -0.03301115
000040 a0 96 59 bd 5a c5 2c 3d ea 35 ef bc 1f 4b fa 3a
       -0.053122163 0.042180397 -0.029200513 0.0019095874
000050 ab 9e 02 3d c7 d2 51 bd f7 d5 56 bd da ac b5 3c
       0.0318896 -0.051226404 -0.052450147 0.022177149
000060 98 f6 5c 3d 83 30 c7 bb 13 87 30 3d 52 e7 ae 3c
       0.053946108 -0.006078781 0.043097567 0.021350536
000070 81 4f 90 3c 63 6d 20 bd 9b e8 77 3d ca 16 ef 3c
       0.017616035 -0.03916682 0.060524564 0.029185671
000080 6b 50 0f 3c e3 5b 37 3d 4b 36 58 bd 65 30 60 3c
       0.0087472005 0.044765364 -0.052786153 0.013683413
000090 de 9b ec bc 60 87 b0 bb 37 a8 9f 3c 78 8d db 3c
       -0.028882917 -0.0053872317 0.01948939 0.026800856
0000a0 9e a8 7a 3c 43 3d 49 bd d0 1f 1e bd e9 a6 ff 3a
       0.0152989905 -0.04913069 -0.038604558 0.0019504699
0000b0 6b 90 30 bc ea dd 56 bd 53 54 79 3d 77 38 f5 3b
       -0.010776619 -0.052457727 0.060871433 0.007483538
0000c0 5b 41 33 bd 43 85 e8 3c 1d f3 d6 3c 2a 29 fd bc
       -0.0437635 0.028383857 0.026238972 -0.030903418
0000d0 0b 7e 02 3d 48 b2 20 bd e0 4d b1 3c bd 84 74 3d
       0.031858485 -0.039232522 0.021643579 0.0596969
0000e0 31 a6 2c 3d bf 69 fa 3c 74 d2 5e bc 66 ab 4e 3c
       0.04215068 0.030568002 -0.013599981 0.012614107
0000f0 67 82 ba 3c bb 49 80 3c a8 35 3f bc 40 17 00 3c
       0.022767259 0.015660157 -0.0116705075 0.007818043
000100 3e 94 d7 bc c3 e3 14 bd 80 aa 68 bd 3b eb 4e bd
       -0.026315805 -0.036350023 -0.056803226 -0.050517302
000110 9c b0 1c bd da 20 78 3d b2 5b 4e 3c 70 c9 6a bd
       -0.038254365 0.060578205 0.012595104 -0.057321012
000120 cd 5a ff bc c4 2d 66 3c 97 a1 99 bc ea b2 8c bc
       -0.031171227 0.014048997 -0.01875381 -0.017175157
000130 bf 54 c1 bc e3 68 69 bc 74 66 de 3b 6f 37 89 3b
       -0.02359998 -0.014246198 0.0067871157 0.0041875164
000140 cd dc 27 3d ba 5c 25 3d 71 5c 56 3d a0 00 7f ba
       0.040982056 0.040371634 0.052334253 -0.0009727571
000150 28 07 de bc 54 98 ee 39 83 a1 2d bd 8e dc d1 3c
       -0.027103022 0.0004550839 -0.042390358 0.025617864
000160 1b 28 dd bb d6 71 a5 bc 4e 3b 56 bd 43 3a ff 3c
       -0.0067491657 -0.020195883 -0.05230265 0.031155711
000170 de 71 12 3d 2c 4a 69 3d c4 16 b1 bc a7 e9 92 3c
       0.035753123 0.0569555 -0.0216173 0.01793368
000180 1f c0 5b 3b bc c6 22 bd 67 f2 23 bd 0e e4 05 3d
       0.003353126 -0.03974031 -0.040026095 0.032688193
000190 da a3 12 bd 54 d0 39 3d 27 fb ba 3c b2 e4 a9 3c
       -0.035800792 0.045364693 0.022824837 0.020738933
0001a0 55 d9 2c 3d 90 0a fc 3c 2f 1e e1 3c 7b 03 09 3d
       0.04219945 0.030766755 0.027480213 0.033450585
0001b0 80 3f d1 bc 63 9b 04 bd e8 bc 2b bc 30 f3 0a 3d
       -0.025542974 -0.03237475 -0.0104820505 0.033923328
0001c0 12 87 33 3d cd c5 40 3d 75 59 a3 bc 53 71 e4 bb
       0.043829985 0.047063638 -0.019940117 -0.006971517
0001d0 25 00 2c bd 16 ed 1d 3d 41 f5 25 bd ed 34 cd bc
       -0.041992325 0.03855618 -0.040517095 -0.025049651
0001e0 dc 06 54 3d 26 ec 6a 3c a6 e0 ce bc ec 2e 2d bd
       0.051764354 0.014338529 -0.025253605 -0.042281076
0001f0 8c 83 31 bd aa 16 4d 3d cf 30 66 bd 4c 82 60 3d
       -0.043338344 0.050070442 -0.05619889 0.05481176
000200 be 6e 4b 3d 00 ca 4b 3b fb f2 ad bb 62 64 4b 3d
       0.04966616 0.0031095743 -0.0053085065 0.04965628
000210 6f 28 ea 3c 6b 3a 6e 3d df 52 4c 3d 2c 90 2a bd
       0.028583733 0.05816118 0.04988372 -0.0416414
000220 12 cd 21 3d a8 da 02 3d be 03 39 bd b8 b2 fb 3c
       0.03950221 0.031946808 -0.045169584 0.030724868
000230 cd 6f 06 bd 6f 13 15 bd 2b 3e 0e 3b 96 e7 dc bb
       -0.032821465 -0.036395486 0.0021704535 -0.0067414744
000240 38 33 81 bc a0 5c 29 bd 12 4d 0d 3d 59 bc 81 3d
       -0.015771493 -0.0413481 0.034497328 0.063347526
000250 3a a5 54 bc 2d de 28 bd 98 bc 4c bb 26 c4 5b bd
       -0.012978846 -0.04122751 -0.003124034 -0.05365386
000260 3a 7d 4f bd ea d9 a2 bc ad 05 25 3d 07 48 47 bd
       -0.050656535 -0.0198793 0.040288616 -0.048652675
000270 6c 36 27 bc c8 aa 00 bd a0 0d 69 bd 32 3e 5b bc
       -0.010205846 -0.03141287 -0.05689776 -0.013381528
000280 bb 7c 2b bb 5c 28 1d bc bd 85 37 3d 68 ff cc 3c
       -0.0026166874 -0.009592142 0.044805277 0.025024131
000290 9e 3e 23 3d 39 d9 cc 3c d2 aa d5 3b 38 dc 0c 3d
       0.03985464 0.025005924 0.0065206075 0.034389704
0002a0 da 9f 24 bd e4 e5 fc 3c a0 6e f0 3c 4c e0 d1 bc
       -0.04019151 0.03087134 0.029349625 -0.025619648
0002b0 fa 1f 98 ba a8 e0 3f bd f8 1c 5c bd ce e4 46 39
       -0.001160621 -0.04684511 -0.053738564 0.00018967988
0002c0 6a 54 45 3c b1 c8 57 bc 6f 5a 9f 3c a6 ed 42 bd
       0.012044052 -0.013170407 0.019452302 -0.04758992
0002d0 fb 8d 10 bd d2 b6 2f 3d 68 23 79 bd 3e 80 2a 3c
       -0.035291653 0.04289896 -0.06082478 0.010406552
0002e0 06 62 48 3d 5e b7 3b 3d 27 62 a8 3c 30 a7 65 bd
       0.048921607 0.04582917 0.020554615 -0.056067646
0002f0 a2 c5 e8 3b 31 3d ac bc f5 3d 95 bc 8e e7 40 3d
       0.007103638 -0.021025272 -0.01821802 0.047095828
000300 b2 46 b2 bc 11 fb 33 bd 02 7e 51 bd fd 12 25 3d
       -0.021762226 -0.043940607 -0.05114556 0.04030131
000310 e8 79 84 3b ce f9 7f 3d ae 62 42 3c 1e 78 6a bd
       0.0040428527 0.06249409 0.011864347 -0.05724346
000320 9d 1d 70 3c b0 5c 6d 3d ff a8 1a 3d 65 df a0 3c
       0.014655498 0.05794972 0.037758823 0.019637773
000330 94 2c 40 bd 75 30 15 bd 23 27 2e 3d bb 85 28 bd
       -0.046917513 -0.036423165 0.042517792 -0.04114316
000340 f9 2b 69 3c 34 c9 00 bc 7f ac b3 3c 0c 77 8a 3b
       0.014231675 -0.007860471 0.021932838 0.0042256173
000350 ad 6c 44 bd 3d 50 c5 bc ff 3d 5b 3d 58 89 ec 3b
       -0.047955204 -0.024086112 0.05352592 0.007218521
000360 28 09 fb 3c 14 82 fe bc 16 b4 4e 3d 40 ef 4f bc
       0.030644014 -0.031067885 0.050464712 -0.012691319
000370 95 a6 ab bc 85 1c 4a 3c 01 b8 b0 bc a6 bd cd bc
       -0.020953456 0.012335901 -0.021572115 -0.025114845
000380 6c 6e 17 bc 12 b0 5f bb 80 61 15 bd 1f 38 ab 3c
       -0.009242635 -0.0034132046 -0.036469936 0.020900784
000390 2a 9f 74 bd e3 3d 1f 3d 9f 5f 71 3d 8d 18 22 3c
       -0.059722103 0.03887738 0.058929082 0.009893549
0003a0 29 95 78 bc 28 34 69 bd 55 34 f3 3c 63 b6 52 3d
       -0.015172281 -0.056934506 0.02968804 0.05144347
0003b0 9e 85 59 3d c6 ab cb 3b 92 ea b1 3c 97 8d 79 3d
       0.053105943 0.0062155453 0.021718297 0.060926046
0003c0 63 c0 1b 3c 12 29 f2 bc 3d 40 77 bd e5 42 e2 3c
       0.009506318 -0.0295606 -0.060363997 0.027619788
0003d0 24 6a cf 3c 44 99 67 3d b7 e7 01 bd 41 fe dc 3c
       0.025319166 0.05654265 -0.03171512 0.026976706
0003e0 12 54 b1 bc 0c 7e 6f bc 4d 4a 15 3d 57 16 69 bd
       -0.021646533 -0.014617454 0.036447812 -0.05690607
0003f0 97 ea 3c 3d ad 46 ed 3c 35 92 14 bd c6 eb fe 3c
       0.04612216 0.028964365 -0.036272246 0.031118285
