models/models_lower_params/SWI/MULTI_SPECIES_MLP/model.pt (torch, 318231 bytes, 10 tensors)

weight f4 [256, 13]
0	0x3e58fec2	0.21190932
1	0x3e6c8f2a	0.23101488
2	0xbd847e40	-0.06469393
3	0x3e82186b	0.25409254
4	0xbd7523bb	-0.05984853
5	0x3d690bc8	0.056896
6	0xbe0adf20	-0.13561678
7	0x3e26a753	0.16274767
8	0x3e7a81d0	0.24463582
9	0xbe4ff932	-0.20309904
10	0x3e7663fb	0.24061577
11	0x3d52cd26	0.051465176
12	0x3e51e59a	0.20497742
13	0x3d1b3038	0.03788778
14	0x3e07e644	0.13271433
15	0xbd245fdc	-0.04013048
16	0x3e5bd629	0.21468414
17	0x3d2666e3	0.040625464
18	0xbe05694d	-0.1302845
19	0x3d91d91e	0.0712149
20	0xbe02f029	-0.12786926
21	0xbd07003e	-0.032959215
22	0xbde5888a	-0.112076834
23	0x3e3bca98	0.18339002
24	0xbe5f6a7b	-0.21817963
25	0xbe029835	-0.12753375
26	0xbda1982f	-0.07890355
27	0xbe2ba2d9	-0.1676134
28	0x3cddef7a	0.02709173
29	0xbe8cb73c	-0.27483547
30	0x3e7faca8	0.24968207
31	0xbe7090d3	-0.23492746
32	0x3e5bf759	0.21481074
33	0x3d3f65e4	0.04672803
34	0xbdb7158d	-0.08939657
35	0x3e2e8cde	0.17045924
36	0x3d3421f2	0.043977685
37	0x3e648ddf	0.22319745
38	0x3cf75b63	0.030194944
39	0xbdb1626b	-0.0866135
40	0x3d98401d	0.07434104
41	0xbd9bc236	-0.07605402
42	0x3df0f2d2	0.11765064
43	0x3e7e869a	0.24856034
44	0x3e237971	0.15964295
45	0xbdf99d0e	-0.12188159
46	0x3e233aa9	0.15940346
47	0x3d479410	0.048725188
48	0x3e0fd01d	0.14044233
49	0xbe2de54f	-0.16982006
50	0xbe8c18e7	-0.2736275
51	0xbddc3486	-0.107522056
52	0xbe5aa97c	-0.21353716
53	0x3e6867fe	0.2269592
54	0x3da5798b	0.08079823
55	0x3de98b98	0.114035785
56	0x3db40481	0.087899216
57	0xbb83489a	-0.0040064575
58	0x3e5e3c84	0.21702772
59	0xbe4ab63a	-0.19796076
60	0x3c8ded00	0.017324924
61	0xbe40d23f	-0.18830203
62	0x3db0d285	0.086339034
63	0xbdc4695d	-0.09590409
64	0x3dae9b09	0.08525664
65	0xbd6cd2a2	-0.057818063
66	0x3e6c7c6b	0.23094337
67	0xbe27658d	-0.16347332
68	0xbe2a0eb8	-0.16607177
69	0xbe2a056a	-0.16603628
70	0x3e802bb8	0.25033355
71	0x3dbf1aff	0.09331321
72	0x3e882cfd	0.26596823
73	0xbe6a1314	-0.2285884
74	0xbe8cccbb	-0.27499947
75	0xbe5d260f	-0.2159655
76	0xbe3ea30c	-0.18616885
77	0x3de69c41	0.11260272
78	0x3dcd37d7	0.10020416
79	0x3e6affed	0.2294919
80	0xbe137e29	-0.14403595
81	0xbe40c221	-0.18824054
82	0x3e1709e0	0.14749861
83	0xbde78ff9	-0.113067575
84	0x3e2ce55a	0.16884366
85	0xbd85bb56	-0.06529872
86	0x3e21a48f	0.1578543
87	0xbe5bfeeb	-0.21483962
88	0xbe0f6627	-0.14003812
89	0x3dae9137	0.08523791
90	0x3d70a0cf	0.05874711
91	0xbd8f1af4	-0.06987563
92	0x3e2a25b0	0.16615939
93	0x3e4081cc	0.18799514
94	0xbe4d0c31	-0.20024182
95	0xbe171b7c	-0.14756578
96	0x3e828b22	0.25496775
97	0xbdbd93a6	-0.09256677
98	0xbdcaf693	-0.099103115
99	0xbe89adae	-0.2689032
100	0xbe21c84c	-0.15799063
101	0x3d8eea0b	0.06978234
102	0xbd122014	-0.035675123
103	0xbe4e80f9	-0.20166387
104	0x3bbb7552	0.005720773
105	0xbe4131a9	-0.188666
106	0xbe71b4dc	-0.23604149
107	0xbe1cf02e	-0.15325996
108	0xbe783e2c	-0.24242467
109	0xbe353a69	-0.17698063
110	0x3e8d8bfe	0.27645868
111	0x3d592e13	0.053022455
112	0x3daf3578	0.0855512
113	0xbe8469f4	-0.25862086
114	0xbe3b20b7	-0.18274198
115	0xbdbe6475	-0.092965044
116	0x3d33bc18	0.043880552
117	0xbe799af6	-0.24375519
118	0xbdf2bc76	-0.11852352
119	0xbe2aafce	-0.16668627
120	0x39e2efd8	0.00043284777
121	0xbdd3d507	-0.10343366
122	0xbc9da479	-0.019243466
123	0xbe3facc0	-0.18718243
124	0xbe4223ce	-0.18958971
125	0xbe254be3	-0.1614223
126	0xbdc2ca24	-0.095112115
127	0xbe610f35	-0.21978457
128	0x3e6dbf83	0.23217587
129	0xbd5f0dfa	-0.05445669
130	0x3e744c28	0.23857176
131	0x3db015a0	0.08597875
132	0xbe70bfdd	-0.2351069
133	0x3e44ea23	0.19229941
134	0xbd9a8bce	-0.07546197
135	0xbdd9fbf6	-0.10643761
136	0xbe6cab64	-0.23112255
137	0xbe8d6e77	-0.2762334
138	0x3da1181b	0.07865926
139	0xbd7630c4	-0.0601051
140	0x3ddb4e80	0.10708332
141	0xbe687ae1	-0.22703125
142	0x3e534626	0.20632228
143	0xbe4f73c3	-0.20259003
144	0xbd41d5be	-0.04732298
145	0x3d6a4afd	0.05720042
146	0x3e13a1f2	0.14417246
147	0x3e661f26	0.2247282
148	0x3e80e118	0.25171733
149	0xbe621edb	-0.22082083
150	0x3d8e19a1	0.06938482
151	0xbdf627fa	-0.12019344
152	0xbcf1a13f	-0.029495833
153	0xbe559cfb	-0.20860665
154	0x3e81cd30	0.25351858
155	0xbe4fdc9b	-0.20298998
156	0x3e17f50d	0.14839573
157	0x3dc902eb	0.0981501
158	0x3db7dfc7	0.08978229
159	0xbe18dc33	-0.1492775
160	0x3e816c6f	0.2527804
161	0x3d766d18	0.060162634
162	0x3d119e14	0.035551146
163	0xbe79d9be	-0.24399468
164	0x3decd229	0.11563522
165	0xbd285225	-0.041093964
166	0xbe02583f	-0.12728976
167	0x3e746007	0.23864757
168	0x3d7d9f3e	0.061919443
169	0xbe1c2c55	-0.15251286
170	0xbe0ed304	-0.13947684
171	0xbc68b2ba	-0.014202768
172	0x3e1f5716	0.15560564
173	0xbd8feb47	-0.070272975
174	0xbe21fb32	-0.1581848
175	0xbdc325e2	-0.0952871
176	0xbe54b0ec	-0.20770615
177	0x3dcb67cc	0.09931907
178	0x3e5cd330	0.21564937
179	0xbe86203c	-0.26196468
180	0x3d854a59	0.06508321
181	0x3e1252f4	0.14289457
182	0x3d4fa0e5	0.05069055
183	0xbdc86a92	-0.09785952
184	0x3e141af1	0.14463402
185	0x3e15bf4b	0.14623754
186	0x3dd2bc12	0.10289778
187	0xbd499a30	-0.04921931
188	0xbd947cee	-0.07250391
189	0x3cf10468	0.029421046
190	0xbd450a55	-0.048105557
191	0xbda8f8ff	-0.08250617
192	0x3e35d9af	0.17758821
193	0x3e74b406	0.23896798
194	0xbce4498d	-0.027867103
195	0xbd80fc44	-0.06298116
196	0x3b66b7a9	0.0035204685
197	0xbc814295	-0.01577882
198	0x3d87a26b	0.06622776
199	0x3da0550d	0.07828722
200	0xbe8158c1	-0.25263026
201	0xbdd36d4d	-0.10323582
202	0x3e6e91e2	0.23297837
203	0x3ddb6cea	0.10714133
204	0xbc5d99a0	-0.013525397
205	0xbe2a7cd1	-0.16649176
206	0xbe2e61da	-0.17029515
207	0xbe7d85e9	-0.24758114
208	0xbdb758aa	-0.08952458
209	0x3dc1bd42	0.09459926
210	0x3e344a33	0.1760643
211	0x3e03d255	0.12873204
212	0xbe7b5f2b	-0.24548022
213	0xbe2af7f4	-0.16696149
214	0xbd3097c1	-0.043113474
215	0x3e893fe1	0.26806548
216	0x3d275f6d	0.04086249
217	0xbd91c407	-0.071174674
218	0x3decb60f	0.115581624
219	0xbdd72041	-0.10504199
220	0xbe384d32	-0.17998198
221	0x3e4e5e40	0.20153141
222	0xbe00cc32	-0.12577894
223	0xbd618322	-0.0550567
224	0xbe8dbe5f	-0.27684304
225	0x3e3d9caa	0.18516794
226	0x3e5838b7	0.21115385
227	0x3dcdfd34	0.1005806
228	0xbe451453	-0.19246034
229	0xbe8bd536	-0.27311105
230	0xbe6728fb	-0.22574227
231	0x3e5487dd	0.20754953
232	0x3e078135	0.13232882
233	0x3e6f6302	0.23377612
234	0x3e15cd54	0.14629108
235	0x3d8eefb3	0.06979313
236	0xbb55e98f	-0.0032640432
237	0xbe56f2ec	-0.20991105
238	0xbe72985c	-0.23690933
239	0xbe855495	-0.26041093
240	0x3dea42b7	0.11438506
241	0xbe0c7999	-0.13718261
242	0xbd657764	-0.056022063
243	0xbe22c0d3	-0.15893869
244	0xbd4ba535	-0.0497181
245	0xbe46db7d	-0.19419666
246	0xbe3936b2	-0.18087271
247	0x3dbbcaba	0.091695264
248	0xbdaa818e	-0.08325492
249	0x3e2f054c	0.17091864
250	0xbdb489bb	-0.088153325
251	0xbe504941	-0.20340444
252	0xbd48db42	-0.049037226
253	0xbe08b8e9	-0.13351788
254	0xbdae6146	-0.08514647
255	0xbe875c8f	-0.26437804

bias f4 [256]
0	0x3e8bd1e5	0.27308574
1	0xbe81c6bc	-0.25346935
2	0x3e840341	0.25783733
3	0xbe5ec417	-0.2175449
4	0xbd87e57c	-0.066355675
5	0xbde6c50b	-0.11268052
6	0xbe188a08	-0.14896405
7	0x3dcad8e3	0.09904649
8	0x3e2427e6	0.16030845
9	0xbe3b7867	-0.18307649
10	0xbe04514e	-0.1292164
11	0x3e10f006	0.14154062
12	0xbd0b1787	-0.033957984
13	0x3d8b43e8	0.068000615
14	0x3e1475a9	0.14498009
15	0xbdd0056e	-0.10157286
16	0xbe1d0493	-0.15333776
17	0x3dcf611d	0.10125945
18	0xbdce4fc3	-0.10073807
19	0xbe3d8a8b	-0.18509881
20	0xbe0fd22b	-0.14045016
21	0xbe039b31	-0.1285217
22	0x3e8ce8ae	0.2752127
23	0x3d570ffd	0.052505482
24	0x3df49f43	0.11944439
25	0x3d15ee06	0.03660395
26	0xbe4055f5	-0.1878279
27	0x3e4df789	0.20113958
28	0xbd31998d	-0.043359328
29	0xbd9448da	-0.07240458
30	0x3e674fa5	0.22588976
31	0xbe0fde50	-0.14049649
32	0x3d69a069	0.057037745
33	0xbe7129cb	-0.23551099
34	0x3e127ee9	0.14306225
35	0x3de2a319	0.11066265
36	0xbe69c599	-0.22829284
37	0x3e1f6284	0.15564924
38	0x3cf35fd5	0.029708782
39	0xbe13721a	-0.14398995
40	0x3e725928	0.23666823
41	0x3df27174	0.11838046
42	0x3dc5aef8	0.09652513
43	0xbdd3382c	-0.10313448
44	0xbe1b68fe	-0.1517677
45	0xbe18befc	-0.14916605
46	0x3dd6be6f	0.10485541
47	0x3d9a2cbd	0.075280644
48	0xbe29e0a5	-0.16589601
49	0x3e819783	0.25310907
50	0x3e25fa4d	0.16208763
51	0xbdd7024d	-0.10498486
52	0x3e120e96	0.14263377
53	0xbdef148a	-0.116738394
54	0x3db0819b	0.0861847
55	0x3e6d2805	0.23159797
56	0xbe7be386	-0.24598512
57	0xbe0dc162	-0.13843301
58	0xbc7430a9	-0.01490418
59	0x3d2bc7e8	0.041938692
60	0xbe69247a	-0.22767821
61	0xbe3ae35b	-0.18250792
62	0xbcdd00b2	-0.02697787
63	0xbd22266f	-0.039587434
64	0x3d77148c	0.06032233
65	0x3d11e667	0.03562012
66	0x3d6cee33	0.057844352
67	0x3c8f1690	0.017466813
68	0x3d025088	0.03181508
69	0xbc8842d6	-0.016633432
70	0x3dccfbe4	0.10008982
71	0x3e413afe	0.1887016
72	0xbe0d440f	-0.13795494
73	0xbe12aea2	-0.1432443
74	0x3df981f9	0.121829934
75	0xbe4d1ad7	-0.2002977
76	0x3e37d038	0.17950523
77	0x3e023f49	0.12719454
78	0x3d21b130	0.03947562
79	0xbdf4cd4c	-0.1195322
80	0x3bf0fbee	0.007354251
81	0xbe5fc589	-0.21852697
82	0xbe7ed715	-0.24886735
83	0x3e85a578	0.26102805
84	0xbe7e5c7e	-0.2483997
85	0xbe6b08fd	-0.22952648
86	0xbddb7e71	-0.10717476
87	0x3c72612c	0.014793675
88	0x3d80e0ed	0.06292901
89	0xbe0c08e6	-0.1367527
90	0xbce147f5	-0.027500132
91	0xbd8030ea	-0.062593296
92	0x3e6d5f12	0.23180798
93	0x3e76947f	0.24080084
94	0x3de9d13a	0.1141686
95	0xbaebbc20	-0.0017985143
96	0x3e55ff45	0.20898159
97	0xbe648196	-0.22315058
98	0x3deb5fac	0.11492857
99	0xbe245c49	-0.16050829
100	0x3e5d8fe6	0.21636924
101	0xbe7ab4d4	-0.24483043
102	0x3dd3766d	0.10325322
103	0xbe69d95f	-0.22836827
104	0x3e25aa13	0.1617816
105	0x3d4f6245	0.050630827
106	0x3e7440e5	0.2385288
107	0xbe55e604	-0.20888525
108	0x3e37a7f9	0.1793517
109	0xbe3e42ca	-0.18580166
110	0xbe18a07c	-0.1490497
111	0x3dd87def	0.10570895
112	0xbd3b7b16	-0.04577168
113	0xbe602bff	-0.21891783
114	0xbe719b8b	-0.23594491
115	0xbd93ba9b	-0.072133265
116	0x3d9cd923	0.07658603
117	0x3e7916f1	0.24325158
118	0x3e5112e4	0.20417362
119	0x3b8d931b	0.004320515
120	0xbe2daa00	-0.16959381
121	0xbe7c793b	-0.24655621
122	0x3e7d3f54	0.24731189
123	0xbe1e4be3	-0.15458636
124	0xbd43948c	-0.047749087
125	0xbe6556f8	-0.22396457
126	0xbe43ce53	-0.19121675
127	0x3d59927e	0.05311822
128	0xbd8e35f5	-0.06943885
129	0x3cfbec24	0.030752249
130	0xbae27586	-0.0017277456
131	0x3c639a85	0.013891821
132	0xbd61e284	-0.055147663
133	0xbc368b87	-0.011141664
134	0x3df755ea	0.12076934
135	0x3e5012b1	0.2031963
136	0x3e6f8415	0.23390229
137	0xbe67fe01	-0.22655489
138	0xbe6fc3ea	-0.23414579
139	0xbd2913ae	-0.041278534
140	0xbcada5df	-0.021197258
141	0x3e1d6dff	0.15373991
142	0x3e85dc37	0.26144573
143	0x3d9044be	0.070443615
144	0xbe490065	-0.19629057
145	0xbcfc32b0	-0.030785888
146	0x3e3735b8	0.17891586
147	0x3dd03fbe	0.10168408
148	0xbe47f0fd	-0.19525523
149	0x3c89def6	0.016829949
150	0xbe88b7cb	-0.26702723
151	0xbde417a8	-0.111373246
152	0x3e460956	0.19339499
153	0xbdf4a3bb	-0.119452916
154	0x3e2ca3da	0.1685938
155	0xbe66daaa	-0.22544351
156	0x3e7ab7c7	0.24484168
157	0x3e07281a	0.13198891
158	0x3e3858e2	0.18002656
159	0x3d9cf933	0.076647185
160	0x3ca6ff10	0.020385295
161	0xbe0c6f56	-0.13714346
162	0xbe1cb772	-0.15304354
163	0xbe4348d2	-0.19070747
164	0x3e6a6069	0.2288834
165	0xbdc5a0a4	-0.096497804
166	0x3bea70a1	0.0071545397
167	0xbe85e63f	-0.26152226
168	0x3d97088b	0.07374676
169	0xbdc11141	-0.09427119
170	0xbe62d702	-0.22152331
171	0x3d0b1f8d	0.033965636
172	0xbe8273fc	-0.25479114
173	0xbce4d9cf	-0.02793589
174	0xbe68f0fc	-0.22748178
175	0x3e32be59	0.17455424
176	0xbe60ce68	-0.21953738
177	0x3d3562df	0.044283744
178	0x3e0c2c49	0.13688768
179	0xbe63cc94	-0.22246009
180	0x3e37574e	0.17904398
181	0x3e670301	0.2255974
182	0xbe2d8c1a	-0.16947976
183	0x3cc4da0d	0.024029756
184	0x3dabe5f0	0.083934665
185	0x3e6be4bf	0.23036478
186	0x3e5e41d9	0.21704806
187	0xbe6e2779	-0.23257245
188	0xbe67d137	-0.22638403
189	0xbe7aceb6	-0.24492916
190	0xbdfd5308	-0.123693526
191	0xbd697459	-0.056995723
192	0xbdca44f4	-0.09876433
193	0x3e3aa997	0.18228756
194	0xbe442012	-0.19152859
195	0xbe634c70	-0.22197127
196	0xbe5e19a1	-0.21689464
197	0xbe2849e8	-0.16434443
198	0x3e8ade25	0.27122608
199	0x3d137064	0.035995856
200	0xbd48d887	-0.04903462
201	0xbda88f19	-0.08230419
202	0xbe592f77	-0.21209513
203	0xbdc0214b	-0.0938135
204	0x3e155d66	0.1458641
205	0x3e40a9f3	0.1881483
206	0x3e4d5caf	0.20054887
207	0x3ca8e92c	0.020618998
208	0xbe1b42b9	-0.15162171
209	0xbe27536a	-0.16340414
210	0x3e8a692d	0.27033368
211	0xbe7fb587	-0.24971591
212	0x3d855925	0.065111436
213	0xbcd18890	-0.025577813
214	0x3e83c2ee	0.25734657
215	0x3e26159c	0.16219181
216	0xbd8f4cc5	-0.069970645
217	0xbe6b1421	-0.22956897
218	0x3d190f0a	0.037367858
219	0xbe4719d5	-0.19443448
220	0xbcf58256	-0.029969376
221	0x3d8dbb5a	0.069205
222	0x3e0a61b9	0.1351384
223	0xbd9a8380	-0.07544613
224	0xbe3f07d3	-0.18655328
225	0xbe72260a	-0.23647323
226	0xbe86520e	-0.26234478
227	0x3d0afa24	0.03392996
228	0xbe2d821f	-0.16944169
229	0x3c31ab08	0.010844
230	0xbe0781ce	-0.1323311
231	0xbe3fc56e	-0.18727657
232	0x3e3ee359	0.18641414
233	0x3e20bc16	0.15696749
234	0x3e478145	0.19482906
235	0x3e88156c	0.26578844
236	0xbe4dbfca	-0.20092693
237	0xbe16f5ad	-0.14742155
238	0xbe55764e	-0.20845911
239	0x3e3f0d6f	0.18657468
240	0x3e271239	0.16315545
241	0x3e65c759	0.22439326
242	0xbe46aabf	-0.19401072
243	0xbe17f206	-0.14838418
244	0x3e8abd4c	0.27097547
245	0xbe6195ab	-0.2202975
246	0xbe3ccf71	-0.18438508
247	0x3dd14a52	0.102192536
248	0xbe78c2a7	-0.24293004
249	0xbda21432	-0.07914008
250	0x3df03fc3	0.117309116
251	0x3e69503c	0.22784513
252	0xbd0056a6	-0.031332634
253	0xbe7af125	-0.24506052
254	0x3e2119d3	0.15732507
255	0x3e8d8b5f	0.27645394

weight f4 [256]
0	0x3f7fe4f6	0.9995874
1	0x3f801e99	1.0009338
2	0x3f801ca9	1.0008746
3	0x3f800dd4	1.000422
4	0x3f801fb5	1.0009676
5	0x3f801f3d	1.0009533
6	0x3f7fe9b0	0.99965954
7	0x3f8014db	1.0006365
8	0x3f7fcba7	0.99920124
9	0x3f7ff78f	0.9998712
10	0x3f7fc5c8	0.99911165
11	0x3f800083	1.0000156
12	0x3f801ea0	1.0009346
13	0x3f80191c	1.0007663
14	0x3f7fea6e	0.99967086
15	0x3f80202f	1.0009822
16	0x3f7fe51f	0.99958986
17	0x3f7fc4e6	0.9990982
18	0x3f8022a3	1.001057
19	0x3f7feda0	0.9997196
20	0x3f7fc442	0.9990884
21	0x3f801afa	1.0008233
22	0x3f7fd3ed	0.9993275
23	0x3f7fc38f	0.99907774
24	0x3f800609	1.0001842
25	0x3f7ff24a	0.9997908
26	0x3f7fc64f	0.9991197
27	0x3f802173	1.0010208
28	0x3f800693	1.0002006
29	0x3f7fbb9f	0.9989566
30	0x3f7ff180	0.99977875
31	0x3f801cdb	1.0008806
32	0x3f7fd647	0.99936336
33	0x3f8020f8	1.0010061
34	0x3f800cf3	1.0003952
35	0x3f800b9f	1.0003546
36	0x3f801134	1.000525
37	0x3f801af6	1.0008228
38	0x3f801e58	1.000926
39	0x3f7fbd4f	0.99898237
40	0x3f800330	1.0000973
41	0x3f80206a	1.0009892
42	0x3f7fc5b9	0.99911076
43	0x3f801fa8	1.0009661
44	0x3f800966	1.0002868
45	0x3f7ff1bd	0.9997824
46	0x3f800020	1.0000038
47	0x3f7fec85	0.99970275
48	0x3f801a66	1.0008056
49	0x3f7fd2c0	0.99930954
50	0x3f80016f	1.0000437
51	0x3f7fc9ce	0.99917305
52	0x3f7fc998	0.9991698
53	0x3f8019a0	1.000782
54	0x3f7fc50d	0.9991005
55	0x3f7fe9b4	0.9996598
56	0x3f7fe177	0.9995341
57	0x3f7fc080	0.99903107
58	0x3f800e1c	1.0004306
59	0x3f7fff34	0.99998784
60	0x3f801f1f	1.0009497
61	0x3f7ffd99	0.99996334
62	0x3f7fd33f	0.9993171
63	0x3f7ff7ff	0.99987787
64	0x3f7fff72	0.99999154
65	0x3f7fde42	0.99948514
66	0x3f7fda57	0.99942535
67	0x3f801d69	1.0008975
68	0x3f80150f	1.0006427
69	0x3f7fdd79	0.99947315
70	0x3f800324	1.0000958
71	0x3f7ff6d5	0.9998601
72	0x3f801d98	1.0009031
73	0x3f7fc9d2	0.9991733
74	0x3f7fe415	0.999574
75	0x3f800e82	1.0004427
76	0x3f801e1e	1.0009191
77	0x3f7fc2d6	0.9990667
78	0x3f7fc80a	0.9991461
79	0x3f8020ae	1.0009973
80	0x3f7fc069	0.9990297
81	0x3f8020af	1.0009974
82	0x3f7fed64	0.99971604
83	0x3f7ffb66	0.9999298
84	0x3f7fe6a7	0.9996132
85	0x3f801899	1.0007507
86	0x3f7fc75f	0.9991359
87	0x3f7fd354	0.99931836
88	0x3f7fedec	0.99972415
89	0x3f7fff2b	0.9999873
90	0x3f7fbf9d	0.99901754
91	0x3f7fd403	0.9993288
92	0x3f7fc78f	0.9991388
93	0x3f7fd10d	0.9992836
94	0x3f8007b7	1.0002354
95	0x3f7fc4fb	0.99909943
96	0x3f8015fa	1.0006707
97	0x3f801046	1.0004966
98	0x3f8005a2	1.0001719
99	0x3f7fffe5	0.9999984
100	0x3f7fc73a	0.9991337
101	0x3f7fd931	0.9994078
102	0x3f801e7d	1.0009304
103	0x3f7ff355	0.9998067
104	0x3f7feea7	0.9997353
105	0x3f7ff814	0.9998791
106	0x3f7fd8e6	0.99940336
107	0x3f800aa7	1.0003251
108	0x3f801eb6	1.0009372
109	0x3f7fdbd6	0.9994482
110	0x3f7fc3cb	0.9990813
111	0x3f800655	1.0001932
112	0x3f80201f	1.0009803
113	0x3f8000fd	1.0000302
114	0x3f7ffe8a	0.9999777
115	0x3f800bf3	1.0003647
116	0x3f80092c	1.0002799
117	0x3f7feab8	0.9996753
118	0x3f7ff6b9	0.99985844
119	0x3f7fe9bf	0.99966043
120	0x3f7fe78f	0.99962705
121	0x3f8015d4	1.0006661
122	0x3f7feba2	0.9996892
123	0x3f800c84	1.000382
124	0x3f80213f	1.0010146
125	0x3f8001fa	1.0000603
126	0x3f801f0c	1.0009475
127	0x3f7fec51	0.99969965
128	0x3f7feaee	0.9996785
129	0x3f7fc2a0	0.9990635
130	0x3f7ffe08	0.99996996
131	0x3f7fdbbe	0.99944675
132	0x3f7ff0f6	0.9997705
133	0x3f8001f1	1.0000592
134	0x3f7fc3c4	0.9990809
135	0x3f802047	1.000985
136	0x3f8001ab	1.0000509
137	0x3f7fd127	0.99928516
138	0x3f7fe17f	0.99953455
139	0x3f801fbd	1.0009686
140	0x3f7fdf18	0.9994979
141	0x3f801bb8	1.0008459
142	0x3f80013a	1.0000374
143	0x3f801fca	1.0009701
144	0x3f7fd495	0.9993375
145	0x3f801e97	1.0009335
146	0x3f801c76	1.0008686
147	0x3f7ffd5b	0.99995965
148	0x3f7fd7cf	0.9993867
149	0x3f800b91	1.000353
150	0x3f801c04	1.000855
151	0x3f7fe571	0.99959475
152	0x3f7fe00e	0.99951255
153	0x3f7feb52	0.99968445
154	0x3f7fd2af	0.9993085
155	0x3f8008f7	1.0002736
156	0x3f8017e6	1.0007293
157	0x3f800042	1.0000079
158	0x3f7ffeb2	0.9999801
159	0x3f80208d	1.0009934
160	0x3f8018c3	1.0007557
161	0x3f7fe749	0.9996229
162	0x3f80089b	1.0002626
163	0x3f7fc7d6	0.999143
164	0x3f7ff4c5	0.99982864
165	0x3f7fbda8	0.9989877
166	0x3f800f15	1.0004603
167	0x3f7fbf69	0.99901444
168	0x3f7fc790	0.99913883
169	0x3f7fca15	0.9991773
170	0x3f7fd255	0.99930316
171	0x3f7ff0d9	0.9997688
172	0x3f801d55	1.0008951
173	0x3f7fc203	0.99905413
174	0x3f802195	1.0010248
175	0x3f8004ad	1.0001427
176	0x3f8020e7	1.0010041
177	0x3f7fe610	0.9996042
178	0x3f801797	1.0007199
179	0x3f7fc4bb	0.9990956
180	0x3f7fc396	0.99907815
181	0x3f7fdcba	0.99946177
182	0x3f7fcbba	0.9992024
183	0x3f7ff122	0.99977314
184	0x3f7fe2d9	0.9995552
185	0x3f80217e	1.0010221
186	0x3f7fbe93	0.9990017
187	0x3f7fdab2	0.9994308
188	0x3f7fbc17	0.9989638
189	0x3f7fbff4	0.9990227
190	0x3f7fcf9e	0.99926174
191	0x3f7fc217	0.9990553
192	0x3f8005f0	1.0001812
193	0x3f7fd7e3	0.9993879
194	0x3f7fe6d8	0.99961615
195	0x3f800c1b	1.0003694
196	0x3f7fccdd	0.9992197
197	0x3f7fd7bf	0.9993858
198	0x3f800d48	1.0004053
199	0x3f802072	1.0009902
200	0x3f801cef	1.000883
201	0x3f7fc16f	0.9990453
202	0x3f7fd170	0.9992895
203	0x3f801cab	1.0008749
204	0x3f7fccaf	0.999217
205	0x3f7ff5a6	0.99984205
206	0x3f7fe5f1	0.9996024
207	0x3f7fc366	0.9990753
208	0x3f800613	1.0001854
209	0x3f7fbcc0	0.99897385
210	0x3f7fd9ee	0.9994191
211	0x3f801aa0	1.0008125
212	0x3f7ffe0b	0.99997014
213	0x3f800eda	1.0004532
214	0x3f800881	1.0002595
215	0x3f7ffed6	0.99998224
216	0x3f800ae5	1.0003325
217	0x3f801059	1.0004989
218	0x3f801c12	1.0008566
219	0x3f7fd734	0.9993775
220	0x3f7fc954	0.9991658
221	0x3f801265	1.0005614
222	0x3f800fc5	1.0004812
223	0x3f7fc895	0.9991544
224	0x3f7fe740	0.99962234
225	0x3f7fc504	0.99909997
226	0x3f7ff174	0.99977803
227	0x3f7fc4e0	0.9990978
228	0x3f7fed77	0.9997172
229	0x3f801f01	1.0009462
230	0x3f7fd7d3	0.99938697
231	0x3f801c1f	1.0008582
232	0x3f801bd5	1.0008494
233	0x3f7fd5d1	0.9993563
234	0x3f7fe97f	0.9996566
235	0x3f8001d0	1.0000553
236	0x3f8014aa	1.0006306
237	0x3f800c43	1.0003742
238	0x3f7fc73e	0.99913394
239	0x3f7fbeed	0.99900705
240	0x3f801ddd	1.0009114
241	0x3f7ff834	0.999881
242	0x3f7fd3bd	0.9993246
243	0x3f801089	1.0005046
244	0x3f7fd841	0.9993935
245	0x3f7fc2c3	0.9990656
246	0x3f7fe6db	0.9996163
247	0x3f7ffc9a	0.99994814
248	0x3f7ff240	0.9997902
249	0x3f800f73	1.0004715
250	0x3f7fe26b	0.9995486
251	0x3f80116c	1.0005317
252	0x3f7fd2bf	0.9993095
253	0x3f7fceda	0.99925005
254	0x3f8016cf	1.0006961
255	0x3f7fbd4d	0.99898225

bias f4 [256]
0	0x39a7bdf0	0.00031994237
1	0x3a315387	0.00067644607
2	0xba02a820	-0.0004984159
3	0xb938d5c3	-0.0001762724
4	0xba389e04	-0.0007042589
5	0x3982e7f2	0.00024968345
6	0x38afc241	8.380833e-05
7	0xba497df6	-0.0007686311
8	0xba401a81	-0.0007328168
9	0x3a82d421	0.0009981432
10	0x3a00fc02	0.00049203646
11	0x399da8da	0.00030071178
12	0x3a83ba7f	0.0010050087
13	0x3a50a92a	0.0007959778
14	0xba7ed133	-0.0009720504
15	0xba7e4ec0	-0.0009701066
16	0x38d895fa	0.00010327618
17	0xba56316b	-0.0008170816
18	0x3a58d442	0.0008271375
19	0xb9b5e1e9	-0.00034691326
20	0xb9babb58	-0.00035616267
21	0x3a443b64	0.00074856565
22	0xb9c4f6a3	-0.00037567792
23	0xba499606	-0.0007689897
24	0x3a82f3c0	0.0009990856
25	0xb9f8e71a	-0.0004747443
26	0xb993b31d	-0.00028171475
27	0xb9d8c65e	-0.00041346526
28	0xba5bb94d	-0.0008381799
29	0xb998db67	-0.00029155167
30	0x3934bd40	0.00017236639
31	0x39dcafa1	0.00042092524
32	0x3a67373e	0.00088201824
33	0x3a33108a	0.00068307726
34	0x39101faf	0.00013744713
35	0xb929f4a0	-0.00016208226
36	0x3980d83e	0.00024575175
37	0xb8234562	-3.8926846e-05
38	0x3a0a1bd1	0.0005268427
39	0x39d56e57	0.00040708735
40	0x3a2862bd	0.00064234046
41	0xba409146	-0.0007345866
42	0xb9f5f74d	-0.00046914295
43	0xb8fe9d2e	-0.00012140941
44	0x39852d9e	0.00025401724
45	0x38d0d6b3	9.958204e-05
46	0xb9f3aa32	-0.00046475377
47	0x3933a10e	0.00017130768
48	0xba4d427a	-0.0007830035
49	0x394f13a2	0.00019748372
50	0x3a1444e0	0.0005656015
51	0x3a5d2c1d	0.00084370543
52	0xba4bfd68	-0.0007781596
53	0x3980c8cb	0.00024563665
54	0x367a0f2b	3.7261732e-06
55	0xb9a593ff	-0.00031581518
56	0x3a43e454	0.0007472683
57	0x3a330b52	0.0006829995
58	0x3a2a04ed	0.00064857194
59	0xb9bf7d1b	-0.0003652357
60	0x3a365f17	0.00069569185
61	0xba6ada4d	-0.0008958921
62	0x39299438	0.00016172312
63	0x3a572cc6	0.0008208271
64	0xb9b9e258	-0.0003545459
65	0xb9a07b65	-0.00030609514
66	0x3a5319ed	0.00080528745
67	0x398ed5af	0.00027243557
68	0x3a269989	0.0006355276
69	0x3a1e662d	0.0006042447
70	0x3a3ec7f2	0.0007277719
71	0x38bedc39	9.100926e-05
72	0x393edc1d	0.0001820181
73	0xba208f40	-0.00061248615
74	0xb83c9ffc	-4.497169e-05
75	0x39b96b39	0.00035365837
76	0x3a8174ed	0.0009876766
77	0xba5778ba	-0.0008219589
78	0xb9a2acd8	-0.00031027826
79	0xb92865ac	-0.00016059604
80	0x398c5c16	0.0002677149
81	0x39d83f37	0.0004124583
82	0xb9a0b3d7	-0.0003065157
83	0xb9cf7af0	-0.00039573712
84	0x3a0a3389	0.00052719616
85	0x3a723fa6	0.0009241052
86	0xba45a247	-0.0007539135
87	0x3954cce1	0.00020294219
88	0x398574bb	0.00025454708
89	0xba1a171f	-0.0005878079
90	0x3a470139	0.000759143
91	0xb9c14710	-0.00036864774
92	0x39d1476c	0.000399168
93	0xba144331	-0.0005655764
94	0xb9652d4d	-0.00021856018
95	0x39b0d0f0	0.00033725007
96	0x3a48e2b5	0.00076631765
97	0xb888ab96	-6.516946e-05
98	0xba5d2e6b	-0.0008437398
99	0xba214840	-0.00061524287
100	0xb919df21	-0.00014674339
101	0x395c9c6a	0.00021039104
102	0xba13e9bb	-0.00056424335
103	0x39ba5c47	0.00035545437
104	0xb9db869e	-0.00041871233
105	0xba40ec89	-0.0007359465
106	0xba1f39c3	-0.0006073976
107	0xb9c83976	-0.00038189784
108	0xba3986aa	-0.00070772565
109	0xba13b3be	-0.00056343887
110	0x3a2836d9	0.00064168643
111	0xb8aef26b	-8.3421204e-05
112	0xba13871d	-0.00056277384
113	0xb9ec34d7	-0.00045052796
114	0x37d7582c	2.5671055e-05
115	0xb98b8f15	-0.0002661875
116	0x39c9e57a	0.0003850868
117	0x3a543108	0.00080944644
118	0xb983f64c	-0.00025169773
119	0x3a0823ba	0.0005193312
120	0x3a7cc148	0.0009641838
121	0x3986e468	0.00025728648
122	0x39414cb2	0.00018434486
123	0x3a3ea87f	0.00072730327
124	0xba76ca13	-0.00094142667
125	0xba52a3ad	-0.0008035254
126	0x3a400ccb	0.0007326125
127	0xb94d2f7e	-0.00019568016
128	0x39fceb86	0.00048240664
129	0x3a5b7cb6	0.00083727704
130	0xb8ae9bc4	-8.32598e-05
131	0x3a7e7d5c	0.0009708011
132	0xb9cdd5eb	-0.00039260028
133	0xb9dd30d5	-0.00042188787
134	0x39dc36e6	0.00042002572
135	0x3a0ccc5a	0.0005371027
136	0xba7456e7	-0.0009320811
137	0x390ed8bd	0.00013622917
138	0xb99d45a7	-0.0002999727
139	0xba23ab8a	-0.0006243518
140	0x3a28139f	0.0006411615
141	0xb829705f	-4.0397394e-05
142	0x39d424a4	0.0004046309
143	0x396f8a30	0.00022844295
144	0xba2a4499	-0.0006495207
145	0x39e8746b	0.00044337226
146	0xb80f0952	-3.4102537e-05
147	0x39aed3a7	0.0003334556
148	0xba0efeb2	-0.00054548227
149	0xb8f5748c	-0.00011704219
150	0x3a52c28f	0.0008039856
151	0xb90b98aa	-0.00013312945
152	0xb9804aff	-0.0002446994
153	0x3a7082c1	0.0009174757
154	0xb65ab49d	-3.2589662e-06
155	0xb9801f5a	-0.0002443742
156	0x3a27ee68	0.000640607
157	0xba5cb047	-0.00084186014
158	0xb658df22	-3.2316389e-06
159	0x3934bb67	0.0001723595
160	0x3a365847	0.00069559034
161	0x383af91b	4.4577853e-05
162	0x39f99e78	0.0004761105
163	0x3a1d5a67	0.00060025457
164	0x3a4ba0e2	0.0007767809
165	0xba46812d	-0.0007572349
166	0xba3fad1b	-0.00073118665
167	0x38adb882	8.28365e-05
168	0xba5f0a1d	-0.0008508282
169	0x396e5c8d	0.00022731927
170	0x38a0dd20	7.670582e-05
171	0x3a4e7f3a	0.00078772346
172	0x3a651cb3	0.0008739933
173	0x3a508629	0.0007954562
174	0xba10caa8	-0.0005523362
175	0x3a6e4618	0.0009089424
176	0xba5aa7c3	-0.00083410385
177	0x3990e2f2	0.00027634908
178	0xb9e4e24b	-0.0004365615
179	0xb9356a48	-0.00017301098
180	0x39683be8	0.00022147561
181	0xb9688747	-0.00022175639
182	0xba25b70b	-0.0006321526
183	0x3a441fe7	0.00074815605
184	0x3a7a192c	0.0009540494
185	0xb978d0ba	-0.0002372888
186	0x3a5d098a	0.00084319024
187	0xb9e59622	-0.0004379014
188	0xb9b21429	-0.00033965826
189	0x39e38e30	0.00043402752
190	0xba67321f	-0.00088194193
191	0xba25f39d	-0.00063305517
192	0x3a4236e9	0.0007408695
193	0x38f2cc80	0.0001157755
194	0xb8a194bb	-7.7047815e-05
195	0xb94a9b0c	-0.0001932198
196	0xb9c3f9e3	-0.00037379478
197	0xba5229b6	-0.00080170797
198	0xba2f83f5	-0.00066953833
199	0x3a70e9f3	0.00091901346
200	0x396f67f9	0.00022831549
201	0xb98b332c	-0.00026550272
202	0x3a18306d	0.0005805556
203	0x391c6ba1	0.00014917414
204	0x3a329ac9	0.0006813226
205	0x3a7cda83	0.0009645598
206	0x38183a8a	3.6294143e-05
207	0xba700649	-0.000915621
208	0x39f4b7c8	0.00046676234
209	0xba7361a0	-0.00092842616
210	0xba556db3	-0.00081416516
211	0xba19f4eb	-0.00058729824
212	0xba7b3f4a	-0.0009584321
213	0xba616388	-0.00085979
214	0xb93ee90a	-0.00018206626
215	0xb8152ecd	-3.5567955e-05
216	0xba6b5078	-0.00089765294
217	0xb887a3f4	-6.46784e-05
218	0x39c4b54d	0.00037519113
219	0x3a667f59	0.000879278
220	0x3a0dee49	0.00054142304
221	0x371c5844	9.3188755e-06
222	0xb9b74ee7	-0.00034963267
223	0xba39f5b3	-0.0007093802
224	0x3a5074be	0.0007951966
225	0x39d9414e	0.0004143812
226	0xba01a868	-0.0004946054
227	0x3a769560	0.0009406414
228	0x3a4d9cf3	0.00078435167
229	0xb9110d85	-0.00013833314
230	0x3a4e8c04	0.00078791403
231	0xba24dda2	-0.00062891294
232	0x3a111dea	0.00055357686
233	0xba159265	-0.00057057134
234	0x3868fdbc	5.554942e-05
235	0xba0ff7af	-0.0005491925
236	0x38b5eb26	8.6745524e-05
237	0x3a75f65d	0.0009382719
238	0xba6de9a1	-0.0009075646
239	0xba19a345	-0.0005860816
240	0x3a281d35	0.00064130436
241	0x3a5d3084	0.00084377103
242	0xb8998554	-7.320443e-05
243	0xba80d2b0	-0.0009828415
244	0xba18f147	-0.0005834293
245	0xb9e5318e	-0.00043715205
246	0xba0d0de2	-0.0005380792
247	0x39a0a82d	0.0003064288
248	0xb92d227e	-0.00016511415
249	0xba3d0973	-0.0007211186
250	0xb9c0f814	-0.00036805926
251	0xba34dada	-0.00068990665
252	0x3a06f88d	0.0005148731
253	0xba419912	-0.0007385175
254	0xb995631c	-0.00028493337
255	0xb9c0a535	-0.00036744183

running_mean f4 [256]
0	0x3eda557c	0.42643344
1	0x3d1143b6	0.035464965
2	0x3e67c4d1	0.22633673
3	0x3d16166c	0.036642477
4	0x3e169b6c	0.14707726
5	0x3e0ce247	0.13758193
6	0x3deb947a	0.11502929
7	0x3e6ea584	0.23305327
8	0x3e48c0ff	0.19604872
9	0x3e007b6e	0.12547085
10	0x3e21bda6	0.15795001
11	0x3e9cbd3e	0.3061313
12	0x3e7a403e	0.24438569
13	0x3e7e1166	0.24811324
14	0x3ea9d25f	0.33168313
15	0x3de3a5c6	0.11115603
16	0x3de19bdd	0.11016057
17	0x3e7bc493	0.24586706
18	0x3e01740c	0.12641925
19	0x3e1e895f	0.1548209
20	0x3e33606f	0.17517255
21	0x3df7ad80	0.120936394
22	0x3ecf1bfa	0.40451032
23	0x3df607c7	0.12013202
24	0x3e97617b	0.2956656
25	0x3e04f7ec	0.129852
26	0x3e023c8d	0.12718411
27	0x3ec0b64f	0.3763909
28	0x3dfc8cc4	0.123315364
29	0x3e6e32df	0.23261593
30	0x3ed49e99	0.4152725
31	0x3d61ac8d	0.055096198
32	0x3e0e6efb	0.13909523
33	0x3d4b1762	0.049582846
34	0x3eb3c63f	0.35112187
35	0x3e414ee3	0.18877749
36	0x3e95d7f6	0.29266328
37	0x3e5c4218	0.21509588
38	0x3e70d298	0.23517835
39	0x3e208384	0.15675169
40	0x3e6156f1	0.22005822
41	0x3e97d5fa	0.2965544
42	0x3e9d50b7	0.30725643
43	0x3eb7be9c	0.3588761
44	0x3e4ebb97	0.20188747
45	0x3da41b76	0.0801305
46	0x3e974069	0.2954133
47	0x3e690a67	0.22757874
48	0x3dab08f8	0.0835132
49	0x3e55530c	0.20832461
50	0x3ecfa9b5	0.40559164
51	0x3e0e5dc6	0.13902959
52	0x3e638fc0	0.22222805
53	0x3e6936f0	0.22774863
54	0x3e2df613	0.16988401
55	0x3ea126c4	0.31474888
56	0x3e046c87	0.12932025
57	0x3e49ac54	0.19694644
58	0x3e854e50	0.2603631
59	0x3e85c7ae	0.26128906
60	0x3e190473	0.14943103
61	0x3def0d2b	0.116724335
62	0x3e7d90a7	0.24762212
63	0x3e51db99	0.20493926
64	0x3e0ab667	0.13546143
65	0x3e4c586c	0.19955605
66	0x3e833c3b	0.2563189
67	0x3e510418	0.20411718
68	0x3e963571	0.29337648
69	0x3ded9d9d	0.11602328
70	0x3e9d6d40	0.30747414
71	0x3e4d05ab	0.20021693
72	0x3db6a035	0.08917276
73	0x3e178f5b	0.1480078
74	0x3e079bbe	0.13243005
75	0x3debcdaf	0.115138404
76	0x3e40075c	0.18752807
77	0x3e2873d6	0.16450438
78	0x3e24b8d8	0.16086137
79	0x3dc7ee6f	0.097622745
80	0x3e1c5346	0.15266141
81	0x3dd9719a	0.10617371
82	0x3dbe8cb1	0.093041785
83	0x3e6892d5	0.22712262
84	0x3db4d087	0.08828836
85	0x3e07335b	0.13203184
86	0x3e1cddd9	0.15319003
87	0x3e9156f6	0.28386658
88	0x3e11923b	0.14215939
89	0x3e7d8ea0	0.24761438
90	0x3de34153	0.11096444
91	0x3dcd7e53	0.1003386
92	0x3e368f9a	0.17828217
93	0x3e912604	0.28349316
94	0x3e8663d9	0.26248053
95	0x3dbd90d1	0.09256137
96	0x3e30ed92	0.17278126
97	0x3e40aa84	0.18815047
98	0x3eb1f763	0.34759054
99	0x3e0ac739	0.1355256
100	0x3e7a5b38	0.2444886
101	0x3d4e14b0	0.050312698
102	0x3e615018	0.2200321
103	0x3d197ee6	0.037474535
104	0x3e8d46e0	0.27593136
105	0x3e612cd7	0.21989761
106	0x3e9a09cb	0.30085596
107	0x3db6aab4	0.08919278
108	0x3e1eb361	0.15498115
109	0x3ddfa19c	0.109194964
110	0x3e3125e3	0.17299609
111	0x3e5d65f2	0.2162092
112	0x3e69937d	0.22810169
113	0x3e263bea	0.16233793
114	0x3d63ad68	0.055585295
115	0x3e4cb54c	0.19991034
116	0x3e47e004	0.19519049
117	0x3ea3288c	0.31866872
118	0x3e411306	0.18854913
119	0x3dca782a	0.09886201
120	0x3df5d904	0.12004283
121	0x3d13deb5	0.03610106
122	0x3e97bb16	0.29634923
123	0x3e1e3ad0	0.15452123
124	0x3e29d52e	0.16585228
125	0x3d2d1e52	0.042265244
126	0x3e1e1904	0.1543923
127	0x3de1ee7e	0.11031817
128	0x3dea2eae	0.11434685
129	0x3e723676	0.23653588
130	0x3e5a9381	0.21345331
131	0x3e66c07e	0.22534367
132	0x3e015c58	0.12632883
133	0x3e313df8	0.17308795
134	0x3e9e8298	0.3095901
135	0x3eccc724	0.39995682
136	0x3eb0035e	0.3437757
137	0x3d3eb3ba	0.04655812
138	0x3ccd9b82	0.025098566
139	0x3e4c3899	0.19943465
140	0x3df21220	0.11819863
141	0x3e35bfcb	0.17748944
142	0x3e9cb4f2	0.306068
143	0x3e91e719	0.28496626
144	0x3d8f0dac	0.069850296
145	0x3dc1647d	0.09442995
146	0x3e7cbf7e	0.24682423
147	0x3e069783	0.13143735
148	0x3e23044c	0.15919608
149	0x3e6349d7	0.22196136
150	0x3cde4e97	0.027137084
151	0x3d676147	0.056489255
152	0x3e487cfc	0.19578928
153	0x3e476103	0.19470601
154	0x3e2e02b9	0.16993226
155	0x3d8e2906	0.06941418
156	0x3eeffc94	0.4687239
157	0x3e26be66	0.16283569
158	0x3e6a17a8	0.22860587
159	0x3e0044cb	0.12526242
160	0x3e240fa0	0.16021585
161	0x3e1f2465	0.15541227
162	0x3dc43734	0.09580842
163	0x3e2efbb0	0.17088199
164	0x3e814a25	0.2525188
165	0x3e983518	0.29728007
166	0x3df46c23	0.11934688
167	0x3d5c9ed6	0.053862415
168	0x3e139fd1	0.14416434
169	0x3e72422c	0.23658055
170	0x3d43a19e	0.047761552
171	0x3e5b9eaf	0.21447252
172	0x3e0f7aeb	0.14011733
173	0x3dc88459	0.09790868
174	0x3e0af391	0.13569476
175	0x3e83c5f2	0.25736958
176	0x3e1fa453	0.15590028
177	0x3e36ebe9	0.1786343
178	0x3e228a6a	0.15873113
179	0x3d630820	0.05542767
180	0x3e7a9048	0.24469101
181	0x3ee228d6	0.4417178
182	0x3e81e80a	0.25372344
183	0x3dfa5ed7	0.122251205
184	0x3e26cfd9	0.16290225
185	0x3e4f7034	0.20257646
186	0x3e3eb6f7	0.18624483
187	0x3daac1ce	0.083377466
188	0x3d963de1	0.07336021
189	0x3e28a6b3	0.1646984
190	0x3db718a4	0.08940247
191	0x3d8c276d	0.06843457
192	0x3e8c70ed	0.27429906
193	0x3ea5b137	0.32361767
194	0x3d9a273f	0.07527017
195	0x3e0ce3e6	0.13758811
196	0x3dc1e8cd	0.09468231
197	0x3e2873ef	0.16450475
198	0x3ea2be3c	0.31785762
199	0x3e23739a	0.15962067
200	0x3e18ba84	0.149149
201	0x3e097a72	0.13425615
202	0x3dade9a2	0.084918275
203	0x3e68363a	0.22676936
204	0x3e266b39	0.1625184
205	0x3e8a0e59	0.2696407
206	0x3ea8b952	0.32953888
207	0x3e7869e0	0.24259138
208	0x3dc7323d	0.09726379
209	0x3e801318	0.25014567
210	0x3e7c8c98	0.24663007
211	0x3dc33e10	0.09533322
212	0x3ea1e558	0.31620288
213	0x3e079eb5	0.13244136
214	0x3e7dc0ec	0.24780625
215	0x3e925d38	0.28586745
216	0x3e65bd54	0.22435504
217	0x3dad0ddb	0.08449908
218	0x3e9653a9	0.29360703
219	0x3dc227fd	0.094802834
220	0x3e89b1a5	0.26893345
221	0x3e67a74c	0.22622412
222	0x3e58ecbc	0.21184057
223	0x3d9de6db	0.07710048
224	0x3d9c761b	0.07639714
225	0x3e33d375	0.17561133
226	0x3da625d8	0.08112687
227	0x3e5de6fb	0.21670143
228	0x3d857f88	0.06518465
229	0x3e42e54a	0.1903278
230	0x3dbcd6cc	0.09220657
231	0x3d8e0b33	0.0693573
232	0x3eb8ea10	0.36116076
233	0x3e5d90d4	0.21637279
234	0x3e55c66b	0.20876472
235	0x3eadd302	0.3395005
236	0x3ddaafd9	0.106780715
237	0x3dc3e2cb	0.09564742
238	0x3ddd1399	0.107947536
239	0x3e8c3ed7	0.27391693
240	0x3e9c8321	0.30568793
241	0x3e4fe074	0.20300466
242	0x3df2120d	0.11819849
243	0x3de643df	0.11243414
244	0x3ea6e170	0.3259387
245	0x3de60b8f	0.112326734
246	0x3e0a955c	0.13533539
247	0x3eafd6c4	0.3434354
248	0x3dd3664e	0.103222474
249	0x3e02e6c2	0.1278334
250	0x3e354eb2	0.17705801
251	0x3e317701	0.17330553
252	0x3d9e8914	0.07740989
253	0x3d80dafb	0.06291767
254	0x3e5bb976	0.21457466
255	0x3e7a6af8	0.24454868

running_var f4 [256]
0	0x3eee3476	0.465244
1	0x3e5dfe36	0.21679005
2	0x3e8da877	0.2766759
3	0x3e62f9a7	0.22165547
4	0x3e900eec	0.28136384
5	0x3ebec936	0.37262887
6	0x3e82942e	0.25503677
7	0x3ea52529	0.32254913
8	0x3eba351d	0.36368647
9	0x3e98c7b7	0.2983987
10	0x3e9ac35d	0.30227175
11	0x3ebd4521	0.36966804
12	0x3e8b7a34	0.2724167
13	0x3ebef510	0.37296343
14	0x3e95f91b	0.29291615
15	0x3e876c0b	0.26449618
16	0x3e87e773	0.2654377
17	0x3ea1f2d4	0.31630576
18	0x3e8757ed	0.2643427
19	0x3e92b276	0.2865178
20	0x3e966b05	0.29378524
21	0x3e881cc6	0.26584452
22	0x3ee9ab3f	0.45638463
23	0x3e81a4fd	0.2532119
24	0x3eb978ca	0.36224967
25	0x3e86cd09	0.26328304
26	0x3e95b9ca	0.29243308
27	0x3ecb0fb1	0.3966041
28	0x3e970cb4	0.2950188
29	0x3ebd34b1	0.36954263
30	0x3ec425d9	0.38310125
31	0x3e644dc6	0.22295293
32	0x3ea29a87	0.3175852
33	0x3e642070	0.22277999
34	0x3ee44535	0.4458405
35	0x3e88615c	0.2663678
36	0x3ec03712	0.37542015
37	0x3eaeb3a1	0.3412142
38	0x3e893737	0.26799938
39	0x3ea4f3bc	0.32217205
40	0x3e80170a	0.25017577
41	0x3ebcf958	0.36908984
42	0x3eaf1333	0.34194335
43	0x3ee7c914	0.45270598
44	0x3eaeaf4b	0.34118113
45	0x3e727ed8	0.236812
46	0x3eb6c989	0.35700634
47	0x3eac2663	0.33623037
48	0x3e764674	0.24050313
49	0x3e984865	0.29742733
50	0x3ec1df56	0.37865704
51	0x3e8a9e8d	0.2707409
52	0x3ea9c568	0.33158422
53	0x3eb19637	0.34684917
54	0x3ea0f2c1	0.31435207
55	0x3ed225b6	0.41044396
56	0x3e94f5a0	0.29093647
57	0x3e9862ee	0.29762977
58	0x3ead6248	0.33864045
59	0x3eae4a64	0.3404113
60	0x3e8ed798	0.2789886
61	0x3e937eb7	0.28807613
62	0x3ea2f158	0.31824756
63	0x3e90acc0	0.28256798
64	0x3e8d82ef	0.27638957
65	0x3e863cac	0.26218164
66	0x3ead828d	0.33888665
67	0x3e9be9a5	0.30451694
68	0x3ea8f72a	0.3300107
69	0x3e812f2d	0.25231305
70	0x3ebf4dd9	0.3736408
71	0x3e93fd34	0.28904116
72	0x3e802b90	0.25033236
73	0x3e869689	0.26286724
74	0x3e7a6946	0.24454221
75	0x3e860b39	0.26180437
76	0x3e8a707d	0.27038947
77	0x3e8dea2b	0.27717718
78	0x3e85c243	0.26124772
79	0x3e85cf18	0.26134562
80	0x3e8d9ee3	0.27660283
81	0x3e881bd9	0.26583746
82	0x3e754faf	0.23956178
83	0x3ec4ffef	0.38476512
84	0x3e798fb8	0.2437123
85	0x3e857b4d	0.26070634
86	0x3e987a19	0.29780653
87	0x3ecb7f6e	0.3974566
88	0x3e8cb83c	0.2748431
89	0x3eb50c22	0.3536082
90	0x3e80aba9	0.25130966
91	0x3e873c47	0.26413175
92	0x3e9f06c2	0.31059843
93	0x3eb5108a	0.3536418
94	0x3ea5972d	0.323419
95	0x3e6bd4f8	0.2303046
96	0x3ec26a38	0.37971663
97	0x3ea42dd1	0.32066205
98	0x3ec44372	0.38332707
99	0x3e90ad3a	0.2825716
100	0x3e905753	0.28191623
101	0x3e6a5b13	0.22886305
102	0x3eb5f0a1	0.35535148
103	0x3e5e7cef	0.21727346
104	0x3e941604	0.28923047
105	0x3eb7e780	0.35918808
106	0x3ea26e95	0.31724992
107	0x3e7b28e2	0.24527314
108	0x3e87b6ab	0.26506552
109	0x3e7d6141	0.2474413
110	0x3e9c33ba	0.30508214
111	0x3eadf02a	0.33972293
112	0x3ea2e3ae	0.3181433
113	0x3e99311f	0.2992029
114	0x3e86dee2	0.2634192
115	0x3ea7d2a6	0.327779
116	0x3e959576	0.29215592
117	0x3ea162a5	0.31520572
118	0x3e94da57	0.2907283
119	0x3e988f88	0.29797006
120	0x3e75b862	0.23996118
121	0x3e601280	0.21882057
122	0x3ea085f3	0.31352195
123	0x3e8baf08	0.27281976
124	0x3e961c3d	0.2931842
125	0x3e617669	0.22017826
126	0x3e8ca468	0.27469182
127	0x3e7f8332	0.24952391
128	0x3e878387	0.26467535
129	0x3ed92444	0.4241048
130	0x3ea4b6ac	0.32170618
131	0x3ea99427	0.33120844
132	0x3e7ddf70	0.24792266
133	0x3e910994	0.2832762
134	0x3eb032d0	0.34413767
135	0x3ed9648a	0.42459518
136	0x3ed976d2	0.42473465
137	0x3e632ad7	0.22184311
138	0x3e599984	0.21249968
139	0x3eae9f21	0.3410578
140	0x3e78bc32	0.24290541
141	0x3e92cb97	0.28670952
142	0x3eaef30a	0.341698
143	0x3ec2eb07	0.38069937
144	0x3e6d47c2	0.23171905
145	0x3e6e0866	0.23245391
146	0x3e9e69ee	0.30940193
147	0x3e9530c1	0.2913876
148	0x3e933032	0.28747708
149	0x3eb06589	0.34452465
150	0x3e5a939d	0.21345372
151	0x3e74d0d4	0.23907787
152	0x3e853566	0.26017302
153	0x3e9d62d9	0.30739477
154	0x3e82710e	0.2547688
155	0x3e842217	0.25807258
156	0x3eb7bea4	0.35887635
157	0x3e924a27	0.285722
158	0x3e98c41c	0.2983712
159	0x3e7d3445	0.2472697
160	0x3e90c430	0.2827468
161	0x3e932bb0	0.28744268
162	0x3e73d240	0.23810673
163	0x3e898a02	0.26863104
164	0x3e9d5aa9	0.3073323
165	0x3ec83ca1	0.39108756
166	0x3e85067b	0.25981507
167	0x3e6d7f0e	0.23192999
168	0x3e80ba26	0.2514202
169	0x3e9ecff5	0.31018034
170	0x3e5f72ec	0.21821183
171	0x3ea2406d	0.31689778
172	0x3e93e43e	0.28885072
173	0x3e8694bb	0.26285347
174	0x3e97ac91	0.29623845
175	0x3ece9f4b	0.40355906
176	0x3e99af5d	0.30016604
177	0x3e9336ee	0.28752846
178	0x3e8dd8a9	0.2770436
179	0x3e6bc66f	0.23024915
180	0x3e9fc7b8	0.3120706
181	0x3ed6b4ab	0.41934714
182	0x3ec68a00	0.3877716
183	0x3eb80eeb	0.35948882
184	0x3e964b08	0.2935412
185	0x3ecf5d83	0.4050103
186	0x3ebf763c	0.37394893
187	0x3e79d426	0.24397334
188	0x3e7b9b4f	0.24570964
189	0x3e9bd51b	0.30436024
190	0x3e85b56a	0.2611497
191	0x3e6fcebf	0.23418711
192	0x3ebd1631	0.36930993
193	0x3ea97be9	0.33102348
194	0x3e822c11	0.25424245
195	0x3e8b1edf	0.2717199
196	0x3e7887e0	0.24270582
197	0x3e95918c	0.29212606
198	0x3eba46a1	0.3638201
199	0x3e92e140	0.28687477
200	0x3e88ff7a	0.26757413
201	0x3e82c2d8	0.2553928
202	0x3e7fe64c	0.24990195
203	0x3ea90dd2	0.33018357
204	0x3e8c7f43	0.27440843
205	0x3eab5a75	0.3346745
206	0x3eb18ac6	0.34676188
207	0x3ea61901	0.3244095
208	0x3e7a356e	0.24434444
209	0x3ebaeabd	0.36507216
210	0x3ea72782	0.3264733
211	0x3e7fb415	0.2497104
212	0x3eb71d87	0.35764715
213	0x3e88ec09	0.2674258
214	0x3e8ccc14	0.2749945
215	0x3e9bfb79	0.30465296
216	0x3e9db7c9	0.3080428
217	0x3e915da4	0.28391755
218	0x3ee76717	0.4519584
219	0x3e759240	0.23981571
220	0x3ebdf537	0.37101147
221	0x3e96e508	0.29471612
222	0x3e8b43f8	0.27200294
223	0x3e6966ca	0.22793117
224	0x3e73d4bf	0.23811625
225	0x3e8dbf81	0.27685168
226	0x3e7f5a1f	0.24936722
227	0x3ea10592	0.31449562
228	0x3e6f4df1	0.23369576
229	0x3e8be5fd	0.27323905
230	0x3e73a026	0.2379156
231	0x3e6d5289	0.23176016
232	0x3ec34c4f	0.38144156
233	0x3e95951b	0.2921532
234	0x3e98d122	0.29847056
235	0x3ec6ffb1	0.38866952
236	0x3e8647a8	0.26226544
237	0x3e8b6695	0.272267
238	0x3e84f655	0.25969186
239	0x3eb5933b	0.3546389
240	0x3e999074	0.2999302
241	0x3e8bf254	0.2733332
242	0x3e88942d	0.2667555
243	0x3e7a04c4	0.2441588
244	0x3eb73cb7	0.3578851
245	0x3e8b604b	0.27221903
246	0x3e96b842	0.29437453
247	0x3ec695ac	0.38786066
248	0x3e7d2b65	0.24723585
249	0x3e8e8bd3	0.27841052
250	0x3e8ede02	0.27903754
251	0x3e91570c	0.28386724
252	0x3e6f6258	0.23377359
253	0x3e6ab403	0.22920232
254	0x3e9c5421	0.30532935
255	0x3e94fc96	0.29098958

weight f4 [256, 256]
0	0xbd3b0da0	-0.04566729
1	0xbaeec455	-0.001821647
2	0xbd376864	-0.04477729
3	0xbd03e307	-0.032198932
4	0x3ca664d4	0.02031175
5	0x3cea6ad8	0.0286154
6	0x3cd9b9fe	0.026577946
7	0xbd748967	-0.05970135
8	0xbc6e92d7	-0.014561377
9	0x3cdb09ac	0.02673801
10	0xbb9d7fc9	-0.004806493
11	0xbc9e9486	-0.01935793
12	0xbd0411ab	-0.032243412
13	0x3d731f2e	0.059355907
14	0xbd49417c	-0.049134716
15	0xbd498263	-0.049196612
16	0x3d37794a	0.044793405
17	0xbd1c6ca3	-0.03818954
18	0x3d1e321c	0.038622007
19	0xbd0cf640	-0.03441453
20	0xbc168424	-0.009186778
21	0xbcf6c9a4	-0.030125447
22	0x3d50c265	0.05096664
23	0x3d341720	0.043967366
24	0x3b0adc8a	0.002118858
25	0x3a8d9dee	0.0010804513
26	0xbcc37261	-0.023858251
27	0xbd0c79a0	-0.03429568
28	0xbcc56667	-0.02409668
29	0x3cac7f36	0.021056753
30	0xbc349a7e	-0.011023162
31	0x3d3061d3	0.043062042
32	0x3c0860be	0.008323846
33	0x3ada4bf2	0.0016654714
34	0xbd22f409	-0.03978351
35	0x3cc76a73	0.024342751
36	0xbd6ae400	-0.057346344
37	0x3c626fc2	0.01382059
38	0x3cbe9f8d	0.02326944
39	0x3c383dc3	0.011245194
40	0x3d37b9f4	0.044855073
41	0x3c82f695	0.01598672
42	0xbc944633	-0.01809988
43	0xbd316421	-0.04330838
44	0xbd71be93	-0.059019636
45	0x3d0338db	0.032036643
46	0x3d0f88bb	0.035042506
47	0xbd4736f2	-0.048636384
48	0x3c8a3c22	0.016874377
49	0xbcc09722	-0.023509566
50	0x3d5859c2	0.052819975
51	0xbcb6c61d	-0.022311265
52	0x3d55023f	0.052004095
53	0x3d31da43	0.04342104
54	0x3d0afb7c	0.03393124
55	0x3d329e81	0.043608192
56	0x3c99a800	0.018756866
57	0x3ca636c6	0.02028979
58	0xbd568f61	-0.05238283
59	0xbc7192e0	-0.01474449
60	0xbbd11f3f	-0.0063818987
61	0x3cf5451f	0.029940186
62	0xbcccf5fd	-0.02501964
63	0x3ced2b27	0.02895124
64	0x3d2c4691	0.042059485
65	0x3cd6726d	0.02617761
66	0x3d0437f9	0.032279942
67	0xbc09b1f6	-0.008404246
68	0x3cf0f389	0.029413002
69	0xbcb34540	-0.021883607
70	0x3d5ca0cc	0.053864285
71	0xbacc5116	-0.001558813
72	0xbb8f4f81	-0.0043734913
73	0xbd5e4de3	-0.054273497
74	0x3d6adbc5	0.057338495
75	0xbc1f6ea4	-0.009730969
76	0x3d42c640	0.047552347
77	0xbd2910df	-0.041275855
78	0xbd5431e4	-0.051805392
79	0xbc26d331	-0.010182188
80	0xbd4f104e	-0.05055266
81	0x3c37d41d	0.011220005
82	0xb88473d6	-6.3158266e-05
83	0xbcbfdc72	-0.023420546
84	0x3d1c61b7	0.038179126
85	0x3d287241	0.041124586
86	0xbd5e34b7	-0.05424949
87	0xbd48ec73	-0.04905362
88	0x3d15ba3b	0.036554556
89	0xbd1dc2d4	-0.03851588
90	0x3c3c0afb	0.011477227
91	0xbc8e0ba7	-0.01733954
92	0x3c2d74c1	0.010586918
93	0xbd0988cc	-0.033577725
94	0xba1c9176	-0.0005972603
95	0xbcb9a7d1	-0.022663029
96	0xbceafa48	-0.028683797
97	0xbcf388ea	-0.029728372
98	0x3c5b3409	0.013379105
99	0x3d21b402	0.03947831
100	0xbb06df89	-0.0020580015
101	0xbaadcaa3	-0.0013259243
102	0x3d54d4d9	0.0519608
103	0x3d4c2d51	0.049847905
104	0xbc23a27d	-0.009987471
105	0xbd506faa	-0.05088774
106	0x3c7d3efc	0.015456911
107	0x3c9b770f	0.01897767
108	0xbd4d5f16	-0.05013951
109	0xbd648a7b	-0.055796128
110	0x3bf696bb	0.0075252927
111	0x3d7bf516	0.06151303
112	0xbd681c17	-0.056667414
113	0xbcf31273	-0.029671883
114	0xbcb510b3	-0.02210269
115	0xbd62bebf	-0.05535769
116	0xbd1ec528	-0.03876224
117	0x3d45c06a	0.048279203
118	0x3d419196	0.047257982
119	0xbd3ea323	-0.046542298
120	0x39a1bd5f	0.00030849405
121	0xbd532304	-0.051547065
122	0x3cd0ac63	0.025472825
123	0xbd2f20df	-0.042755958
124	0xbd05c34f	-0.032656964
125	0xbcf10491	-0.029421123
126	0x3c17be59	0.009261691
127	0x3d2afcc8	0.041744977
128	0xbcd373c1	-0.025812032
129	0x3c319e97	0.010841033
130	0x3d4b13ba	0.04957936
131	0xbb80a7d5	-0.003926257
132	0x3bb95c22	0.005656735
133	0x3b73cd4b	0.0037201222
134	0xbae91936	-0.0017784003
135	0x3d1b85ea	0.037969507
136	0x3d085a56	0.033289276
137	0xbd0baa8b	-0.03409819
138	0x3d718611	0.058965746
139	0x3d135ea1	0.035978917
140	0xbc2b53d3	-0.010456997
141	0x3d5b47f2	0.05353541
142	0x3b227350	0.002478797
143	0x3d25f8b8	0.0405204
144	0xbd55b99f	-0.052178975
145	0x3d66b714	0.05632694
146	0x3d745497	0.059650984
147	0xbd419a3c	-0.04726623
148	0xbd63c76c	-0.055610105
149	0xbc9d188d	-0.019176746
150	0xbd1f9681	-0.03896189
151	0x3c89c779	0.016818749
152	0x3cdd4b73	0.027013516
153	0xbbf06978	-0.0073367916
154	0x3d31e0b7	0.043427195
155	0x3af07a99	0.0018347084
156	0xbc8fbe3e	-0.01754677
157	0xbd5a9698	-0.053366274
158	0x3ca2b8da	0.019863535
159	0xbd73ca2d	-0.05951898
160	0xba820964	-0.0009921012
161	0x3c2301ab	0.009949128
162	0xbd12ce74	-0.03584142
163	0x3ca27447	0.019830836
164	0x3c4a0579	0.012330406
165	0x3d2f6674	0.042822316
166	0x3d1e1661	0.03859556
167	0xbd4f7415	-0.050647814
168	0xbd39fb0e	-0.04540544
169	0xbcb75d85	-0.02238346
170	0xbd368743	-0.04456259
171	0x3ca2f51e	0.019892272
172	0xbd243f6c	-0.040099546
173	0xbd45b573	-0.048268747
174	0x3c9d77f6	0.01922224
175	0x3d1bd6f8	0.038046807
176	0xbc9ccd16	-0.019140761
177	0xbd7c122b	-0.061540764
178	0x3c200fc4	0.009769384
179	0x3d06a4cd	0.03287201
180	0x3d4bad20	0.04972565
181	0x3be08da8	0.0068528242
182	0x3d3304c2	0.04370571
183	0xbd670073	-0.056396913
184	0x3d76153e	0.060078852
185	0xbd2784c7	-0.04089811
186	0xbd311e09	-0.043241534
187	0x3d342778	0.043982953
188	0xbc5beb51	-0.013422803
189	0x3d21d723	0.03951181
190	0xbd306e18	-0.043073744
191	0x3d3ec11a	0.046570875
192	0x3d738509	0.059453044
193	0x3c9339a2	0.017971817
194	0x3d4d9768	0.05019322
195	0xbd3a3bd7	-0.045467224
196	0xbc7041ec	-0.0146641545
197	0x3c9ae16c	0.018906318
198	0x3d0fca5b	0.03510509
199	0xbd0bb3d4	-0.034107044
200	0x3d1f8f66	0.038955115
201	0xbcad6ed5	-0.021171013
202	0xbd0b734b	-0.0340455
203	0x3c56cc79	0.0131102735
204	0xbd49f68b	-0.049307387
205	0xbd6eced7	-0.058302727
206	0x3caa2b70	0.020772666
207	0x3cb65ca8	0.022260979
208	0x3cbf5428	0.023355559
209	0xbbfe81e1	-0.0077669476
210	0xbd372756	-0.044715248
211	0xbd4da046	-0.050201677
212	0x3d7552ac	0.059893295
213	0xbd6161a1	-0.055024747
214	0x3c9ffa61	0.01952857
215	0x3d4c52e7	0.04988375
216	0x3d45d670	0.048300207
217	0xbd23bfaf	-0.039977726
218	0xbcab1a63	-0.020886606
219	0xbd50b134	-0.050950244
220	0x3d1d84d7	0.038456764
221	0xbd6dc852	-0.05805237
222	0xbd677bcf	-0.056514557
223	0xbd2dc4ef	-0.04242414
224	0x3d5162d4	0.05111964
225	0x3d2592f9	0.040423367
226	0x3d2b00ce	0.041748814
227	0x3d4139d5	0.047174294
228	0xbcf324a3	-0.029680556
229	0xbd12e0dc	-0.035858974
230	0xbd1f2096	-0.038849436
231	0x3ca4430e	0.020051505
232	0x3cc97126	0.024590086
233	0x3c445b72	0.011984693
234	0xbd460623	-0.048345696
235	0x3bcdbada	0.006278378
236	0xbd03fa83	-0.03222133
237	0xbc51c238	-0.012802653
238	0xbc0e601c	-0.008689906
239	0x3b829009	0.0039844555
240	0xbd5ff622	-0.05467809
241	0x3d5b6d45	0.053571004
242	0xbcd4d3a0	-0.025979817
243	0x3c9a7d1c	0.018858485
244	0x3d347656	0.044058166
245	0x3cd622c3	0.026139623
246	0x3d315aef	0.04329961
247	0x3d14346e	0.036182813
248	0x3d3ec58f	0.046575125
249	0x3c681774	0.014165748
250	0x3d229996	0.039697252
251	0xbce117e5	-0.027477214
252	0xbd0af8be	-0.033928625
253	0x3cfb57c2	0.030681495
254	0x3c89c427	0.016817166
255	0xbb542cd3	-0.003237535
