models/models_lower_params/AWT/MULTI_SPECIES_MLP/model.pt (torch, 328535 bytes, 10 tensors)

weight f4 [256, 13]
000000 f0 53 58 3e bb 96 6c 3e ed 4e 86 bd f9 03 82 3e
       0.2112577 0.23104374 -0.06558023 0.25393656
000010 28 b4 7b bd ad 33 65 3d 3e 93 0a be 2f 32 27 3e
       -0.061451107 0.055957485 -0.13532731 0.16327737
000020 02 14 7a 3e 1f da 4f be 87 80 77 3e 0d 56 52 3d
       0.24421695 -0.2029805 0.24170123 0.051351596
000030 09 7f 52 3e 3d f9 1c 3d 9f 28 08 3e 01 5e 1d bd
       0.20556273 0.03832363 0.13296746 -0.038419727
000040 2a ae 5b 3e 41 e3 24 3d 51 a5 03 be a3 16 8f 3d
       0.21453157 0.04025579 -0.12856032 0.069867395
000050 4a f1 01 be 84 80 01 bd cf 7d e8 bd ec 03 3c 3e
       -0.126897 -0.031616703 -0.11352121 0.18360871
000060 ef e1 60 be de 69 03 be 61 12 a2 bd a9 38 2a be
       -0.21961187 -0.12833354 -0.07913662 -0.16623177
000070 b2 da cf 3c 64 ad 8c be 91 9c 7f 3e 00 3b 72 be
       0.025372837 -0.27476037 0.24962069 -0.23655319
000080 4a 79 5a 3e 9b 6e 40 3d 74 77 b7 bd 9f b4 2e 3e
       0.2133533 0.04698048 -0.08958331 0.17061089
000090 42 8d 2d 3d c9 b5 64 3e 17 83 f0 3c b8 29 b4 bd
       0.042371042 0.2233497 0.029359384 -0.0879702
0000a0 3b 73 97 3d 9b 28 9b bd b7 6a ee 3d c9 28 7e 3e
       0.07395025 -0.07576104 0.11641448 0.24820246
0000b0 a7 61 23 3e ed 55 f7 bd 09 42 23 3e 14 a4 48 3d
       0.1595522 -0.12076936 0.15943159 0.048984602
0000c0 9b c7 10 3e 74 fe 2d be 8b 0d 8d be 0e e9 db bd
       0.14138643 -0.16991597 -0.27549395 -0.10737811
0000d0 f0 43 5a be 38 2a 69 3e 07 b6 a2 3d 51 9e ea 3d
       -0.21314979 0.22770011 0.07944875 0.11455978
0000e0 55 49 b4 3d cd 02 9b bb 19 89 5e 3e e5 2a 4a be
       0.088030495 -0.0047305585 0.21731986 -0.19742925
0000f0 90 b1 89 3c be 31 41 be ca f7 ae 3d 1f 76 c3 bd
       0.016808301 -0.18866631 0.08543356 -0.09544014
000100 d0 07 ae 3d f0 e0 6c bd 75 5b 6c 3e 26 5d 28 be
       0.08497584 -0.057831705 0.23081763 -0.16441783
000110 e8 91 29 be 5b 9a 29 be ae c4 7f 3e 5f af bc 3d
       -0.16559565 -0.16562788 0.24977371 0.09213137
000120 38 cb 88 3e 74 46 6a be e6 c6 8c be 77 c3 5d be
       0.26717544 -0.22878438 -0.27495497 -0.21656595
000130 b5 25 3e be 56 02 e8 3d e8 5d c9 3d 41 ea 6c 3e
       -0.18569072 0.113285705 0.09832364 0.23136236
000140 36 aa 13 be 3a a1 42 be f0 4d 17 3e 09 af e5 bd
       -0.14420399 -0.19006816 0.14775825 -0.11215026
000150 47 8e 2c 3e 39 84 88 bd d7 88 21 3e c8 da 5b be
       0.1685115 -0.066658445 0.15774857 -0.21470177
000160 9c d5 0e be 06 37 ab 3d e6 93 71 3d 47 e6 8e bd
       -0.13948673 0.08360104 0.058978938 -0.06977516
000170 03 4b 2a 3e b7 07 42 3e 5e 06 4d be 9a b5 16 be
       0.16630177 0.18948255 -0.2002196 -0.14717713
000180 e4 5c 82 3e 6e 03 be bd a0 de ca bd c2 3f 89 be
       0.25461495 -0.09277998 -0.099057436 -0.26806456
000190 8a f9 21 be 0a 76 8e 3d 77 9a 14 bd 73 bd 4d be
       -0.15817848 0.06956108 -0.03628012 -0.200918
0001a0 ac a6 ca 3b 44 70 41 be da 55 71 be a8 b3 1c be
       0.0061844196 -0.18890482 -0.23567906 -0.15302908
0001b0 9b 91 77 be 7d 84 35 be 50 7a 8e 3e 73 71 52 3d
       -0.24176638 -0.17726322 0.27827692 0.051377725
0001c0 4a 7a ad 3d 08 ec 83 be 70 1e 3b be f9 35 bd bd
       0.084705904 -0.25766015 -0.1827333 -0.0923881
0001d0 0e 35 2f 3d 70 61 79 be cf d8 f2 bd 81 4d 29 be
       0.042775206 -0.24353576 -0.11857759 -0.16533472
0001e0 42 ae 83 3a aa c0 d2 bd 0b 90 9b bc 8f 21 40 be
       0.001004644 -0.10290654 -0.018989583 -0.18762802
0001f0 a5 0e 43 be 60 2f 26 be ab 4b c1 bd 97 6e 5f be
       -0.19048555 -0.1622901 -0.09438261 -0.2181953
000200 04 fc 6e 3e 7d 39 5e bd 81 55 73 3e 94 4e b1 3d
       0.23338324 -0.054254044 0.23763086 0.08657566
000210 3a 5a 71 be 4a 98 43 3e d5 2f 9e bd 13 ae d8 bd
       -0.23569575 0.19101062 -0.07723967 -0.10580077
000220 8d a0 6c be 2f b8 8c be 78 cb a3 3d 45 38 7b bd
       -0.2310812 -0.2748427 0.07997793 -0.06133296
000230 d8 9d de 3d 94 9c 69 be 30 b1 52 3e 7b 39 50 be
       0.1086995 -0.22813636 0.20575404 -0.20334427
000240 f5 4e 44 bd 6f 66 6d 3d 66 08 13 3e d3 34 66 3e
       -0.04792686 0.057959016 0.14358672 0.22481088
000250 68 39 81 3e a8 5d 60 be 05 1f 8d 3d cb 26 f5 bd
       0.2523911 -0.21910727 0.06890682 -0.1197029
000260 99 a1 f4 bc c8 6e 54 be fd 72 81 3e c8 27 50 be
       -0.029862212 -0.20745385 0.25283042 -0.20327675
000270 81 d0 16 3e 96 77 c9 3d c5 af b6 3d 4c 82 1a be
       0.14727975 0.09837262 0.08920244 -0.15088767
000280 2f a1 80 3e 11 da 7b 3d e2 d7 0e 3d 09 6d 79 be
       0.25122973 0.06148726 0.03487385 -0.24358
000290 78 c6 ef 3d 02 d8 2c bd e2 f1 02 be e7 cf 74 3e
       0.11707777 -0.04219819 -0.12787583 0.23907433
0002a0 23 95 7b 3d 58 18 1c be 9d c2 10 be 1a 72 48 bc
       0.061421525 -0.15243661 -0.14136739 -0.012234235
0002b0 6c 9d 1f 3e 5f 53 8f bd ca 13 21 be a6 70 c1 bd
       0.15587395 -0.06998324 -0.15730205 -0.09445314
0002c0 fe f7 54 be 26 2e cc 3d f5 fb 5a 3e 33 36 85 be
       -0.20797727 0.099697396 0.21385176 -0.26017913
0002d0 44 d6 82 3d d8 ad 13 3e 39 b7 51 3d 45 dc cb bd
       0.06388524 0.14421785 0.051200125 -0.099541225
0002e0 04 20 15 3e a9 33 16 3e d8 1f d3 3d ee ac 43 bd
       0.14562994 0.14668144 0.10308808 -0.04777234
0002f0 46 e6 97 bd ef 33 f8 3c 4b 04 45 bd a4 e1 aa bd
       -0.07416968 0.030298201 -0.048099797 -0.08343819
000300 06 86 34 3e 77 42 73 3e 0b d4 e5 bc 4c 89 80 bd
       0.17629251 0.23755823 -0.028055212 -0.06276187
000310 2e ff 81 3b 8e 66 8d bc bf 7c 87 3d 5f 8b a0 3d
       0.0039671874 -0.017260816 0.0661559 0.07839083
000320 cf 75 81 be 5c d7 cf bd 9c 52 6e 3e 7a 5c db 3d
       -0.25285193 -0.101484984 0.232737 0.10710998
000330 4a b5 52 bc 2e 47 2c be 64 fb 2c be 40 77 7f be
       -0.0128606055 -0.16824028 -0.16892773 -0.24947834
000340 62 f0 b7 bd af 58 be 3d 52 a7 35 3e 18 ce 03 3e
       -0.08981396 0.09294259 0.17739609 0.12871587
000350 18 06 7b be 48 4f 2a be 63 f1 35 bd aa b9 89 3e
       -0.24514043 -0.16631806 -0.044419657 0.26899463
000360 5e 8d 26 3d 46 89 94 bd 7a 46 ec 3d 52 cb d7 bd
       0.040662162 -0.07252745 0.1153688 -0.10536827
000370 e1 52 37 be 4b 38 50 3e c5 1f 02 be 24 2a 60 bd
       -0.1790271 0.20333974 -0.12707432 -0.05472769
000380 d7 cc 8c be 76 6e 3e 3e 25 25 57 3e d3 3b cf 3d
       -0.2750003 0.18596825 0.21010263 0.101188324
000390 46 5c 46 be fb fb 8b be 67 0c 67 be fd 48 54 3e
       -0.19371137 -0.27340683 -0.22563325 0.20730968
0003a0 4c 74 07 3e bd e4 6e 3e 4d b7 13 3e 0d 95 90 3d
       0.13227957 0.23329444 0.14425392 0.07059679
0003b0 76 5e 76 bb bf 0d 59 be 8e 14 74 be cf c5 84 be
       -0.0037592924 -0.2119665 -0.23835966 -0.25932166
0003c0 eb 3e e7 3d 90 e0 0a be 09 8c 64 bd 34 b9 23 be
       0.112912975 -0.13562226 -0.05579761 -0.15988618
0003d0 60 5c 4d bd 67 68 47 be 4c 71 39 be c6 89 bc 3d
       -0.050136924 -0.1947342 -0.18109626 0.09205966
0003e0 1f c9 a7 bd 90 6e 2f 3e 41 4b b6 bd 1b ba 4f be
       -0.08192658 0.1713202 -0.08901072 -0.20285837
0003f0 c0 4f 48 bd 03 0b 09 be a8 82 ae bd 69 2e 87 be
       -0.04890418 -0.13383107 -0.085210145 -0.26402596

bias f4 [256]
000000 0a 7d 8b 3e bb c0 81 be d5 6e 84 3e 1c 73 5e be
       0.27243835 -0.25342354 0.25865808 -0.21723598
000010 60 2c 89 bd 8c 32 e7 bd ab 24 17 be 8f 91 c8 3d
       -0.06697917 -0.11288938 -0.14760081 0.09793388
000020 39 64 25 3e 57 84 3b be 9d 50 03 be cb be 10 3e
       0.16151513 -0.18312202 -0.1282372 0.14135282
000030 24 8d 0a bd a7 ff 8a 3d fb 6b 15 3e d8 4d d0 bd
       -0.03382601 0.06787043 0.14591973 -0.101710975
000040 12 e9 1c be 4b 7f cf 3d bf 7a ce bd 4b 01 3e be
       -0.15323284 0.10131701 -0.10082006 -0.1855518
000050 72 5d 0e be 5e 0e 04 be 9d c8 8d 3e 64 f5 5a 3d
       -0.13902834 -0.12896106 0.27692118 0.05345668
000060 3a 83 f5 3d 55 5b 1c 3d e9 b3 3e be 19 68 4d 3e
       0.1198792 0.03817304 -0.18623318 0.20059241
000070 6f 9e 2e bd fc 68 94 bd a6 89 67 3e 7b 76 10 be
       -0.042631563 -0.07246587 0.22611102 -0.14107697
000080 02 e1 66 3d db e7 70 be db c2 10 3e 91 21 e0 3d
       0.056366928 -0.23525946 0.14136831 0.10943902
000090 ae 8b 6a be 22 60 1f 3e dc d1 ff 3c b9 af 12 be
       -0.22904846 0.15564016 0.031227998 -0.14324845
0000a0 33 8e 72 3e a2 c1 f2 3d 52 94 c8 3d 98 5d d2 bd
       0.23687057 0.11853339 0.09793915 -0.10271758
0000b0 74 4f 1b be cd 72 18 be fc 2f d6 3d 4e a7 99 3d
       -0.15167028 -0.14887543 0.10458371 0.07502614
0000c0 38 13 2a be b2 3a 81 3e 6c b6 24 3e ae ed da bd
       -0.16608894 0.25240093 0.16085213 -0.10689865
0000d0 99 7b 13 3e a8 87 f2 bd 36 3b b4 3d a2 9d 6b 3e
       0.14402618 -0.118422806 0.08800356 0.23009351
0000e0 de 5e 7a be 52 de 0c be 4b 3e 73 bc d9 61 26 3d
       -0.24450251 -0.13756683 -0.014846395 0.04062066
0000f0 31 0f 69 be e5 e8 39 be 4c fa e1 bc 68 c1 23 bd
       -0.22759701 -0.18155248 -0.027585171 -0.03997937
000100 5e 7f 75 3d ee b6 0c 3d 53 09 6d 3d a3 ba 9d 3c
       0.05993592 0.034354143 0.05787022 0.019254034
000110 bb 24 02 3d 24 03 88 bc 6f 54 cc 3d c5 45 41 3e
       0.03177331 -0.01660306 0.09977042 0.18874271
000120 8e c2 0c be cf ce 12 be f0 1b f9 3d 28 3b 4e be
       -0.13746092 -0.14336704 0.12163532 -0.20139754
000130 d0 a9 37 3e 3a 77 02 3e cd e5 22 3d 70 2a f5 bd
       0.17935872 0.12740794 0.039769936 -0.11970985
000140 4a 9e 06 3c d5 76 61 be d8 42 80 be bf 7e 85 3e
       0.00821645 -0.22017987 -0.25050998 0.26073262
000150 5e f0 7d be 75 f8 6a be a5 5b dc bd a5 40 75 3c
       -0.24798724 -0.22946341 -0.10759667 0.014969026
000160 3d 87 80 3d 2b fe 0a be 86 49 d5 bc 09 28 7f bd
       0.06275795 -0.1357352 -0.026036035 -0.06229404
000170 6e 89 6e 3e b9 9f 75 3e b4 3f ea 3d d8 dd 81 ba
       0.23294613 0.2398671 0.11437932 -0.0009908034
000180 51 06 56 3e 80 a6 65 be 37 cf eb 3d 9c fd 25 be
       0.20900847 -0.22426796 0.115141325 -0.16210026
000190 dd 0b 5d 3e 72 4d 7b be 2d d7 d4 3d 0f 74 69 be
       0.21586557 -0.24541262 0.10392604 -0.22798179
0001a0 b3 04 26 3e f3 9a 53 3d 63 37 73 3e f9 a7 55 be
       0.1621273 0.051661443 0.23751597 -0.20864858
0001b0 91 55 37 3e b0 ba 3c be 47 64 18 be 7c f9 d8 3d
       0.17903735 -0.1843059 -0.14882003 0.1059446
0001c0 fa cb 40 bd 7b d5 60 be 72 31 71 be c5 95 94 bd
       -0.047069527 -0.21956436 -0.23554018 -0.07255129
0001d0 5c 2c 9f 3d 1d c5 78 3e 0a 36 50 3e cf eb 82 3b
       0.07772133 0.24293943 0.20333114 0.0039953957
0001e0 d1 75 2d be 1e 61 7c be 7b 08 7d 3e 23 20 1e be
       -0.16939475 -0.24646422 0.24710266 -0.15441947
0001f0 13 d9 49 bd bb c9 65 be e4 76 43 be fc 9f 5f 3d
       -0.049279284 -0.22440235 -0.19088322 0.054595932
000200 a2 f1 8c bd b8 fc 02 3d d0 d9 44 bb 58 db 58 3c
       -0.06882025 0.031979293 -0.0030037053 0.013235889
000210 17 1f 5f bd 73 8e 2e bc a6 c8 f8 3d 10 ee 4f 3e
       -0.05447301 -0.01065408 0.12147646 0.20305657
000220 37 21 6f 3e a5 bf 67 be d9 5e 6f be 66 82 2d bd
       0.23352514 -0.226317 -0.23376025 -0.042360686
000230 bc b3 a7 bc a1 2f 1c 3e 99 bb 85 3e d2 76 93 3d
       -0.020471446 0.15252544 0.26119688 0.072003976
000240 bb b9 48 be 4d 66 ff bc e4 8e 37 3e 75 b6 cf 3d
       -0.196021 -0.03117671 0.17925602 0.10142223
000250 b1 a3 48 be ec 9b 7c 3c d0 8c 89 be fc 6e e3 bd
       -0.19593693 0.015418034 -0.26865244 -0.11105153
000260 84 38 47 3e f7 27 f6 bd f6 c3 2d 3e d7 a9 68 be
       0.19455153 -0.120193414 0.16969284 -0.22721039
000270 6f f4 7a 3e 68 c6 07 3e 61 07 37 3e e5 0f 9a 3d
       0.24507307 0.1325928 0.17873909 0.07522563
000280 86 5a 9d 3c 00 e5 0a be 8e 6d 1c be 6f 48 43 be
       0.019208204 -0.13563919 -0.15276167 -0.190706
000290 18 b5 69 3e 0c 3f c3 bd 6a f0 e5 3b f2 10 85 be
       0.22822988 -0.095335096 0.007017185 -0.2598949
0002a0 4d 60 9a 3d ff 6c c1 bd e9 41 62 be d1 33 10 3d
       0.07537899 -0.094446175 -0.22095455 0.035205666
0002b0 11 f2 82 be d1 3d da bc 95 86 67 be dd 06 34 3e
       -0.25575307 -0.026640804 -0.22609933 0.17580743
0002c0 86 93 61 be 89 46 3c 3d a0 a8 0b 3e 46 5f 62 be
       -0.22028932 0.045965705 0.13638544 -0.22106656
0002d0 0f 8e 38 3e 01 11 68 3e 41 e9 2e be 63 ee c2 3c
       0.18022941 0.22662736 -0.17081167 0.023795312
0002e0 f8 dc ad 3d 0a 0b 6c 3e 6d d5 5e 3e fd bd 6e be
       0.08489412 0.23051086 0.21761103 -0.23314662
0002f0 f0 9b 67 be c9 1c 7c be 57 ff fd bd 57 a7 65 bd
       -0.22618079 -0.24620356 -0.12402218 -0.05606779
000300 0e fe c9 bd 62 96 3a 3e 33 8e 44 be 39 be 61 be
       -0.0986291 0.18221429 -0.1919487 -0.2204522
000310 af 06 5d be c6 dc 27 be e4 25 8b 3e 07 7e 13 3d
       -0.21584581 -0.16392812 0.27177346 0.03600886
000320 a1 ba 48 bd d1 7f a6 bd 5f 44 59 be 5b d7 c0 bd
       -0.04900611 -0.08129848 -0.21217488 -0.09416076
000330 df 9d 14 3e d4 92 40 3e 51 12 4c 3e e1 c0 a8 3c
       0.14513348 0.1880601 0.19928862 0.020599784
000340 0b 22 1b be 59 82 28 be cc db 89 3e 0b 9e 80 be
       -0.15149705 -0.16455974 0.26925504 -0.25120577
000350 23 48 87 3d 89 0b d2 bc 79 70 83 3e 77 19 27 3e
       0.06605556 -0.025640266 0.25671747 0.16318308
000360 a0 2d 8f bd 26 ec 6b be 6f 05 11 3d 87 bb 45 be
       -0.06991124 -0.23039302 0.035405573 -0.19309817
000370 0f 6f ee bc de 5e 8f 3d d4 8e 0b 3e d1 b0 9a bd
       -0.029105691 0.07000516 0.13628703 -0.07553256
000380 30 b0 40 be ed a6 72 be 91 57 86 be 49 95 0a 3d
       -0.1881721 -0.2369649 -0.26238683 0.033833776
000390 9e 88 2d be 1b 72 35 3c bf 92 06 be d4 3e 3f be
       -0.16946647 0.011074568 -0.13141917 -0.18676311
0003a0 b0 7a 40 3e bf 40 21 3e a1 d6 46 3e 1f 3c 88 3e
       0.18796802 0.15747355 0.19417812 0.2660837
0003b0 05 9f 4d be 35 d8 17 be 68 54 56 be 22 33 3f 3e
       -0.20080192 -0.1482857 -0.20930636 0.1867185
0003c0 94 54 26 3e f8 bc 66 3e 40 a4 47 be 2b a1 17 be
       0.16243201 0.22533023 -0.1949625 -0.14807574
0003d0 39 9f 8a 3e 7b 59 61 be bc d8 3d be d6 bf cf 3d
       0.27074602 -0.2200679 -0.18539709 0.10144012
0003e0 fc ae 77 be 29 87 a2 bd 4c f6 f2 3d 1e 88 68 3e
       -0.24187845 -0.07935936 0.11863384 0.22708175
0003f0 ab 57 03 bd 8b b9 7b be 82 4b 21 3e 9b a4 8d 3e
       -0.03206603 -0.24582498 0.1575146 0.27664647

weight f4 [256]
000000 1d fb 7f 3f 03 f7 7f 3f e6 19 80 3f fb f1 7f 3f
       0.99992543 0.99986285 1.0007904 0.9997861
000010 ea 1b 80 3f d7 1c 80 3f 64 f1 7f 3f a5 f1 7f 3f
       1.0008519 1.0008801 0.9997771 0.99978095
000020 ed 1d 80 3f 95 be 7f 3f 48 c5 7f 3f a9 0a 80 3f
       1.0009133 0.9990018 0.999104 1.0003253
000030 ab d0 7f 3f fb dc 7f 3f 85 22 80 3f 83 04 80 3f
       0.9992778 0.99946564 1.0010535 1.0001377
000040 18 1c 80 3f 8b 11 80 3f f8 1f 80 3f f2 bd 7f 3f
       1.0008574 1.0005354 1.0009756 0.9989921
000050 7b 20 80 3f 9d 04 80 3f c7 c3 7f 3f 0b 13 80 3f
       1.0009912 1.0001408 0.9990811 1.0005811
000060 40 15 80 3f b3 20 80 3f d4 e1 7f 3f 0c 22 80 3f
       1.0006485 1.0009979 0.9995396 1.001039
000070 23 d3 7f 3f e5 db 7f 3f ec dd 7f 3f 2a f1 7f 3f
       0.99931544 0.9994491 0.99948 0.9997736
000080 65 1a 80 3f 91 d7 7f 3f 96 21 80 3f b2 21 80 3f
       1.0008055 0.99938303 1.001025 1.0010283
000090 a9 c2 7f 3f 6f 1f 80 3f c3 18 80 3f 67 03 80 3f
       0.999064 1.0009593 1.0007557 1.0001038
0000a0 d7 08 80 3f 46 08 80 3f fd c7 7f 3f e9 c3 7f 3f
       1.0002698 1.0002525 0.9991453 0.9990831
0000b0 ba d0 7f 3f 07 c2 7f 3f 0c 11 80 3f 23 c5 7f 3f
       0.99927866 0.9990544 1.0005202 0.9991018
0000c0 60 ee 7f 3f 91 ef 7f 3f 41 1f 80 3f 4a f9 7f 3f
       0.99973106 0.99974924 1.0009538 0.9998976
0000d0 f8 bd 7f 3f 38 c7 7f 3f 97 0c 80 3f f1 0f 80 3f
       0.99899244 0.9991336 1.0003842 1.0004865
0000e0 4a ce 7f 3f ee 1d 80 3f 35 f0 7f 3f a5 d6 7f 3f
       0.9992415 1.0009134 0.999759 0.99936897
0000f0 b6 e3 7f 3f 94 21 80 3f 67 f9 7f 3f 47 cf 7f 3f
       0.99956834 1.0010247 0.9998993 0.99925655
000100 ad 0c 80 3f d5 db 7f 3f 2b 20 80 3f 07 1f 80 3f
       1.0003868 0.9994481 1.0009817 1.0009469
000110 1f bd 7f 3f 19 ce 7f 3f f8 10 80 3f 59 bf 7f 3f
       0.9989795 0.99923855 1.0005178 0.9990135
000120 95 1c 80 3f d4 cc 7f 3f 1d cb 7f 3f 47 c4 7f 3f
       1.0008723 0.9992192 0.999193 0.9990887
000130 7a 16 80 3f 10 0f 80 3f f0 f6 7f 3f 0f 04 80 3f
       1.0006859 1.0004597 0.9998617 1.0001239
000140 e4 16 80 3f 1a cf 7f 3f e1 c9 7f 3f 7a be 7f 3f
       1.0006986 0.99925387 0.9991742 0.9990002
000150 a4 ee 7f 3f 61 ef 7f 3f 1f 09 80 3f 47 bc 7f 3f
       0.9997351 0.9997464 1.0002784 0.99896663
000160 3b fc 7f 3f 41 22 80 3f f9 14 80 3f b9 1f 80 3f
       0.9999425 1.0010453 1.00064 1.0009681
000170 0c cb 7f 3f 15 c1 7f 3f ac 05 80 3f 07 07 80 3f
       0.999192 0.99903995 1.0001731 1.0002145
000180 0c 1f 80 3f 27 0f 80 3f 2b ef 7f 3f 45 bc 7f 3f
       1.0009475 1.0004624 0.99974316 0.9989665
000190 ad c7 7f 3f 68 c0 7f 3f e6 e7 7f 3f e7 fd 7f 3f
       0.99914056 0.99902964 0.99963224 0.999968
0001a0 54 f1 7f 3f e8 1c 80 3f ae 11 80 3f a3 d3 7f 3f
       0.9997761 1.0008821 1.0005395 0.99932307
0001b0 28 08 80 3f d1 20 80 3f 82 22 80 3f 3e be 7f 3f
       1.0002489 1.0010015 1.0010531 0.9989966
0001c0 fb f1 7f 3f 55 1d 80 3f 11 00 80 3f 54 c2 7f 3f
       0.9997861 1.0008951 1.000002 0.99905896
0001d0 e0 04 80 3f f6 ec 7f 3f cc 0c 80 3f 9d e1 7f 3f
       1.0001488 0.9997095 1.0003905 0.99953634
0001e0 f4 cf 7f 3f b4 c0 7f 3f 3f 1f 80 3f 07 d2 7f 3f
       0.99926686 0.99903417 1.0009536 0.9992985
0001f0 fe 10 80 3f 3e e9 7f 3f 1f 22 80 3f 1b 00 80 3f
       1.0005186 0.99965274 1.0010413 1.0000032
000200 34 bf 7f 3f 53 f5 7f 3f 6f c6 7f 3f 9d d2 7f 3f
       0.9990113 0.9998371 0.9991216 0.99930745
000210 d1 c5 7f 3f d8 f6 7f 3f b2 1f 80 3f 79 1b 80 3f
       0.9991122 0.9998603 1.0009673 1.0008384
000220 cd d9 7f 3f 6d 02 80 3f d8 19 80 3f f5 c5 7f 3f
       0.9994171 1.000074 1.0007887 0.99911433
000230 12 ec 7f 3f 08 04 80 3f 3e 1e 80 3f 8f c8 7f 3f
       0.9996959 1.000123 1.0009229 0.99915403
000240 e9 d2 7f 3f 81 02 80 3f fa 11 80 3f 78 c5 7f 3f
       0.999312 1.0000764 1.0005486 0.9991069
000250 7f d0 7f 3f 00 c3 7f 3f fa 1f 80 3f e0 db 7f 3f
       0.99927515 0.9990692 1.0009758 0.9994488
000260 83 ba 7f 3f f4 1f 80 3f 6f 13 80 3f 67 d2 7f 3f
       0.9989397 1.0009751 1.0005931 0.99930423
000270 e0 1e 80 3f bc f5 7f 3f e0 ea 7f 3f b8 ff 7f 3f
       1.0009422 0.99984336 0.99967766 0.9999957
000280 3c c2 7f 3f 8c cb 7f 3f bb 0a 80 3f 61 f2 7f 3f
       0.99905753 0.9991996 1.0003275 0.99979216
000290 d2 cb 7f 3f 3d ea 7f 3f 32 07 80 3f 25 14 80 3f
       0.9992038 0.99966794 1.0002196 1.0006148
0002a0 28 e0 7f 3f 57 cb 7f 3f f2 cd 7f 3f 44 eb 7f 3f
       0.9995141 0.99919647 0.9992362 0.9996836
0002b0 48 14 80 3f 70 01 80 3f 96 04 80 3f 52 07 80 3f
       1.0006189 1.0000439 1.00014 1.0002234
0002c0 5a c0 7f 3f 14 e5 7f 3f 68 c9 7f 3f fb 02 80 3f
       0.9990288 0.9995892 0.99916697 1.000091
0002d0 c3 c2 7f 3f fd e4 7f 3f 36 cb 7f 3f 95 18 80 3f
       0.9990656 0.99958783 0.9991945 1.0007502
0002e0 f6 1e 80 3f 6b eb 7f 3f 21 0f 80 3f 7c 04 80 3f
       1.0009449 0.99968594 1.0004617 1.0001369
0002f0 8e d1 7f 3f 17 ce 7f 3f 0f d9 7f 3f b1 f1 7f 3f
       0.9992913 0.99923843 0.9994058 0.99978167
000300 43 20 80 3f 16 da 7f 3f 6f 13 80 3f 0c 1c 80 3f
       1.0009845 0.9994215 1.0005931 1.0008559
000310 a5 21 80 3f a5 0f 80 3f 69 05 80 3f ea ef 7f 3f
       1.0010267 1.0004774 1.0001651 0.99975455
000320 c6 1e 80 3f 50 c7 7f 3f f7 cd 7f 3f 41 1a 80 3f
       1.0009391 0.999135 0.9992365 1.0008012
000330 50 cc 7f 3f 27 c2 7f 3f dd c4 7f 3f 83 1d 80 3f
       0.9992113 0.9990563 0.99909765 1.0009006
000340 14 bd 7f 3f 8d d5 7f 3f e3 d9 7f 3f b6 05 80 3f
       0.99897885 0.9993523 0.99941844 1.0001743
000350 90 07 80 3f 1d ed 7f 3f 44 bb 7f 3f a3 1e 80 3f
       1.0002308 0.9997118 0.9989512 1.000935
000360 3c 09 80 3f df e1 7f 3f 7c 1a 80 3f ee 0b 80 3f
       1.0002818 0.99954027 1.0008082 1.0003641
000370 b2 10 80 3f c1 f5 7f 3f e7 16 80 3f a3 c7 7f 3f
       1.0005095 0.99984366 1.0006989 0.99913996
000380 a9 c1 7f 3f ac d3 7f 3f a3 00 80 3f e8 c0 7f 3f
       0.99904877 0.9993236 1.0000194 0.99903727
000390 47 bd 7f 3f bc 14 80 3f 32 ca 7f 3f 05 e4 7f 3f
       0.9989819 1.0006328 0.999179 0.99957305
0003a0 50 1a 80 3f 0b 0b 80 3f 41 0a 80 3f 4a 0b 80 3f
       1.000803 1.000337 1.0003129 1.0003445
0003b0 0e 0a 80 3f 8e 1d 80 3f eb cd 7f 3f 57 1c 80 3f
       1.0003068 1.0009019 0.9992358 1.0008649
0003c0 9f c8 7f 3f 88 e2 7f 3f 55 c2 7f 3f 06 1a 80 3f
       0.999155 0.99955034 0.999059 1.0007942
0003d0 94 c7 7f 3f 1d c0 7f 3f 68 0a 80 3f e7 1e 80 3f
       0.9991391 0.99902517 1.0003176 1.0009431
0003e0 b7 1e 80 3f de be 7f 3f 5a 1a 80 3f c3 c3 7f 3f
       1.0009373 0.99900615 1.0008042 0.99908084
0003f0 42 be 7f 3f c0 f3 7f 3f cc c8 7f 3f 3f 18 80 3f
       0.99899685 0.9998131 0.99915767 1.0007399

bias f4 [256]
000000 91 5d 7b 3a b9 1e 34 b9 0f da 16 ba 79 8f 61 ba
       0.00095888326 -0.00017177583 -0.0005754539 -0.0008604448
000010 e2 46 80 b8 4f 45 83 ba 45 4a 43 3a f1 38 67 ba
       -6.1167186e-05 -0.0010015162 0.00074497267 -0.00088204356
000020 b4 b7 2a ba 67 37 c3 b9 a9 72 b5 39 f7 5b bb b9
       -0.0006512359 -0.00037234576 0.0003460844 -0.0003573594
000030 5b aa 3e ba 9f 50 f4 38 78 66 74 ba 2d 25 06 ba
       -0.000727331 0.000116498435 -0.00093231304 -0.0005117234
000040 d1 4e 09 ba cd 2b 60 3a e9 a3 32 3a 1b c7 15 3a
       -0.000523788 0.00085514487 0.00068145856 0.0005713568
000050 49 f6 f8 39 a8 8e 53 ba 03 38 5a ba 65 c0 80 3a
       0.00047485743 -0.00080702687 -0.00083243864 0.0009822963
000060 c4 87 83 b9 d7 3c 7c 3a cf 5e bb 39 e9 87 43 3a
       -0.0002508742 0.0009622103 0.00035738057 0.0007458912
000070 4a b3 26 ba da 1e 12 3a 01 68 1a 3a d3 c7 13 ba
       -0.00063591136 0.0005574055 0.00058901316 -0.0005637381
000080 27 06 36 3a a2 7e 8b b9 7c d8 33 3a 44 2a 6d 39
       0.0006943666 -0.00026606495 0.0006860567 0.00022617826
000090 31 2a cd b9 31 94 ef 39 21 f6 e6 39 b7 13 75 3a
       -0.00039132082 0.00045696044 0.000440524 0.0009348946
0000a0 d8 f5 57 3a 10 23 80 ba 7c f5 78 ba 24 67 76 3a
       0.00082382327 -0.0009776074 -0.0009497029 0.00093995244
0000b0 e7 8c f5 39 b4 bc 82 3a 79 e0 7d ba 9a 9a ee b9
       0.00046835022 0.0009974451 -0.0009684633 -0.00045510085
0000c0 ff be bb 39 6e 0d 84 3a c6 d6 ce 39 34 1c 9c 39
       0.00035809723 0.0010074803 0.000394514 0.00029775652
0000d0 d6 77 af 39 1c 6e fd 39 24 a3 48 3a 81 96 ff b9
       0.00033467886 0.00048337958 0.00076537044 -0.00048749524
0000e0 a9 ba 7f b9 7e 8d 32 3a b1 8c c2 b9 76 ed 12 3a
       -0.00024388231 0.0006811245 -0.00037107387 0.00056048424
0000f0 97 c6 ee b8 9a ee 85 ba 97 bd 46 39 8a 0e 95 39
       -0.000113857146 -0.0010218204 0.00018953379 0.00028430327
000100 ba ca 77 b9 68 72 63 3a fe 37 35 3a 42 11 f0 39
       -0.00023631277 0.00086764107 0.00069129455 0.00045789225
000110 a7 4e 4d 3a af 23 87 3a 9c 50 a9 39 f3 49 74 3a
       0.00078318495 0.0010310317 0.0003229425 0.00093188806
000120 03 67 2e ba af 0b b6 b9 d5 ed 6b 3a 8f b5 4c ba
       -0.0006652923 -0.0003472245 0.00089999783 -0.0007809037
000130 66 2b 77 3a 3b de 7f ba df e5 6d 3a c1 28 c7 b7
       0.0009428769 -0.0009760593 0.0009075086 -2.3741626e-05
000140 8a 77 9c b7 00 04 3c ba fb bb b1 39 94 db 3e ba
       -1.8652314e-05 -0.0007172227 0.00033900127 -0.00072806445
000150 2b 73 4f ba 2d b6 75 ba 58 09 72 ba e1 42 53 ba
       -0.00079135847 -0.00093731546 -0.000923296 -0.0008058977
000160 a0 a6 4e 3a 57 05 7d b9 73 dd 6a b8 c1 86 dc b9
       0.00078831054 -0.0002412995 -5.5996188e-05 -0.0004206207
000170 53 16 81 3a 0c b6 01 b9 0a 7a 22 ba 59 1e 69 3a
       0.0009848572 -0.00012370216 -0.0006197995 0.0008892767
000180 19 1f 8d b7 0f a9 8d 38 8c 29 68 ba e4 52 e2 39
       -1.682299e-05 6.7548935e-05 -0.00088562886 0.00043167837
000190 6a 04 8a 3a ab 3d ef b9 92 aa d3 38 56 d7 70 ba
       0.001052988 -0.00045631579 0.00010093035 -0.0009187361
0001a0 ff 71 73 3a c0 ee 26 3a 30 16 5f b9 d9 a1 2c ba
       0.0009286701 0.0006367974 -0.00021275203 -0.00065853965
0001b0 16 9a 5e ba 1d 27 8e 38 2a d0 be b8 ab 3f eb 39
       -0.00084915885 6.778373e-05 -9.0986796e-05 0.0004487013
0001c0 39 33 2c 3a a5 d3 38 ba 5e 25 c1 b9 ba 8d 40 3a
       0.0006568912 -0.00070505805 -0.0003683967 0.00073453377
0001d0 3c fe 35 b9 60 1a 0e b9 cf a3 8b ba 9b 2a 67 3a
       -0.00017356215 -0.00013552001 -0.0010653677 0.00088182994
0001e0 b5 f6 4c 3a d8 60 65 ba 03 bd 33 ba b1 04 39 39
       0.00078187446 -0.00087500876 -0.0006856473 0.00017644723
0001f0 3a 62 6c 3a 7f b6 1d ba 24 44 3b ba 7d 0e 42 3a
       0.00090173224 -0.0006016269 -0.00071436376 0.00074026716
000200 ba ca a0 b7 e2 8c 30 3a af 3f 62 3a ca af 59 3a
       -1.9167888e-05 0.00067348604 0.00086307054 0.00083040877
000210 ef 75 8f 39 67 91 55 b8 f3 1d 83 ba da f8 4e 39
       0.00027362953 -5.0918574e-05 -0.0010003432 0.00019738395
000220 ea 2d 12 ba e8 dc 50 ba 72 4a 18 3a 6a 70 1a ba
       -0.00055763 -0.0007967488 0.0005809433 -0.0005891385
000230 6c dc 35 3a 49 fc 65 3a 42 b3 35 3a 93 e4 2a ba
       0.00069374475 0.000877325 0.00069313135 -0.00065190456
000240 9b 52 97 39 bb 79 0a ba 59 5f f1 b9 c3 d2 f3 39
       0.0002886251 -0.00052824215 -0.00046038142 0.00046505601
000250 91 ad 27 39 7c 34 2a ba 80 fc 61 ba 78 23 e6 b8
       0.0001599102 -0.0006492806 -0.0008620694 -0.00010973861
000260 fd df 49 3a ce a7 53 3a b7 71 e8 39 10 73 2b ba
       0.00077009184 0.0008074016 0.00044335212 -0.0006540278
000270 08 ce af 38 be a0 eb 39 51 a4 60 3a 11 2e 0b ba
       8.3830266e-05 0.00044942455 0.0008569407 -0.00053092936
000280 a7 ca 9b 38 07 f1 5d 3a 05 eb 1b ba e8 0a 46 ba
       7.428723e-05 0.0008466397 -0.00059478014 -0.0007554726
000290 3d f8 b0 b9 6e 19 f6 b9 6b 41 76 3a 28 f3 24 3a
       -0.00033754288 -0.00046939723 0.00093939033 0.00062923366
0002a0 5e 94 23 3a d6 3b 87 b9 ac 46 ab b9 39 bc 38 ba
       0.0006240065 -0.00025793788 -0.00032668316 -0.00070470903
0002b0 a9 29 37 3a 80 6e b5 38 21 17 6a ba 11 2c 48 ba
       0.0006987104 8.651335e-05 -0.0008929838 -0.0007635961
0002c0 ad 55 e3 b9 1c 44 16 ba 9d f7 50 3a 29 6d 6b ba
       -0.00043360647 -0.0005732195 0.00079714676 -0.00089808047
0002d0 fa f4 1c 38 ff cb 2f 3a da 3a 46 ba e7 26 66 ba
       3.742145e-05 0.0006706118 -0.000756187 -0.00087796006
0002e0 97 b1 a1 39 37 ca 76 ba 2f 2c 73 39 cc 47 66 39
       0.00030840628 -0.00094142876 0.00023190746 0.00021961256
0002f0 79 ff 12 39 dd 31 8b b9 de 9a 4a ba 5d c1 b4 38
       0.00014018816 -0.00026549297 -0.00077287655 8.6190856e-05
000300 eb d4 9a b8 0f 65 2d ba be 8d 81 b7 63 ed 4c ba
       -7.382951e-05 -0.0006614485 -1.5444002e-05 -0.0007817356
000310 eb a5 6a 3a 80 f9 64 b9 9c a7 fb b9 11 3d 86 3a
       0.00089511153 -0.0002183672 -0.0004799933 0.0010241588
000320 3c 96 67 ba 66 2e 6d ba 26 af 7c ba dc e4 b4 b9
       -0.00088343373 -0.00090477464 -0.0009639136 -0.0003450279
000330 aa 0c 28 ba db d9 b5 39 1b e7 63 3a 7d 75 54 ba
       -0.00064105785 0.00034685325 0.00086938 -0.00081046653
000340 2f 1b 1b 3a 1f 48 15 ba de ec f2 39 6c 83 80 3a
       0.00059168314 -0.0005694646 0.00046334317 0.0009804792
000350 b9 3c 5d 3a 2e ce 74 3a 60 f0 06 3a 86 e1 0f 3a
       0.00084395293 0.00093385845 0.0005147513 0.00054886227
000360 5d 83 51 ba ee 8f 0b ba c3 7a 52 b9 84 76 4b 3a
       -0.0007992292 -0.00053238764 -0.00020072893 0.00077614957
000370 8c 45 c5 39 1a 25 7b b9 f3 2f ee b8 a3 01 80 39
       0.00037626585 -0.00023951047 -0.000113576556 0.00024415282
000380 33 7a d6 39 45 b5 5e ba 9e e6 1f ba c9 9d 83 ba
       0.00040908306 -0.0008495639 -0.00060997333 -0.001004153
000390 a5 c8 d4 39 d9 ef be 39 35 9b 6e ba 74 21 c5 39
       0.00040585283 0.00036418324 -0.0009102107 0.00037599693
0003a0 85 d6 8a 39 98 6f e8 39 bc 60 43 b9 45 fa 6b 38
       0.0002648124 0.00044333632 -0.00018632686 5.6261448e-05
0003b0 3e e7 75 ba cc 04 5b 3a c0 0c d4 39 21 8b b5 39
       -0.0009380466 0.0008354902 0.0004044529 0.0003462667
0003c0 0d 14 26 b9 c4 bd 7f 3a 6b 12 42 ba 17 ae 52 39
       -0.00015838463 0.00097557553 -0.0007403257 0.00020092014
0003d0 a3 7b 2c ba 57 10 43 3a 98 20 e1 b9 72 1a d0 39
       -0.00065797026 0.00074410945 -0.00042939628 0.00039692555
0003e0 a5 ef 4b ba aa 1c 5a 3a cd aa 9e b9 26 98 08 ba
       -0.0007779545 0.00083203113 -0.00030263365 -0.000521066
0003f0 f3 c4 bd 39 c3 1f 4a 3a 31 80 42 3a cb b9 78 ba
       0.00036195628 0.00077104213 0.00074196147 -0.00094881345

running_mean f4 [256]
000000 8d c4 a8 3e 41 69 41 3d 56 67 0d 3f 33 4d 67 3d
       0.32962456 0.04721952 0.55235803 0.056470107
000010 01 f3 d4 3d a4 16 55 3e 02 d8 81 3d cb 56 3d 3e
       0.10397912 0.20809418 0.06340028 0.1849014
000020 d9 1d 7e 3e c1 7a 22 3e 2f 3f b3 3d 6a 5b 57 3e
       0.24816073 0.1586714 0.08752286 0.21030965
000030 32 a9 ec 3d fe 02 64 3e bf f5 36 3e 5e c4 d6 3d
       0.11555709 0.22266766 0.17867182 0.10486673
000040 88 c8 b7 3d b0 e4 79 3e c6 71 cf 3d ec 60 0d 3d
       0.08973795 0.24403644 0.101291224 0.03451626
000050 45 00 12 3e f8 09 c9 3d c3 12 89 3e bf 6b 80 3e
       0.14257915 0.098163545 0.26772127 0.25082204
000060 1d 8f ec 3d 4b c2 cd 3e 4f 20 7b 3d 6a 89 69 3e
       0.11550734 0.40187296 0.06131011 0.22806326
000070 dd e2 b6 3d 04 c0 e3 3d e3 86 55 3e e7 b5 aa 3e
       0.089299895 0.111206084 0.20852236 0.33341905
000080 dd 7d 8b 3e 94 96 1a 3e b8 27 28 3e 7c 6f 49 3e
       0.27244464 0.15096503 0.16421402 0.19671434
000090 a2 de 9e 3d 40 cf 79 3e c0 a0 04 3e 88 7f 07 3e
       0.077573076 0.24395466 0.12951946 0.13232243
0000a0 66 13 8c 3e 34 d6 87 3e f5 ce 40 3e b7 f1 30 3e
       0.2735855 0.26530612 0.18828948 0.17279707
0000b0 a7 3a f0 3d a5 87 17 3e 05 da 51 3e 57 66 5c 3e
       0.11729937 0.14797838 0.20493324 0.21523415
0000c0 f9 36 a9 3d 0b 81 a0 3e f3 d7 95 3e ce 3c b1 3d
       0.08262438 0.31348452 0.2926632 0.08654176
0000d0 74 5d ac 3e 75 0b 75 3d 22 82 61 3e f4 03 4b 3e
       0.3366505 0.05982538 0.22022298 0.19825727
0000e0 16 0f ee 3d 56 48 cf 3d 02 03 65 3e 50 44 ce 3d
       0.11623971 0.10121219 0.22364429 0.10071623
0000f0 3d 8d 21 3e b4 86 7b 3e b0 08 fd 3d de 20 ad 3d
       0.15776534 0.24563104 0.12355173 0.084535345
000100 78 51 5f 3e 3f ea 0f 3e 33 ff fe 3d 54 66 ca 3d
       0.21808422 0.14054202 0.12451019 0.09882799
000110 1b 94 e7 3d b0 7d 19 3e ba b5 3a 3e ab ca 76 3e
       0.11307546 0.14989352 0.18233386 0.24100749
000120 9a 77 34 3e 6b 4d 16 3e 38 b2 82 3e 39 4c 22 3e
       0.1762375 0.1467797 0.25526595 0.15849389
000130 9a 9d a5 3e 55 33 65 3e 0a 9c ff 3d 9f b4 b7 3d
       0.32346803 0.22382863 0.12480934 0.089699976
000140 32 b2 17 3e b7 59 02 3e 70 e4 43 3d 4a 9c 9d 3e
       0.1481407 0.12729536 0.047825277 0.30783302
000150 15 e8 8d 3d bc fd 2a 3d 12 b4 9a 3e ae a2 86 3e
       0.06929032 0.041745886 0.30215508 0.2629599
000160 ee a5 3a 3e 1d 2d 4d 3e 19 33 9e 3d 3f a5 49 3e
       0.1822736 0.2003674 0.0772459 0.19691943
000170 67 37 97 3e 51 20 9e 3e 20 02 30 3e ee ee 6d 3e
       0.29534456 0.3088403 0.1718831 0.23235676
000180 05 92 b1 3e 14 d1 94 3e 06 7e 16 3e 18 89 23 3e
       0.34681717 0.29065764 0.14696512 0.15970266
000190 26 a0 70 3e 96 88 27 3e 67 0b 82 3e e6 6c 04 3d
       0.23498592 0.16360697 0.25399324 0.032330416
0001a0 9f 44 1b 3e fc 70 00 3f d2 03 e0 3e a2 64 b1 3d
       0.15162896 0.501724 0.43752915 0.08661772
0001b0 2f 24 7b 3e 30 de 26 3d ff 1c aa 3d fb 18 e6 3e
       0.24525522 0.04073924 0.08306312 0.44940934
0001c0 51 28 e8 3d 0f 40 bd 3d df 73 ad 3d aa e6 1c 3e
       0.11335815 0.09240734 0.08469366 0.15322366
0001d0 13 01 19 3e fd 23 51 3e b9 92 47 3e 5d 71 2b 3e
       0.14941816 0.20423885 0.19489564 0.16742463
0001e0 45 01 0b 3d 1d 01 8d 3d 47 f7 85 3e 2b c1 97 3d
       0.033936758 0.06884978 0.2616522 0.07409891
0001f0 67 23 5b 3e 1d 96 aa 3d 9e b0 01 3e d6 b7 42 3e
       0.21400224 0.08329413 0.1266503 0.1901544
000200 06 e9 5a 3e 18 cd 54 3e ea 87 a4 3d fd 27 db 3d
       0.21377954 0.20781362 0.08033736 0.107009865
000210 a4 53 a5 3d 3b 83 c2 3d 61 1d 16 3e 57 07 8a 3e
       0.08072594 0.094976865 0.14659645 0.26958725
000220 74 3e 48 3e ca 01 25 3e 0d 69 30 3d a5 04 bd 3d
       0.19555074 0.16113964 0.043068934 0.092294015
000230 04 cd b4 3e d0 39 4e 3e eb fd a7 3e 12 91 d2 3e
       0.35312665 0.20139241 0.32810912 0.41126305
000240 2f 5a 9f 3d ea 8e cf 3d 0b 9f 66 3e a4 5c ad 3e
       0.07780873 0.101346806 0.22521608 0.33859742
000250 b1 7e 49 3d 12 40 5b 3e 4a f7 ac 3d 14 55 e9 3d
       0.049193088 0.2141116 0.08445604 0.113931805
000260 71 b8 45 3e 58 ca b8 3d 88 36 41 3e d2 7d 51 3e
       0.1930864 0.09022969 0.18868458 0.20458153
000270 fd 20 54 3e a1 16 50 3e 94 8b 43 3e c3 e2 d0 3e
       0.20715709 0.20321132 0.19096214 0.40798005
000280 fb 13 25 3e 13 23 d7 3d 91 58 95 3d bb d9 98 3d
       0.16120903 0.10504737 0.07292283 0.07463404
000290 b7 03 a9 3e 6c ae 0a 3e 2f 21 ad 3e 54 92 a3 3d
       0.33010647 0.13543099 0.3381438 0.07986894
0002a0 a3 59 16 3e 5d 4d 53 3d 0b 1e 85 3c 2b f0 1b 3e
       0.14682631 0.05158745 0.016249677 0.15228336
0002b0 81 af a8 3c 8a d3 1a 3e 0a 46 a4 3d d4 70 c1 3e
       0.0205915 0.15119758 0.080211714 0.37781394
0002c0 83 38 fc 3d 49 91 1e 3e 33 91 96 3e 57 7a c4 3d
       0.12315466 0.1548511 0.29407653 0.09593647
0002d0 01 cc 26 3e b9 0d 9a 3e d5 1d 7e 3d 19 46 64 3e
       0.16288759 0.30088595 0.06204017 0.22292365
0002e0 ad ed a7 3e 63 56 da 3e 66 fb b6 3e 06 1b 30 3d
       0.3279852 0.42644033 0.35738677 0.04299452
0002f0 2d 0d be 3d 49 92 c9 3d bd dd b2 3d 94 d2 c5 3d
       0.09279857 0.09842355 0.087336995 0.09659305
000300 aa e5 e5 3d 0a 67 40 3e 9f 77 fb 3c ad 5a 79 3d
       0.112254456 0.18789306 0.030696688 0.06087749
000310 2a 54 52 3e 66 d7 af 3d 91 8d 88 3e b4 c7 57 3e
       0.20539919 0.08586006 0.26670507 0.21072274
000320 a0 e1 fe 3d 05 f6 f7 3d 7c f1 80 3d d5 14 9b 3e
       0.12445378 0.121074714 0.062960595 0.3028933
000330 62 c8 b4 3e e2 2a 84 3e af 9b 42 3e e9 9e 33 3e
       0.3530913 0.25813967 0.19004701 0.17541088
000340 10 01 9e 3e b4 05 f3 3d 98 32 71 3e 9e 9c f0 3d
       0.30860186 0.11866322 0.23554456 0.11748622
000350 ba 56 6c 3e 79 3b 0d 3e 90 1e 92 3e df dd 4d 3e
       0.23079959 0.13792218 0.28538942 0.20104168
000360 b0 76 03 3e 07 40 d7 3d 71 3e 26 3e 62 30 38 3d
       0.12838244 0.10510259 0.16234757 0.044968016
000370 44 e1 10 3e 68 a4 35 3e 1c e3 70 3e a1 f7 1f 3e
       0.14148432 0.17738497 0.23524135 0.15621807
000380 9b 2f 6a 3d 7a 62 7c 3d 5d d1 dd 3d 77 27 4a 3e
       0.057174306 0.061617352 0.108309485 0.19741617
000390 b0 cd d6 3d 0c 61 22 3e ac fe 63 3e 4a ce 0d 3e
       0.104884505 0.15857333 0.22265118 0.13848224
0003a0 8d ff 2a 3e cd 0b 44 3e db ff ce 3e 87 59 88 3e
       0.16699047 0.19145127 0.40429577 0.26630804
0003b0 1d 69 2f 3d 56 8a d6 3d 41 31 e7 3c 92 b2 40 3e
       0.042824853 0.10475604 0.028221728 0.18818119
0003c0 e3 85 85 3e bb 99 72 3e c3 08 24 3d 8e e8 ca 3e
       0.2607871 0.23691456 0.04004742 0.3963055
0003d0 af ec 9f 3e cb b8 76 3d 09 2a d9 3d 00 95 8d 3e
       0.31235263 0.060234826 0.10603721 0.2765274
0003e0 43 d4 b1 3d 65 a8 ee 3d bc 13 33 3e b4 02 ce 3e
       0.08683064 0.116532125 0.17487997 0.40236437
0003f0 ac 16 4d 3e ff 49 f7 3d 5d f1 64 3e 22 4a 8e 3e
       0.2002818 0.120746605 0.22357698 0.27790934

running_var f4 [256]
000000 89 e6 e5 3e 09 34 61 3e 53 f9 31 3f 6a 84 61 3e
       0.44902447 0.21992506 0.69521064 0.22023168
000010 7f 5d 7b 3e aa f4 9e 3e 92 ad 69 3e 8c d2 8c 3e
       0.24547385 0.3104604 0.22820118 0.27504385
000020 43 ac 8e 3e 64 bd 8d 3e 0a 7d 78 3e a7 a2 8f 3e
       0.278658 0.27683556 0.24266449 0.2805378
000030 c7 bf 82 3e 03 1d 8b 3e 86 a1 8c 3e 27 95 6e 3e
       0.2553694 0.27170572 0.27466983 0.23299085
000040 83 71 7a 3e 02 08 b6 3e 29 42 72 3e 0b 57 5a 3e
       0.24457364 0.35552984 0.2365805 0.21322267
000050 63 dd 8d 3e 5b d5 77 3e 02 02 92 3e c4 06 aa 3e
       0.27707967 0.24202482 0.28517157 0.33208287
000060 25 0a 74 3e c3 75 ff 3e d7 03 60 3e 50 f7 b0 3e
       0.23831995 0.49894533 0.21876465 0.34563684
000070 92 52 6a 3e d9 69 84 3e 80 0a 91 3e fe 7b e7 3e
       0.2288306 0.25862005 0.28328323 0.45211786
000080 3a d8 a9 3e db 21 99 3e df e5 92 3e 9b 8a 8e 3e
       0.3317278 0.29908642 0.28691003 0.27840123
000090 e6 0b 6e 3e de 93 a7 3e da ab 80 3e 22 00 85 3e
       0.23246726 0.3273 0.25131112 0.25976664
0000a0 01 35 a3 3e ec ab ae 3e 2f 06 a7 3e 78 50 9e 3e
       0.31876376 0.3411554 0.32621905 0.30920768
0000b0 90 04 87 3e fb 6e 92 3e e3 e8 9c 3e 4f c5 a6 3e
       0.26370668 0.28600296 0.30646428 0.3257241
0000c0 ce 97 72 3e c5 6e 87 3e f7 a1 d5 3e 37 48 79 3e
       0.23690721 0.26451698 0.41725132 0.24343954
0000d0 88 cc af 3e 3a db 6a 3e cf ca 9a 3e 33 b4 82 3e
       0.34335732 0.22935191 0.30232856 0.25528106
0000e0 97 50 86 3e f1 f8 83 3e 9b e9 b4 3e 8b 2b 6b 3e
       0.2623336 0.25775865 0.35334477 0.22965829
0000f0 76 17 96 3e 6a e9 ad 3e fe 86 8c 3e da b4 6d 3e
       0.29314774 0.33967143 0.2744674 0.2321352
000100 fa 35 93 3e 80 fc 85 3e ee f6 86 3e 8b 93 7c 3e
       0.28752118 0.26169205 0.26360267 0.24665658
000110 8d 14 85 3e 9f a7 8a 3e 79 ad 83 3e 28 ab 90 3e
       0.25992242 0.2708101 0.25718287 0.28255582
000120 17 20 92 3e 0a 9b 8d 3e 73 17 a7 3e d6 1d 98 3e
       0.28540108 0.27657348 0.32635078 0.29710263
000130 fb 80 cb 3e 8d fd 88 3e 18 b2 7f 3e ac dc 65 3e
       0.39746842 0.26755944 0.24970281 0.22447461
000140 27 56 80 3e aa 0d 89 3e 10 65 5f 3e 70 5b a5 3e
       0.2506573 0.26768237 0.21815896 0.32296324
000150 25 1d 6d 3e 86 c8 61 3e 38 3d dd 3e 01 c6 c1 3e
       0.23155649 0.2204915 0.4321077 0.37846377
000160 69 89 83 3e 25 42 a4 3e 4f 66 66 3e 21 8a 92 3e
       0.25690773 0.32081714 0.22499965 0.2862101
000170 03 f0 a3 3e d1 96 bf 3e 15 2e 8d 3e f5 0c a6 3e
       0.32019052 0.3741975 0.2757422 0.3243176
000180 c3 6d b4 3e ac 12 f0 3e 66 f1 83 3e e9 4f 95 3e
       0.35239992 0.46889246 0.2577011 0.2916253
000190 99 b8 92 3e bb 97 8f 3e f4 4f ae 3e d0 70 58 3e
       0.28656462 0.2804545 0.34045374 0.21136785
0001a0 64 98 7a 3e 5c 31 36 3f b7 d7 15 3f 2d a5 71 3e
       0.24472195 0.71169066 0.5853228 0.23598166
0001b0 a8 a3 8b 3e 19 71 5b 3e 53 af 6d 3e 3f 4d f4 3e
       0.27273297 0.21429862 0.23211412 0.47715184
0001c0 ab 50 8b 3e f6 42 81 3e 44 dd 6f 3e 4a d1 8a 3e
       0.27209982 0.252464 0.2342425 0.271128
0001d0 e7 09 8c 3e 50 cb 8b 3e d9 16 7c 3e 74 31 8b 3e
       0.27351305 0.27303553 0.2461809 0.27186167
0001e0 b9 d5 5c 3e be ab 6b 3e 0e db ac 3e 6a 72 6f 3e
       0.21565904 0.23014733 0.33760875 0.23383489
0001f0 43 64 a9 3e 30 c1 6f 3e a4 92 89 3e fb e9 89 3e
       0.33084306 0.23413539 0.2686969 0.26936325
000200 e8 42 a0 3e 61 1e 98 3e 8a 1a 6d 3e 1b c2 81 3e
       0.31301045 0.29710677 0.23154655 0.25343403
000210 f8 3d 6d 3e bb 56 78 3e 19 c2 88 3e f0 47 94 3e
       0.2316817 0.24251835 0.26710585 0.28961134
000220 4d 95 8e 3e 3a e8 93 3e 9f b9 5b 3e f8 4b 6e 3e
       0.27848282 0.28888112 0.21457528 0.23271167
000230 fe 83 fa 3e e9 16 8e 3e 9a 69 b5 3e 8f 65 21 3f
       0.48928827 0.27751854 0.3543213 0.6304559
000240 76 ce 76 3e fc d1 6e 3e 8e 0c 8a 3e 5d a6 c2 3e
       0.24102196 0.2332229 0.26962703 0.3801755
000250 f1 3f 61 3e 05 cb aa 3e 8c de 6b 3e c7 01 7e 3e
       0.21997048 0.33358017 0.23034114 0.24805366
000260 e7 bc 82 3e f9 c9 73 3e e3 2d 80 3e 9f f9 9f 3e
       0.25534746 0.23807515 0.2503501 0.31245133
000270 ca c1 8b 3e 5a b8 7f 3e 11 68 93 3e 02 9f 04 3f
       0.27296287 0.24972668 0.28790334 0.51805127
000280 43 ce 87 3e 10 92 80 3e dd 5f 72 3e da 76 71 3e
       0.26524553 0.25111437 0.23669381 0.23580495
000290 00 9c bc 3e 32 7d 8f 3e 9e cc e9 3e 32 07 79 3e
       0.3683777 0.28025204 0.45663923 0.24319151
0002a0 5c 7c 76 3e 30 bd 60 3e 95 3f 57 3e 59 5e 78 3e
       0.24070877 0.2194717 0.21020348 0.24254741
0002b0 0f 53 57 3e a2 a2 7e 3e e7 c9 7c 3e 05 15 c0 3e
       0.21027778 0.24866727 0.24686395 0.37516037
0002c0 f0 10 91 3e 6d c9 73 3e d3 04 a6 3e 17 3e 6b 3e
       0.28333235 0.23807307 0.32425556 0.22972904
0002d0 c2 64 64 3e 63 65 c1 3e 95 12 64 3e 87 18 99 3e
       0.22304061 0.37772664 0.22272713 0.29901525
0002e0 c5 cd c1 3e cd 21 e0 3e d1 3c b8 3e 40 8e 5b 3e
       0.37852302 0.43775788 0.359839 0.21440983
0002f0 7e dc 80 3e 11 2f 82 3e a9 8b 66 3e da c2 6f 3e
       0.25168222 0.25426534 0.22514214 0.23414174
000300 f4 ba 84 3e 51 3c 8a 3e 35 39 5e 3e 37 90 68 3e
       0.25923884 0.26999143 0.2170151 0.22711264
000310 6e 8d a7 3e 21 e3 82 3e f1 6f a3 3e 32 8d 9a 3e
       0.3272509 0.2556391 0.31921342 0.30185848
000320 22 ca 8a 3e e4 26 83 3e 84 41 68 3e 4d 75 f4 3e
       0.2710734 0.2561561 0.22681242 0.47745743
000330 ab aa b8 3e 84 4b 8e 3e e7 61 8a 3e 8d 88 90 3e
       0.3606771 0.2779199 0.2702782 0.2822918
000340 2e a1 ee 3e 15 4d 84 3e c9 5e 83 3e 68 76 8c 3e
       0.46607345 0.2584006 0.25658253 0.27434087
000350 6c 03 b9 3e 8e d0 77 3e 52 27 b8 3e 1f e9 95 3e
       0.36135423 0.24200651 0.359675 0.2927942
000360 a6 72 88 3e 59 de 78 3e 5f 16 8a 3e 7d 11 60 3e
       0.2664997 0.24303569 0.26970193 0.21881671
000370 4d eb 8c 3e 20 9e 8e 3e 4d cd a5 3e dd 9d 90 3e
       0.2752327 0.27855015 0.32383195 0.2824544
000380 bc 32 68 3e 44 10 6a 3e 2e 2e 8b 3e 9d b0 8e 3e
       0.22675604 0.22857767 0.2718367 0.2786912
000390 1f c1 72 3e 18 72 92 3e 61 50 a5 3e e5 e3 86 3e
       0.23706482 0.28602672 0.32287887 0.26345745
0003a0 ff e6 80 3e 40 31 93 3e 73 c3 f9 3e 13 6a 8e 3e
       0.25176236 0.28748512 0.48781928 0.27815303
0003b0 02 30 5d 3e 5b 6d 82 3e 6b 66 59 3e 1e 11 74 3e
       0.21600345 0.25474057 0.21230476 0.23834655
0003c0 f6 43 aa 3e 3e 33 73 3e fe be 5f 3e 0b be 1f 3f
       0.33254975 0.23750016 0.21850201 0.6239936
0003d0 5c b9 b6 3e 0f 6a 65 3e 78 a8 83 3e 9d 1d ce 3e
       0.35688293 0.2240374 0.2571447 0.40256968
0003e0 99 5d 78 3e 8e ac 80 3e 30 4c 8c 3e 1e 26 c1 3e
       0.24254455 0.2513165 0.27401876 0.37724394
0003f0 7f 0f 95 3e 44 be 8a 3e 39 8c 99 3e ab 1a 86 3e
       0.29113385 0.27098286 0.29989794 0.2619222

weight f4 [256, 256]
000000 22 ce 3c bd 93 cb f3 ba de 5c 3d bd 66 63 02 bd
       -0.04609502 -0.0018600099 -0.046231143 -0.031833075
000010 4d 7e a5 3c 32 cf ec 3c 43 6f cb 3c 38 28 74 bd
       0.020201826 0.028907392 0.024833327 -0.059608668
000020 f9 c9 82 bc c1 ca d4 3c 1d 24 9f bb 4f 3b 9a bc
       -0.015965449 0.025975587 -0.0048566 -0.018827109
000030 93 1e 05 bd 65 04 73 3d 10 31 49 bd ca b9 49 bd
       -0.03249986 0.059330363 -0.049119055 -0.049249448
000040 eb f8 38 3d fc c6 1c bd 3e e0 17 3d b5 d3 0f bd
       0.04515926 -0.038275704 0.03707909 -0.03511401
000050 ce f3 fe bb b8 99 fd bc 6a 15 50 3d 7c 3e 2d 3d
       -0.0077805286 -0.030957088 0.050801672 0.042295918
000060 a5 9d 22 3b 09 05 00 3a 9f 51 c3 bc 4d c1 0a bd
       0.0024813202 0.0004883563 -0.02384263 -0.033875752
000070 18 02 c1 bc 99 bf a8 3c 42 5a 2a bc d0 8a 29 3d
       -0.023560569 0.020599173 -0.010397496 0.041392148
000080 55 bf 14 3c af 09 35 b9 37 c1 22 bd 1a 0c d6 3c
       0.00907882 -0.00017265113 -0.039735045 0.026128817
000090 16 14 6a bd 27 93 6b 3c d4 da be 3c a5 c5 2a 3c
       -0.05714806 0.014378346 0.023297705 0.010423099
0000a0 e8 6b 31 3d 0f c8 64 3c eb 8b 90 bc 92 21 2f bd
       0.043315798 0.013963713 -0.017644843 -0.042756625
0000b0 be a7 70 bd db 04 05 3d e6 80 0c 3d d0 54 3f bd
       -0.05875372 0.032475334 0.034302615 -0.046711743
0000c0 e6 0e 8d 3c 11 dd b6 bc de 61 5b 3d 80 77 aa bc
       0.017219018 -0.02232221 0.05356013 -0.020808935
0000d0 36 42 50 3d e3 78 35 3d bb 3b 10 3d 73 be 2b 3d
       0.050844394 0.04430474 0.035213213 0.041929673
0000e0 03 ff 9d 3c 46 71 ab 3c b4 4b 57 bd 91 fa 59 bc
       0.019286638 0.020928036 -0.05256243 -0.013304369
0000f0 e6 9a 01 bc 67 ef f0 3c 09 8e cb bc 12 c8 e2 3c
       -0.007910466 0.029411031 -0.024848001 0.027683292
000100 b8 e5 2f 3d 04 5b e0 3c f4 45 03 3d 10 99 07 bc
       0.042943686 0.02738715 0.032049134 -0.008276239
000110 0b f9 f0 3c eb db a9 bc 54 0d 5a 3d d5 94 1b bb
       0.029415628 -0.020734748 0.053235367 -0.0023739834
000120 96 6c 90 bb 37 44 5d bd 60 ac 6c 3d 38 8f fc bb
       -0.0044074757 -0.054020133 0.057781577 -0.0077075027
000130 89 41 41 3d ed 99 29 bd 9a 2f 55 bd 44 16 26 bc
       0.04718164 -0.04140656 -0.05204735 -0.0101371445
000140 0d 21 4d bd 94 a5 45 3c 8c 41 9c 3a 2a 81 bf bc
       -0.050080348 0.012063403 0.001192139 -0.02337702
000150 d9 a4 1c 3d 76 25 29 3d a7 28 66 bd b9 ca 49 bd
       0.03824315 0.04129549 -0.056191113 -0.049265597
000160 77 c4 14 3d 12 38 17 bd b1 7d 4c 3c a4 7b 8f bc
       0.036320176 -0.036918707 0.012481139 -0.017515011
000170 e3 24 3b 3c 65 9e 0f bd 78 1b 10 3a bc 11 b9 bc
       0.011422369 -0.035063166 0.0005497257 -0.022591464
000180 53 9d e8 bc 40 d5 f4 bc 60 e3 57 3c 3a f6 24 3d
       -0.02839533 -0.029886842 0.013176769 0.040273882
000190 a2 f5 13 bb 95 15 c5 ba c4 79 4f 3d 54 a2 4f 3d
       -0.0022576828 -0.0015036339 0.050653234 0.050691918
0001a0 6e 53 0e bc 1f 48 54 bd 3f 82 61 3c 20 b1 93 3c
       -0.008686883 -0.051826593 0.013763963 0.018028796
0001b0 1c 32 4c bd a9 d3 61 bd 0c 7d f6 3b 2a 1c 76 3d
       -0.049852476 -0.055133495 0.007522231 0.060085453
0001c0 3f 1f 64 bd b5 24 f8 bc d1 24 b1 bc f0 43 60 bd
       -0.05569386 -0.03029094 -0.021624 -0.05475229
0001d0 73 2c 1c bd de 8f 4a 3d 5d 7b 41 3d b3 f4 39 bd
       -0.038128328 0.04945361 0.04723679 -0.04539938
0001e0 d2 fb 3f 3a ed 6f 53 bd 36 b3 dc 3c f9 33 2b bd
       0.0007323596 -0.051620413 0.026940923 -0.04179761
0001f0 0f 26 06 bd d9 25 eb bc e4 fc 15 3c 43 ca 28 3d
       -0.03275114 -0.02870457 0.009154532 0.041208517
000200 ed 67 de bc 5d 68 36 3c 2f 36 4f 3d ad 67 65 bb
       -0.027149165 0.011133281 0.050588783 -0.0035004423
000210 c4 dd e6 3b 18 4f af 3b 0b c0 4b ba 27 59 16 3d
       0.0070454795 0.005350005 -0.0007772452 0.036706116
000220 09 1f 0a 3d 92 c8 06 bd da c8 71 3d 18 9b 11 3d
       0.033721004 -0.032906123 0.059029438 0.0355483
000230 e9 39 30 bc 36 a0 5d 3d 83 5c 31 3b a8 9c 1e 3d
       -0.010755994 0.054107867 0.0027063198 0.038723618
000240 00 d5 57 bd bb df 67 3d 1c e0 72 3d f5 47 41 bd
       -0.052693367 0.05660985 0.05929576 -0.047187764
000250 8c 6c 64 bd 15 7c 98 bc 2b 9e 1d bd 7e c5 81 3c
       -0.05576758 -0.018613854 -0.03848092 0.015841242
000260 e5 a4 eb 3c cd 3a e6 bb 00 24 36 3d 25 d9 f3 3a
       0.028765151 -0.0070260526 0.044467926 0.0018604143
000270 34 1a 8f bc 02 39 5a bd a6 0e a7 3c 1c 60 75 bd
       -0.01746855 -0.053277023 0.020392727 -0.05990611
000280 98 c1 10 ba 2b ad 1f 3c a2 7a 12 bd 1c 90 9e 3c
       -0.0005522012 0.009745876 -0.035761483 0.019355826
000290 e2 a6 36 3c db 7a 2d 3d 33 3c 1c 3d f8 55 4b bd
       0.011148186 0.042353492 0.038143348 -0.049642533
0002a0 df 56 3b bd a0 57 b6 bc 4a 66 36 bd 99 90 a6 3c
       -0.045737144 -0.02225858 -0.044531144 0.020332621
0002b0 4c 5b 2a bd 2e f7 43 bd f5 c2 92 3c 2a dc 18 3d
       -0.041590974 -0.04784315 0.017915228 0.03731934
0002c0 a5 d9 96 bc 31 0f 80 bd f2 97 ff 3b 20 29 fe 3c
       -0.018414328 -0.062528975 0.0078000957 0.03102547
0002d0 e1 a1 46 3d dc 88 d4 3b e8 c0 34 3d 87 32 68 bd
       0.048494224 0.0064860415 0.044129282 -0.05668881
0002e0 88 cd 70 3d cf 05 28 bd 5c 7b 32 bd a1 78 33 3d
       0.05878976 -0.041021165 -0.043574676 0.043816213
0002f0 96 e5 57 bc eb d3 1d 3d 3b 28 30 bd 29 e7 3e 3d
       -0.013177296 0.03853218 -0.043007117 0.04660717
000300 08 b9 76 3d 9a 7a 9e 3c f2 ae 4b 3d 6c 56 37 bd
       0.060235053 0.01934557 0.049727388 -0.044760153
000310 32 4d 72 bc 6f 3d 96 3c 74 89 12 3d e7 b9 0c bd
       -0.014788913 0.01833984 0.035775617 -0.034356978
000320 d7 b8 24 3d 00 4c a1 bc 29 b0 0b bd d6 ef 56 3c
       0.04021534 -0.01968956 -0.034103546 0.013118705
000330 b4 d4 4f bd 6b 9c 67 bd c1 a6 ae 3c ae 56 b6 3c
       -0.05073996 -0.056545656 0.021319749 0.022258129
000340 fc ff bc 3c 93 51 ed bb 8d 63 3a bd 82 96 51 bd
       0.023071282 -0.0072423904 -0.045505095 -0.051168926
000350 b6 98 76 3d bb c2 5f bd 81 a6 a2 3c 36 7c 51 3d
       0.06020423 -0.05462907 0.019854786 0.051143847
000360 7d cd 43 3d ce 00 23 bd a7 9c a6 bc fa 7d 4c bd
       0.04780339 -0.03979569 -0.02033837 -0.049924828
000370 5e d3 22 3d f0 09 6c bd 31 8a 68 bd ae 01 2e bd
       0.039752357 -0.057626665 -0.056772415 -0.04248207
000380 e1 3a 52 3d 94 6f 29 3d 21 a2 2a 3d 2c 8c 40 3d
       0.051325683 0.041366175 0.041658524 0.04700868
000390 e7 68 f6 bc b7 cc 0d bd 4d 5a 21 bd 89 f3 a0 3c
       -0.030079318 -0.03461906 -0.03939276 0.019647377
0003a0 75 f7 c3 3c 43 a3 47 3c 57 79 48 bd 0f 65 9e 3b
       0.023921708 0.012184921 -0.048943844 0.0048338245
0003b0 2a ce 04 bd c5 39 58 bc 2e 2f 19 bc 91 6e 85 3b
       -0.032423176 -0.013197367 -0.009349627 0.0040720184
0003c0 70 d6 63 bd f6 c5 5a 3d b8 95 de bc 76 b9 97 3c
       -0.055624425 0.053411447 -0.027171 0.018521052
0003d0 49 62 34 3d 72 4d c6 3c 74 75 35 3d 1f 90 14 3d
       0.044039045 0.02420685 0.044301465 0.036270257
0003e0 1b 61 3d 3d 9e c3 59 3c b0 a9 27 3d 9b cd e1 bc
       0.046235185 0.013291268 0.04093331 -0.02756386
0003f0 61 de 0d bd a0 9c fc 3c 5d 0e 8a 3c 53 c8 39 bb
       -0.034635905 0.030836403 0.016852552 -0.0028348162
