models/models_lower_params/CAN/MULTI_SPECIES_MLP/model.pt (torch, 310039 bytes, 10 tensors)

weight f4 [256, 15]
0	0x3e49df64	0.19714123
1	0x3e5b3cf6	0.21409974
2	0xbd784eab	-0.0606219
3	0x3e728e9f	0.23687218
4	0xbd65a51b	-0.05606566
5	0x3d543fbd	0.051818598
6	0xbe00f748	-0.1259433
7	0x3e1b9461	0.15193321
8	0x3e68d35e	0.2273688
9	0xbe4253d2	-0.18977287
10	0x3e66164c	0.22469443
11	0x3d458256	0.04822
12	0x3e430d2c	0.19047993
13	0x3d1254ad	0.035725284
14	0x3e0028c1	0.12515546
15	0xbd14b6c3	-0.036307108
16	0x3e4b2a92	0.19840458
17	0x3d1a6e4e	0.03770285
18	0xbdf81ab6	-0.1211447
19	0x3d8770be	0.06613301
20	0xbdf4660f	-0.11933529
21	0xbcfc92d2	-0.030831728
22	0xbdd5a8f2	-0.104326144
23	0x3e2ed0e0	0.17071867
24	0xbe515d92	-0.2044585
25	0xbdf2e09f	-0.11859249
26	0xbd9449e3	-0.07240655
27	0xbe1f0e0d	-0.15532704
28	0x3cc417a7	0.02393706
29	0xbe828633	-0.2549301
30	0x3e6ecbd5	0.23319943
31	0xbe604a4b	-0.2190334
32	0x3e4bca27	0.19901334
33	0x3d2cc0c3	0.04217602
34	0xbdaafd47	-0.0834909
35	0x3e22ef05	0.15911491
36	0x3d23b72b	0.039969604
37	0x3e564d61	0.20927955
38	0x3ce5755e	0.028010067
39	0xbda848af	-0.08216988
40	0x3d8e5f81	0.0695181
41	0xbd8f345b	-0.06992408
42	0x3ddde8fb	0.10835453
43	0x3e6bb8f2	0.2301977
44	0x3e19a9c5	0.15006168
45	0xbde5fafe	-0.112295136
46	0x3e187072	0.14886644
47	0x3d3c5f34	0.04598923
48	0x3e05bff0	0.130615
49	0xbe21be71	-0.15795304
50	0xbe82f033	-0.25573882
51	0xbdcc4a6f	-0.099751346
52	0xbe4aabdd	-0.19792123
53	0x3e59093a	0.21194926
54	0x3d978959	0.07399244
55	0x3dda4adb	0.10658809
56	0x3da66d40	0.081263065
57	0xbb8d9575	-0.004320795
58	0x3e4f1980	0.20224571
59	0xbe3c0e4e	-0.18364832
60	0x3c895e9b	0.016768744
61	0xbe343faf	-0.17602418
62	0x3da38609	0.079845496
63	0xbdb65758	-0.08903378
64	0x3da1d445	0.07901815
65	0xbd5a5828	-0.05330673
66	0x3e5af2c3	0.21381669
67	0xbe1c6bb8	-0.15275466
68	0xbe1e029c	-0.15430683
69	0xbe1e1e9a	-0.15441361
70	0x3e6e05e0	0.23244429
71	0x3db1b58d	0.08677206
72	0x3e7dc1cf	0.24780963
73	0xbe5b17bf	-0.21395777
74	0xbe83920b	-0.2569736
75	0xbe4f835e	-0.20264956
76	0xbe3138c0	-0.17306805
77	0x3dd6e1a4	0.10492256
78	0x3dbe1515	0.09281365
79	0x3e5b4cf6	0.21416077
80	0xbe08aef1	-0.13347985
81	0xbe33dc5e	-0.17564532
82	0x3e0bcf4e	0.13653299
83	0xbdd50b53	-0.104025505
84	0x3e1ff897	0.15622173
85	0xbd79253d	-0.06082653
86	0x3e16d1fe	0.14728543
87	0xbe4db809	-0.20089735
88	0xbe05778e	-0.13033888
89	0x3da20e9c	0.07912943
90	0x3d60e411	0.054905
91	0xbd867954	-0.0656611
92	0x3e1d0179	0.15332593
93	0x3e3304d5	0.17482312
94	0xbe3f262e	-0.18666908
95	0xbe0cb536	-0.13741001
96	0x3e716d79	0.23576917
97	0xbdb103c8	-0.08643299
98	0xbdbcc36d	-0.09216962
99	0xbe80436d	-0.25051442
100	0xbe16a758	-0.14712274
101	0x3d84dbc8	0.064872324
102	0xbd09e1d3	-0.03366263
103	0xbe408da1	-0.18804027
104	0x3bdcc0f6	0.00673687
105	0xbe34760a	-0.17623153
106	0xbe5ff09f	-0.21869133
107	0xbe111c86	-0.14171037
108	0xbe66f8f0	-0.225559
109	0xbe288034	-0.16455156
110	0x3e84254c	0.25809705
111	0x3d493825	0.04912581
112	0x3da2b61f	0.07944893
113	0xbe76454f	-0.24049877
114	0xbe2db71b	-0.1696438
115	0xbdb177d7	-0.08665436
116	0x3d278b6a	0.04090444
117	0xbe692131	-0.22766568
118	0xbde4e761	-0.111769445
119	0xbe1e45e9	-0.15456356
120	0x3962f890	0.00021645636
121	0xbdc5835f	-0.09644198
122	0xbc9890cd	-0.018623734
123	0xbe33f77f	-0.17574881
124	0xbe34f8b6	-0.17673
125	0xbe1a35c4	-0.15059572
126	0xbdb61668	-0.088909924
127	0xbe5022f0	-0.20325828
128	0x3e5d258b	0.21596353
129	0xbd546cc0	-0.051861525
130	0x3e6335bd	0.22188468
131	0x3da38c8f	0.07985794
132	0xbe5eeb45	-0.21769436
133	0x3e371754	0.17879993
134	0xbd8ff1cd	-0.07028542
135	0xbdcab88b	-0.0989848
136	0xbe5b4f11	-0.2141688
137	0xbe835d1e	-0.2565698
138	0x3d976b7d	0.07393549
139	0xbd673cb0	-0.05645436
140	0x3dceb9db	0.10094043
141	0xbe5859f4	-0.21128064
142	0x3e43b26d	0.19111033
143	0xbe418cc7	-0.18901359
144	0xbd35f78d	-0.044425536
145	0x3d59d571	0.05318207
146	0x3e07c997	0.13260494
147	0x3e557858	0.20846689
148	0x3e71639d	0.23573156
149	0xbe51cfba	-0.20489398
150	0x3d853631	0.06504477
151	0xbde43ee2	-0.111448064
152	0xbce549c1	-0.02798927
153	0xbe454a1d	-0.19266553
154	0x3e7044de	0.23463771
155	0xbe41b9a9	-0.1891848
156	0x3e0deb54	0.13859302
157	0x3db8a6de	0.090162024
158	0x3dad0f60	0.08450198
159	0xbe0e33e4	-0.13886982
160	0x3e6f90a3	0.23395018
161	0x3d64ccdf	0.055859443
162	0x3d0875a9	0.033315334
163	0xbe6904db	-0.22755758
164	0x3ddf4842	0.10902454
165	0xbd1cde3a	-0.03829787
166	0xbdf290b4	-0.11844006
167	0x3e63ee4c	0.22258872
168	0x3d6e4cca	0.0581787
169	0xbe12f800	-0.14352417
170	0xbe068d02	-0.13139728
171	0xbc423f57	-0.011855922
172	0x3e131f45	0.14367397
173	0xbd8613ce	-0.06546746
174	0xbe16e234	-0.14734727
175	0xbdb68167	-0.089114
176	0xbe44e003	-0.19226079
177	0x3dbdf602	0.09275438
178	0x3e4bbdf2	0.19896677
179	0xbe798c55	-0.24369939
180	0x3d7470ed	0.059678007
181	0x3e094588	0.1340543
182	0x3d3df19d	0.046373
183	0xbdbd5846	-0.092453524
184	0x3e0abb2e	0.13547966
185	0x3e0aeb7c	0.13566393
186	0x3dc4bc36	0.09606211
187	0xbd36ebd8	-0.044658512
188	0xbd8d0132	-0.068849936
189	0x3cdfd005	0.027320871
190	0xbd37e56b	-0.044896524
191	0xbd9c2ecd	-0.07626114
192	0x3e286c9e	0.16447684
193	0x3e6379ed	0.2221448
194	0xbcca20ba	-0.024673808
195	0xbd6b3740	-0.057425737
196	0x3b5219c9	0.0032058826
197	0xbc8175eb	-0.015803298
198	0x3d7c3725	0.061576027
199	0x3d95c505	0.07312969
200	0xbe70da81	-0.23520853
201	0xbdc458c3	-0.095872425
202	0x3e5f5588	0.21809971
203	0x3dccd521	0.100015886
204	0xbc56a7c8	-0.013101526
205	0xbe200f05	-0.1563073
206	0xbe21bfc8	-0.15795815
207	0xbe6c470e	-0.2307398
208	0xbdac9d41	-0.08428431
209	0x3db150b0	0.08657968
210	0x3e290a13	0.1650775
211	0x3df302a2	0.118657365
212	0xbe6965c4	-0.22792727
213	0xbe1f2737	-0.15542303
214	0xbd275194	-0.040849283
215	0x3e7fa1e7	0.24964105
216	0x3d1758bb	0.036949854
217	0xbd8832c8	-0.06650311
218	0x3dd9f302	0.10642053
219	0xbdcabe2f	-0.09899556
220	0xbe2b960a	-0.16756454
221	0x3e412e73	0.18865375
222	0xbdf0683b	-0.117386304
223	0xbd5495ef	-0.0519008
224	0xbe83bc47	-0.25729582
225	0x3e31cb1b	0.17362635
226	0x3e487c6d	0.19578715
227	0x3dbeed49	0.09322602
228	0xbe396ffa	-0.18109122
229	0xbe81f866	-0.25384825
230	0xbe567fcf	-0.20947193
231	0x3e441766	0.19149551
232	0x3dfffc67	0.12499314
233	0x3e5d6e27	0.21624051
234	0x3e097083	0.13421826
235	0x3d87bd63	0.066279195
236	0xbaf45945	-0.0018642327
237	0xbe482da6	-0.19548663
238	0xbe638d62	-0.22221902
239	0xbe76f13b	-0.2411546
240	0x3dd99d38	0.1062569
241	0xbe0211ce	-0.12702104
242	0xbd52f621	-0.051504258
243	0xbe17ab5e	-0.14811465
244	0xbd4121cf	-0.047151383
245	0xbe39cf1b	-0.1814541
246	0xbe2c39b1	-0.16818883
247	0x3daed6e8	0.08537084
248	0xbd9c01e1	-0.07617546
249	0x3e23bdae	0.15990326
250	0xbdabbade	-0.083852515
251	0xbe41c9ca	-0.18924633
252	0xbd3a8001	-0.04553223
253	0xbe000056	-0.12500128
254	0xbda2c416	-0.07947557
255	0xbe7bb242	-0.24579719

bias f4 [256]
0	0xbe5f50bd	-0.21808143
1	0x3dac9c53	0.08428254
2	0x3e2aa6c3	0.16665177
3	0xbcf29c86	-0.029615652
4	0x3d768b06	0.060191177
5	0x3deb7cb9	0.11498398
6	0xbe82de96	-0.25560445
7	0xbd2e0c18	-0.042492002
8	0xbdc5b683	-0.09653952
9	0xbe06f8a4	-0.13180786
10	0x3e219eb0	0.1578319
11	0x3e8363e8	0.2566216
12	0x3d270812	0.04077918
13	0x3e245aa6	0.16050205
14	0xbe43b386	-0.19111452
15	0x3d38e0ce	0.045136265
16	0xbd0724e5	-0.03299417
17	0xbe237f6b	-0.15966575
18	0x3d57fcff	0.05273151
19	0x3da72d96	0.08162992
20	0xbc42886d	-0.011873347
21	0x3de1a80e	0.11018382
22	0x3dfd85f2	0.12379064
23	0x3e6f0b39	0.23344125
24	0x3c8025c6	0.015643012
25	0x3c1c2213	0.009529608
26	0xbb8b8fde	-0.0042590937
27	0x3d158df9	0.03651235
28	0xbe2abc9d	-0.16673513
29	0xbcffdfb6	-0.031234603
30	0xbe60504e	-0.21905634
31	0xbe38e92e	-0.18057701
32	0xbe6194a0	-0.22029352
33	0x3e436ffc	0.19085687
34	0xbe179be5	-0.14805563
35	0xbcaf01aa	-0.021363098
36	0x3ce21de9	0.027602153
37	0x3e69caad	0.22831221
38	0x3df12365	0.11774329
39	0xbe3c3220	-0.18378496
40	0x3e80d264	0.25160515
41	0xbe7a0c61	-0.24418785
42	0x3d08e6eb	0.033423346
43	0x3e70e126	0.23523387
44	0x3e653596	0.22383723
45	0xbd787cfd	-0.060666073
46	0xbe2ff4bc	-0.17183203
47	0x3de80aa1	0.11330152
48	0x3e4b68b1	0.19864155
49	0xbe0d1baa	-0.13780084
50	0xbd2acfe2	-0.04170216
51	0xbe1fffd7	-0.15624939
52	0x3dc9fb3d	0.09862373
53	0x3d60b754	0.054862335
54	0x3e03f00f	0.12884544
55	0xbdb3c51e	-0.087778315
56	0xbe7ee295	-0.24891122
57	0xbddd7220	-0.10812783
58	0xbe4e286f	-0.20132612
59	0xbd80fe30	-0.062984824
60	0x3dbf5adf	0.09343504
61	0xbe5b6a11	-0.2142718
62	0xbc54293d	-0.012949285
63	0xbe81594d	-0.25263444
64	0xbe3aeed7	-0.18255173
65	0xbe38a83c	-0.18032926
66	0xbdb5ce1c	-0.08877203
67	0xbe05cc50	-0.1306622
68	0x3d24c026	0.04022231
69	0x3e219195	0.15778191
70	0x3e4794ff	0.19490431
71	0x3da57a38	0.08079952
72	0xbb14148f	-0.0022595262
73	0xbd3b6a22	-0.045755513
74	0x3e3395f4	0.17537671
75	0xbe183433	-0.14863662
76	0x3e3ff483	0.18745618
77	0xbe7f5491	-0.24934603
78	0xbe457671	-0.19283463
79	0x3d8cda1f	0.06877541
80	0xbdd7d67c	-0.105389565
81	0x3d45cfef	0.048294004
82	0x3e670af0	0.22562766
83	0x3df1d316	0.118078396
84	0x3e814c08	0.2525332
85	0xbdde43a1	-0.10852743
86	0xbdfcf873	-0.123520754
87	0xbd09077e	-0.03345441
88	0xbd54c9e9	-0.05195037
89	0xbde6a33e	-0.11261605
90	0xbc88a49a	-0.01668005
91	0x3e6e9c26	0.23301753
92	0xbe119254	-0.14215976
93	0x3e145e4d	0.14489098
94	0x3df7393b	0.12071463
95	0x3e1856f6	0.14876923
96	0x3d8e3da1	0.069453485
97	0xbdc3c5d9	-0.09559221
98	0x3dd9b350	0.10629904
99	0xbdfa2be1	-0.122154005
100	0xbe2179f3	-0.15769176
101	0x3e78192d	0.24228354
102	0x3e5b7bbc	0.2143392
103	0xbe3f4660	-0.1867919
104	0x3e563b80	0.20921135
105	0x3d5d2eb9	0.053999636
106	0x3d878aa8	0.066182435
107	0x3e7f4170	0.24927306
108	0xbc694880	-0.014238477
109	0xbda85748	-0.082197726
110	0x3e269343	0.16267113
111	0xbd883e0f	-0.06652462
112	0xbd7fc22d	-0.06244104
113	0xbdd44fb4	-0.10366765
114	0x3e81e3fb	0.25369248
115	0x3dfd62e1	0.12372375
116	0xbd289cc0	-0.041165113
117	0xbb8e1d56	-0.004336993
118	0x3c8ee620	0.017443717
119	0xbe1d929d	-0.1538796
120	0x3d95b196	0.073092625
121	0xbe4c8811	-0.1997378
122	0xbc5227d3	-0.012826878
123	0xbd4a00ef	-0.049317297
124	0xbdd98214	-0.106205136
125	0x3e739a60	0.23789358
126	0x3d95c722	0.07313372
127	0x3dfec8ed	0.12440667
128	0xbe2dd01a	-0.16973916
129	0x3d29b809	0.041435275
130	0x3d8ca849	0.06868035
131	0x3e08f577	0.13374887
132	0xbd9afe74	-0.07568064
133	0xbd4ffba8	-0.050777107
134	0xbe56027a	-0.20899382
135	0x3e210003	0.1572266
136	0x3e30077b	0.17190354
137	0x3df6eca3	0.120568536
138	0x3e05e946	0.13077268
139	0x3e1df8df	0.15426968
140	0x3e785846	0.24252424
141	0x3dae3598	0.08506316
142	0x3dc025e3	0.09382226
143	0x3da701c2	0.08154632
144	0xbe148158	-0.14502466
145	0x3d851d36	0.06499712
146	0x3d9de183	0.077090286
147	0xbe517af5	-0.2045706
148	0xbd9c79e6	-0.07640438
149	0xbe231ae4	-0.15928227
150	0xbe2829c2	-0.1642218
151	0x3e384d54	0.17998248
152	0x3e4fa86d	0.20279093
153	0xbd0f51e9	-0.034990225
154	0x3da0e146	0.078554675
155	0xbd7a23e8	-0.0610694
156	0x3d631562	0.055440314
157	0xbd2d3463	-0.042286288
158	0xbe0a655e	-0.13515231
159	0xbddcda90	-0.10783875
160	0x3e83c768	0.25738072
161	0x3d300a0f	0.042978343
162	0xbe1049b5	-0.14090617
163	0x3cf555be	0.029948112
164	0xbe84453e	-0.25834078
165	0x3b571009	0.0032815954
166	0x3e4af1f5	0.19818862
167	0x3cefcb81	0.029271843
168	0x3d795fc8	0.06088236
169	0xbe799024	-0.24371392
170	0xbd456c44	-0.048198953
171	0x3e1c1198	0.15241086
172	0xbe427493	-0.18989782
173	0xbdf71dd3	-0.120662354
174	0x3e31d2e5	0.17365606
175	0x3d9983c1	0.07495833
176	0x3df914b5	0.12162153
177	0xbe76d187	-0.24103366
178	0x3e292113	0.16516523
179	0xbd699d34	-0.057034686
180	0x3d5d1120	0.05397141
181	0x3e55726f	0.20844434
182	0xbe72dd98	-0.23717344
183	0x3d97d19a	0.07413025
184	0xbe6f3349	-0.23359407
185	0x3e43b670	0.19112563
186	0x3d9a7048	0.07540947
187	0x3ce38688	0.02777411
188	0xbdd32ba4	-0.10311058
189	0x3dc65531	0.09684218
190	0xbe098792	-0.13430622
191	0x3d4ccb9f	0.049998876
192	0x3e5e51a2	0.21710828
193	0xbe467122	-0.19379094
194	0xbd962c1f	-0.07332634
195	0x3d78245e	0.060581557
196	0x3d39f3cb	0.045398515
197	0x3b7888d6	0.0037923357
198	0x3e634105	0.22192772
199	0xbd89b178	-0.067233026
200	0x3d87a27e	0.0662279
201	0x3e0c94fe	0.13728711
202	0xbd50340c	-0.050830886
203	0x3e2cd90a	0.16879669
204	0x3e2d7b4a	0.16941562
205	0x3deacc13	0.11464705
206	0xbd81a318	-0.06329936
207	0x3e65124e	0.22370264
208	0xbe184a77	-0.14872156
209	0x3da4a9cc	0.08040199
210	0x3d53d6d2	0.05171854
211	0x3e3a1527	0.18172131
212	0xbe58994a	-0.21152225
213	0x3d380a4a	0.044931687
214	0xbe18c2ff	-0.14918135
215	0x3e0b57b5	0.13607676
216	0x3db4d6bc	0.0883002
217	0xbe4d1d8c	-0.20030802
218	0xbc81c76a	-0.015842158
219	0x3d954800	0.072891235
220	0x3de2c059	0.11071844
221	0x3e6c1557	0.23055016
222	0x3deba484	0.11505988
223	0x3d4c1eac	0.04983394
224	0x3e0c4c6a	0.13701025
225	0xbe7aaf11	-0.24480845
226	0x3e308870	0.17239547
227	0xbcf755fc	-0.030192368
228	0x3e14d714	0.14535171
229	0x3d98cff7	0.07461541
230	0xbc6a6a38	-0.014307551
231	0x3e399b92	0.18125752
232	0xbe1a9051	-0.15094115
233	0x3d93a946	0.07210021
234	0x3de741a0	0.11291814
235	0xbdbdebb1	-0.0927347
236	0x3dbe8925	0.09303502
237	0xbe830841	-0.25592235
238	0xbe066161	-0.13123085
239	0x3dff52f0	0.12466991
240	0x3e08a267	0.13343202
241	0xbe7341a3	-0.23755507
242	0x3db7f80c	0.08982858
243	0x3cc73a42	0.024319772
244	0x3e817d0b	0.25290713
245	0xbe80d007	-0.25158712
246	0xbd781cc9	-0.060574327
247	0xbe162f32	-0.14666441
248	0xbe20a3e2	-0.15687516
249	0xbd2b7b95	-0.041865904
250	0xbe73a7e7	-0.23794518
251	0x3e4edab8	0.20200622
252	0xbdb9f3bc	-0.09079692
253	0x3dbb39bb	0.091418706
254	0xbe1bafe6	-0.15203819
255	0x3aca319d	0.0015426163

weight f4 [256]
0	0x3f7fd70d	0.99937516
1	0x3f800eee	1.0004556
2	0x3f7fce39	0.99924046
3	0x3f80062e	1.0001886
4	0x3f800c4b	1.0003752
5	0x3f8010dc	1.0005145
6	0x3f8000a3	1.0000194
7	0x3f7fde5a	0.99948657
8	0x3f8008e2	1.0002711
9	0x3f7fd98c	0.99941325
10	0x3f8014e3	1.0006374
11	0x3f7fbcf5	0.998977
12	0x3f7ff73c	0.99986625
13	0x3f7fc730	0.9991331
14	0x3f7ff585	0.9998401
15	0x3f801139	1.0005256
16	0x3f7ff9a7	0.99990314
17	0x3f800e0c	1.0004287
18	0x3f7fdc3f	0.99945444
19	0x3f801906	1.0007637
20	0x3f7ff117	0.9997725
21	0x3f7fea7b	0.99967164
22	0x3f7ff368	0.99980783
23	0x3f7fc175	0.99904567
24	0x3f801f6b	1.0009588
25	0x3f7fef53	0.99974555
26	0x3f7fd43d	0.99933225
27	0x3f801bfe	1.0008543
28	0x3f8021ad	1.0010277
29	0x3f7fd6d0	0.9993715
30	0x3f7fe3b1	0.99956805
31	0x3f800940	1.0002823
32	0x3f800457	1.0001324
33	0x3f801c6e	1.0008676
34	0x3f7feecb	0.99973744
35	0x3f7ff036	0.9997591
36	0x3f7fdf48	0.99950075
37	0x3f800c9a	1.0003846
38	0x3f800e7f	1.0004424
39	0x3f80042b	1.0001272
40	0x3f7fc2bc	0.99906516
41	0x3f8008cd	1.0002686
42	0x3f7fd3a4	0.9993231
43	0x3f7fcb27	0.9991936
44	0x3f8002f6	1.0000904
45	0x3f7ff5fc	0.9998472
46	0x3f7ff1ad	0.9997814
47	0x3f800876	1.0002582
48	0x3f7fee62	0.9997312
49	0x3f801632	1.0006773
50	0x3f7fd3a6	0.99932325
51	0x3f800d5b	1.0004076
52	0x3f801dcd	1.0009094
53	0x3f7fe91f	0.9996509
54	0x3f8012a2	1.0005686
55	0x3f800935	1.000281
56	0x3f80101d	1.0004917
57	0x3f80110b	1.0005201
58	0x3f801b70	1.0008373
59	0x3f7fc45b	0.9990899
60	0x3f7ff5b3	0.9998428
61	0x3f80143c	1.0006175
62	0x3f7fc395	0.9990781
63	0x3f7ffe5f	0.99997514
64	0x3f801eb5	1.0009371
65	0x3f800af7	1.0003346
66	0x3f7fbd19	0.99897915
67	0x3f7fdaf6	0.9994348
68	0x3f7fd7c6	0.9993862
69	0x3f7fd6f2	0.99937356
70	0x3f8010a2	1.0005076
71	0x3f800c8f	1.0003833
72	0x3f7fc7de	0.9991435
73	0x3f7fc542	0.99910367
74	0x3f7fdbf5	0.99945
75	0x3f800166	1.0000427
76	0x3f7fd30f	0.99931425
77	0x3f7fcebc	0.99924827
78	0x3f801ec0	1.0009384
79	0x3f7fe164	0.99953294
80	0x3f7fd2da	0.9993111
81	0x3f7fdd53	0.9994709
82	0x3f8022bd	1.0010601
83	0x3f7fec0b	0.9996955
84	0x3f800101	1.0000306
85	0x3f8006bb	1.0002054
86	0x3f7ffcb3	0.99994963
87	0x3f7fd796	0.99938333
88	0x3f7fcd04	0.99922204
89	0x3f801ad5	1.0008188
90	0x3f8005ee	1.000181
91	0x3f7fd652	0.999364
92	0x3f7fd93d	0.99940854
93	0x3f7fdb5d	0.99944097
94	0x3f7fe009	0.99951226
95	0x3f800524	1.0001569
96	0x3f800fa0	1.0004768
97	0x3f800f91	1.000475
98	0x3f7fdf14	0.99949765
99	0x3f80192f	1.0007685
100	0x3f8018e6	1.0007598
101	0x3f7fc1e5	0.99905235
102	0x3f8002aa	1.0000813
103	0x3f7fd9d1	0.99941736
104	0x3f800630	1.0001888
105	0x3f7ffc99	0.9999481
106	0x3f7fd51b	0.9993455
107	0x3f7fd112	0.9992839
108	0x3f800e4a	1.0004361
109	0x3f8008d1	1.000269
110	0x3f7fd2b7	0.999309
111	0x3f7fec49	0.9996992
112	0x3f8014ce	1.0006349
113	0x3f7fc200	0.99905396
114	0x3f8000dc	1.0000262
115	0x3f801218	1.0005522
116	0x3f801358	1.0005903
117	0x3f801b85	1.0008398
118	0x3f7fc8a1	0.9991551
119	0x3f801af4	1.0008225
120	0x3f7fc389	0.9990774
121	0x3f7febf7	0.9996943
122	0x3f7fd6e5	0.9993728
123	0x3f80209a	1.0009949
124	0x3f800036	1.0000064
125	0x3f800df7	1.0004262
126	0x3f7ff813	0.99987906
127	0x3f7ffb12	0.9999248
128	0x3f7ff498	0.99982595
129	0x3f8012c3	1.0005726
130	0x3f800714	1.000216
131	0x3f800db7	1.0004185
132	0x3f801e79	1.00093
133	0x3f800867	1.0002564
134	0x3f7feafd	0.9996794
135	0x3f7fd25c	0.9993036
136	0x3f7fcc91	0.9992152
137	0x3f801edd	1.0009419
138	0x3f8000d3	1.0000252
139	0x3f7ffb9a	0.9999329
140	0x3f7ff5e5	0.9998458
141	0x3f801b2d	1.0008293
142	0x3f7fc0a4	0.9990332
143	0x3f801c20	1.0008583
144	0x3f80195c	1.0007739
145	0x3f80096a	1.0002873
146	0x3f80089f	1.0002631
147	0x3f7fbfe8	0.999022
148	0x3f7fda1d	0.9994219
149	0x3f800316	1.0000942
150	0x3f801603	1.0006717
151	0x3f7fc26c	0.9990604
152	0x3f7fdf0d	0.99949723
153	0x3f801571	1.0006543
154	0x3f800e51	1.0004369
155	0x3f7fd907	0.9994053
156	0x3f80104a	1.0004971
157	0x3f80182e	1.0007379
158	0x3f7fbfa1	0.9990178
159	0x3f8007f6	1.000243
160	0x3f800684	1.0001988
161	0x3f801e72	1.0009291
162	0x3f800c05	1.0003668
163	0x3f7fedb9	0.9997211
164	0x3f8012bd	1.0005718
165	0x3f8019ac	1.0007834
166	0x3f80056c	1.0001655
167	0x3f7fe933	0.9996521
168	0x3f801d69	1.0008975
169	0x3f800a6f	1.0003184
170	0x3f8016c7	1.0006951
171	0x3f801a64	1.0008054
172	0x3f801b63	1.0008358
173	0x3f7fec77	0.9997019
174	0x3f7fccbf	0.9992179
175	0x3f8017ec	1.00073
176	0x3f7fe6b2	0.9996139
177	0x3f7ffcda	0.99995196
178	0x3f801583	1.0006565
179	0x3f801571	1.0006543
180	0x3f7fef22	0.9997426
181	0x3f7ffb39	0.9999271
182	0x3f800bfd	1.0003659
183	0x3f8013ef	1.0006083
184	0x3f801597	1.0006589
185	0x3f800ce0	1.0003929
186	0x3f8001ea	1.0000584
187	0x3f7febb9	0.9996906
188	0x3f7fd4e1	0.999342
189	0x3f7fc5bd	0.999111
190	0x3f800f02	1.000458
191	0x3f7feac3	0.9996759
192	0x3f7ff0bf	0.99976724
193	0x3f800ac9	1.0003291
194	0x3f7fde05	0.9994815
195	0x3f7fed28	0.99971247
196	0x3f7fd3b3	0.999324
197	0x3f801d5e	1.0008962
198	0x3f7fde64	0.99948716
199	0x3f80168f	1.0006884
200	0x3f800b78	1.00035
201	0x3f801c85	1.0008703
202	0x3f7fc869	0.99915177
203	0x3f7fccbc	0.99921775
204	0x3f7fc999	0.9991699
205	0x3f8010f4	1.0005174
206	0x3f7ff0f3	0.99977034
207	0x3f800804	1.0002446
208	0x3f80180d	1.000734
209	0x3f800d4d	1.0004059
210	0x3f8016f9	1.0007011
211	0x3f7fd24c	0.9993026
212	0x3f800bd5	1.0003611
213	0x3f7ff195	0.99978
214	0x3f7febb8	0.99969053
215	0x3f7ff88b	0.9998862
216	0x3f7ff5f9	0.999847
217	0x3f8001df	1.0000571
218	0x3f7ff4e5	0.99983054
219	0x3f80009f	1.000019
220	0x3f7ff2bd	0.99979764
221	0x3f7fc2af	0.9990644
222	0x3f802118	1.00101
223	0x3f7fcb85	0.9991992
224	0x3f801e94	1.0009332
225	0x3f7fd85b	0.9993951
226	0x3f800b09	1.0003368
227	0x3f800d48	1.0004053
228	0x3f801e3e	1.0009229
229	0x3f80136f	1.0005931
230	0x3f7ff9bb	0.99990433
231	0x3f7fed89	0.99971825
232	0x3f7fe63c	0.99960685
233	0x3f7fd232	0.9993011
234	0x3f7fe5d9	0.99960095
235	0x3f7fc522	0.99910176
236	0x3f80205a	1.0009873
237	0x3f7fea8e	0.9996728
238	0x3f801bdf	1.0008506
239	0x3f7fcb30	0.99919415
240	0x3f7fcad9	0.99918896
241	0x3f7fed0e	0.9997109
242	0x3f7fd9f0	0.9994192
243	0x3f80021f	1.0000647
244	0x3f7fd2de	0.9993113
245	0x3f800fab	1.0004781
246	0x3f8016c0	1.0006943
247	0x3f7fccb4	0.9992173
248	0x3f80168e	1.0006883
249	0x3f7fee7a	0.9997326
250	0x3f7ff1f7	0.99978584
251	0x3f7ff970	0.99989986
252	0x3f7fecd7	0.99970764
253	0x3f801680	1.0006866
254	0x3f7ff5b8	0.9998431
255	0x3f7fc9af	0.9991712

bias f4 [256]
0	0xb78f336e	-1.7070877e-05
1	0xba2a02e3	-0.00064854155
2	0xba6b46a2	-0.00089750637
3	0xba1786ea	-0.00057802966
4	0xba714651	-0.00092038984
5	0xb9502ef1	-0.00019853913
6	0xb92b36d7	-0.0001632826
7	0x3a1386e0	0.0005627703
8	0xb78d55db	-1.684849e-05
9	0x3a168c3b	0.0005742942
10	0x397a11c4	0.00023848476
11	0x3a2f3f72	0.00066851743
12	0xb9cb98c5	-0.00038833
13	0x39b8350d	0.0003513474
14	0x3a6e4cb6	0.00090904103
15	0xba5e8592	-0.00084885315
16	0xb8643177	-5.4405504e-05
17	0xba2f9c3f	-0.00066990027
18	0xb9bf15be	-0.00036446558
19	0xba1378e7	-0.0005625621
20	0xba31fb48	-0.0006789458
21	0x3a389918	0.0007041856
22	0x38bab0fb	8.902136e-05
23	0x3a6263fb	0.0008636114
24	0x373a0dab	1.1089646e-05
25	0xba71a2fd	-0.00092177076
26	0x39bbc48a	0.00035813852
27	0xb9e99f43	-0.00044559882
28	0x399d6e43	0.00030027525
29	0xba3291f6	-0.0006811911
30	0xb939309f	-0.00017661088
31	0x396d5859	0.00022634993
32	0xba0abee7	-0.0005292729
33	0x3a541202	0.00080898416
34	0xb94940c4	-0.00019192981
35	0xb99fb951	-0.00030464915
36	0x39b3e373	0.00034311003
37	0x39d26a3c	0.00040133472
38	0x393dc1f0	0.00018096692
39	0xb7a0d0fb	-1.91708e-05
40	0x3a2c3234	0.000656876
41	0x3a36a341	0.0006967076
42	0xba29290f	-0.00064529566
43	0xb912cb7b	-0.00013999447
44	0xba7c29f0	-0.0009619286
45	0xb9ad9971	-0.00033111454
46	0x38bbf3df	8.9622794e-05
47	0xb9818cc4	-0.00024709676
48	0xba0bf81d	-0.0005339401
49	0x3a1207b9	0.0005570609
50	0x3a29dad1	0.00064794446
51	0xb9fdb698	-0.00048391963
52	0x3a264759	0.0006343029
53	0xb8ddf781	-0.000105842024
54	0xba169e05	-0.00057455926
55	0x3a315147	0.00067641254
56	0xb8077e3e	-3.230408e-05
57	0xb96d733d	-0.00022645011
58	0xb8725ca7	-5.7783585e-05
59	0x3a12f013	0.0005605232
60	0x39bd0cf6	0.00036058546
61	0xb94b681d	-0.00019398374
62	0x39ca9491	0.00038639133
63	0x3a75c20d	0.0009374924
64	0xba418890	-0.0007382715
65	0xba3180c6	-0.0006771203
66	0x39a6d73d	0.00031822352
67	0xba577a41	-0.00082198164
68	0x38b132e5	8.4494975e-05
69	0xb98e67ad	-0.00027161595
70	0xb9823499	-0.0002483472
71	0x3a042ea1	0.00050423486
72	0x3a30942a	0.00067359454
73	0xba4afc63	-0.0007743297
74	0xb91b1847	-0.00014790996
75	0x3a4b1459	0.00077468675
76	0x39f571e8	0.00046814908
77	0x381674e6	3.5871657e-05
78	0x39d07415	0.0003975934
79	0x38efbb15	0.00011431255
80	0xb90ad328	-0.00013239367
81	0xba35162f	-0.00069079077
82	0xb9d5979f	-0.00040739492
83	0xb982ef92	-0.00024974026
84	0x38567fb6	5.1140516e-05
85	0x3970475b	0.00022914766
86	0xb99d2f04	-0.00029980403
87	0x3a086ff1	0.0005204669
88	0xba1f9c12	-0.0006088625
89	0xb9ef960c	-0.00045697426
90	0x388ec522	6.8078065e-05
91	0x38bb149c	8.920694e-05
92	0xb6da4cde	-6.505855e-06
93	0x3a25aa27	0.0006319605
94	0xba12343c	-0.00055772415
95	0x3a4c4a23	0.00077930297
96	0xb842fbf1	-4.6487843e-05
97	0xb9ab640b	-0.000326902
98	0xba0a6795	-0.0005279717
99	0x3a1e1ab1	0.0006031199
100	0xba182da8	-0.0005805143
101	0xba2c60a5	-0.00065756805
102	0xba28d8b9	-0.00064409856
103	0xb997bd6d	-0.00028942098
104	0x39bd2071	0.0003607306
105	0xb9413324	-0.00018424966
106	0x39d7c20d	0.00041152575
107	0xb9632c65	-0.00021664945
108	0xb87e908c	-6.069294e-05
109	0x38ba3222	8.878509e-05
110	0xba8089ac	-0.0009806654
111	0x3a57c20d	0.0008230515
112	0x3a5405af	0.0008088005
113	0x395b7b4a	0.00020931396
114	0xb9177041	-0.000144423
115	0x39d9fee1	0.00041579365
116	0xba18d6c1	-0.00058303407
117	0x3a1a43d6	0.0005884742
118	0xb9feeb5a	-0.00048622006
119	0x3a6d6f87	0.00090574514
120	0xb9b1a143	-0.0003388022
121	0xb90ead70	-0.00013606786
122	0x3a026a16	0.00049749145
123	0x385c1f22	5.2481082e-05
124	0x3a39efd8	0.00070929294
125	0xb9ebaf4d	-0.00044953302
126	0x3a3606ab	0.00069437426
127	0x3a116324	0.0005546084
128	0x3a1ff15c	0.0006101334
129	0xb9bdb213	-0.00036181565
130	0x39b8441e	0.00035145966
131	0xba188404	-0.00058180117
132	0xb935c7f3	-0.00017335992
133	0xb9643e44	-0.0002176697
134	0x3a7612c4	0.00093869516
135	0xba5873ed	-0.00082570204
136	0x39944836	0.0002828256
137	0x39ddf1a9	0.00042332456
138	0x3919dc13	0.00014673201
139	0xba57fa03	-0.0008238854
140	0x3a025aba	0.0004972626
141	0x3a623742	0.000862945
142	0x379f83f4	1.9015723e-05
143	0xb97f256b	-0.00024332634
144	0x39bae8d8	0.00035650167
145	0xba11086f	-0.0005532568
146	0x39a8e50e	0.00032214116
147	0x3964c2ea	0.00021816386
148	0xb97a89d5	-0.00023893204
149	0xb95e8317	-0.00021220405
150	0xba025b03	-0.0004972668
151	0xba47637a	-0.0007606071
152	0xb8adb605	-8.2831866e-05
153	0x3a4ef97a	0.0007895451
154	0x38a8ea5b	8.0545164e-05
155	0xba5ef415	-0.0008504999
156	0xb9eb5e58	-0.00044892984
157	0x397dbcf4	0.00024198351
158	0x3a78c8bb	0.00094903604
159	0x3a3ee1b5	0.0007281558
160	0x3a4e8c4f	0.0007879184
161	0x3a20e02a	0.00061369187
162	0xb9311f50	-0.000168917
163	0x3a4e64ba	0.0007873286
164	0xba42aa6e	-0.00074259087
165	0xba1fef10	-0.0006100992
166	0xb911810a	-0.00013876348
167	0xb92eca7e	-0.00016669367
168	0x393643fc	0.00017382199
169	0xb98499d9	-0.00025291627
170	0x395f68a9	0.00021305926
171	0xb9b758c0	-0.00034970604
172	0x39da7355	0.0004166613
173	0x395d9c87	0.00021134513
174	0x3a487718	0.0007647141
175	0x3a198f75	0.00058578636
176	0xb9f0e0e5	-0.00045943927
177	0x3a40012d	0.0007324394
178	0xba0b66c7	-0.0005317744
179	0x38e33682	0.00010834356
180	0xb9d18ca6	-0.00039968378
181	0x3a656b1d	0.0008751618
182	0x3821fdd4	3.8621787e-05
183	0xba0f8bf5	-0.00054758723
184	0x396b5def	0.0002244634
185	0xba198244	-0.0005855898
186	0xba37d84f	-0.00070131285
187	0xba09a106	-0.00052501296
188	0xb7c61cb6	-2.3616809e-05
189	0x3a425318	0.00074128946
190	0xb9838d88	-0.00025091716
191	0xb992492a	-0.00027901802
192	0xb8b871e3	-8.795017e-05
193	0x3a0121c0	0.00049259886
194	0x39a9a8ba	0.00032359903
195	0x39dc322d	0.00041999054
196	0xb91876e6	-0.00014540143
197	0xba4b4de4	-0.0007755442
198	0x396f8ee4	0.00022846047
199	0xba191848	-0.0005840105
200	0xb99aeec7	-0.00029551072
201	0xba5f963b	-0.0008529161
202	0x39e7ec14	0.00044235645
203	0xba4545a6	-0.0007525332
204	0xb8213009	-3.8430127e-05
205	0x3a4bcbdd	0.00077742134
206	0x39fcbdf4	0.00048206712
207	0xb9ea3b02	-0.00044675922
208	0x39a636cd	0.00031702817
209	0xba50d497	-0.00079662487
210	0x39ce8eb6	0.0003939771
211	0x3a43b85a	0.000746613
212	0x3a1e5398	0.0006039678
213	0xb8f461b1	-0.00011653023
214	0x3a3872f7	0.0007036174
215	0xb9549acc	-0.00020275562
216	0xb9ce4329	-0.0003934142
217	0xb93bd6df	-0.00017913755
218	0x39e9fe67	0.00044630768
219	0xba6e228f	-0.0009084129
220	0x394d23d0	0.00019563665
221	0x39168acd	0.00014356822
222	0xb892fc4b	-7.008816e-05
223	0xb7625b72	-1.3491941e-05
224	0x3a0af2d8	0.0005300469
225	0x3a3b3662	0.00071415876
226	0x39cc7239	0.00038995015
227	0x3a0a8bd2	0.0005285117
228	0x39f2b84c	0.0004629515
229	0xb6e8e02f	-6.940237e-06
230	0xb8bc328b	-8.973953e-05
231	0xba22e806	-0.0006214384
232	0x3913fa39	0.00014112228
233	0x3a2f0d25	0.0006677679
234	0x39a67216	0.00031746988
235	0x3a4c9329	0.0007803911
236	0x39b81267	0.00035108926
237	0xba4af51d	-0.0007742213
238	0x39b5a481	0.00034645575
239	0x3a6be81b	0.0008999125
240	0x3857f3a3	5.14869e-05
241	0x3997acb0	0.00028929627
242	0x3a167d85	0.000574075
243	0x38722c7d	5.773873e-05
244	0xb98ac1fe	-0.00026465947
245	0x3a250e70	0.0006296402
246	0x3837067b	4.3636635e-05
247	0xba1db630	-0.0006016223
248	0x3a22c728	0.0006209486
249	0xb708c04b	-8.151003e-06
250	0xb9735124	-0.00023204513
251	0xb94d6c91	-0.00019590768
252	0x39cbe3cb	0.00038888896
253	0xba2a3ee5	-0.00064943574
254	0xba5c56af	-0.0008405251
255	0xb865b627	-5.4767497e-05

running_mean f4 [256]
0	0x3dd49209	0.103794165
1	0x3e004543	0.12526421
2	0x3f0df797	0.5545592
3	0x3f0ff130	0.562274
4	0x3deb82b9	0.11499543
5	0x3e148a70	0.14505935
6	0x3e622c50	0.22087216
7	0x3dd4b9f1	0.10387028
8	0x3ea299e0	0.31758022
9	0x3db03058	0.08602971
10	0x3e44283d	0.19155975
11	0x3ec91b95	0.39278856
12	0x3e66ac6f	0.22526716
13	0x3e3be408	0.18348706
14	0x3d885999	0.066577144
15	0x3e822690	0.25420046
16	0x3d960686	0.07325463
17	0x3db47239	0.08810849
18	0x3da9f8da	0.08299418
19	0x3eb46571	0.35233644
20	0x3e8f2d07	0.2796404
21	0x3dc8f819	0.09812946
22	0x3e2a75fe	0.16646573
23	0x3eb1927c	0.3468207
24	0x3da0a9fe	0.078449234
25	0x3f11b7a5	0.56920844
26	0x3d758d8f	0.059949454
27	0x3e082ae4	0.13297611
28	0x3e1607b9	0.14651383
29	0x3f1e8fd6	0.61938226
30	0x3d8f95d2	0.07010998
31	0x3db7d06e	0.08975302
32	0x3ee3ac11	0.44467214
33	0x3ed51529	0.41617706
34	0x3f539969	0.8265596
35	0x3eee946b	0.4659761
36	0x3de477b7	0.11155646
37	0x3e0ffb5c	0.1406073
38	0x3e41b6b7	0.18917356
39	0x3f014af5	0.50505
40	0x3f0cd4f3	0.55012435
41	0x3d8b0e68	0.06789857
42	0x3e8ac02e	0.27099746
43	0x3ea1e556	0.31620282
44	0x3e815f45	0.25267997
45	0x3db04d4a	0.08608492
46	0x3e437984	0.19089323
47	0x3def2d53	0.11678567
48	0x3f453d21	0.770464
49	0x3e736673	0.2376955
50	0x3dd080c6	0.101808116
51	0x3d61f1a4	0.055162087
52	0x3eca81c2	0.39552122
53	0x3ea83fdc	0.3286122
54	0x3e0b9088	0.13629353
55	0x3e1a4697	0.1506599
56	0x3e4af00f	0.19818138
57	0x3d880d58	0.0664317
58	0x3edeceb9	0.43517092
59	0x3d85eacd	0.06538925
60	0x3e758110	0.23975015
61	0x3e854f0c	0.2603687
62	0x3da0dd2e	0.07854687
63	0x3da1ff2b	0.079099976
64	0x3e78c790	0.24294877
65	0x3dabdec1	0.08392096
66	0x3dc7114a	0.097200945
67	0x3e84a402	0.25906378
68	0x3df8a9c8	0.12141758
69	0x3e5eeea9	0.21770729
70	0x3e1456b1	0.14486195
71	0x3e864602	0.26225287
72	0x3e6d0590	0.23146653
73	0x3f150ac4	0.5821955
74	0x3ef5a51c	0.4797753
75	0x3e29850d	0.16554661
76	0x3e6ab0ab	0.22918956
77	0x3d3b4603	0.045721065
78	0x3da1e314	0.0790464
79	0x3de07735	0.10960237
80	0x3f2fc727	0.6866326
81	0x3e115537	0.14192663
82	0x3ea43782	0.320736
83	0x3dfa87f1	0.1223296
84	0x3e52c1bb	0.20581715
85	0x3db721e0	0.08942008
86	0x3e09a794	0.13442832
87	0x3e26aac2	0.16276076
88	0x3e2cc3eb	0.16871612
89	0x3daef252	0.08542313
90	0x3df7d078	0.12100309
91	0x3f015018	0.5051284
92	0x3dc844d4	0.09778753
93	0x3dd39d71	0.10332764
94	0x3e23e4c3	0.16005234
95	0x3e8e5893	0.27801952
96	0x3e6467a8	0.22305167
97	0x3f07988b	0.5296714
98	0x3e2dd7e7	0.16976891
99	0x3e77f606	0.24214944
100	0x3dac41c3	0.084109806
101	0x3f1cad98	0.61202383
102	0x3e4569fb	0.1927871
103	0x3d010587	0.031499412
104	0x3e4af045	0.19818218
105	0x3f1523df	0.5825786
106	0x3dd19907	0.10234266
107	0x3f15c0b9	0.58497196
108	0x3f072499	0.5279022
109	0x3ea9d633	0.33171234
110	0x3eaf61bb	0.3425425
111	0x3f3328b2	0.6998397
112	0x3e452db0	0.1925571
113	0x3e252ffc	0.16131586
114	0x3e58d022	0.21173146
115	0x3e961b8c	0.29317892
116	0x3dcc3515	0.09971062
117	0x3e20bd23	0.1569715
118	0x3da9e47f	0.08295535
119	0x3ea5d917	0.3239219
120	0x3ebf60ff	0.3737869
121	0x3e4523b2	0.19251898
122	0x3d9010c2	0.07034446
123	0x3ebd3f8c	0.36962545
124	0x3f37f8fa	0.71864283
125	0x3ea0f681	0.31438068
126	0x3eeed656	0.466479
127	0x3e14740f	0.14497398
128	0x3ec6dd24	0.38840592
129	0x3e84e9e0	0.25959682
130	0x3d8b13c2	0.06790878
131	0x3efaa8a7	0.48956797
132	0x3d1052c1	0.03523517
133	0x3d9555cf	0.07291757
134	0x3de57c47	0.11205345
135	0x3f2832d0	0.65702534
136	0x3e0f8cc7	0.14018546
137	0x3e902ca8	0.2815907
138	0x3ec8c0d5	0.3920962
139	0x3e632302	0.22181323
140	0x3e8f2ac5	0.27962318
141	0x3f0269a4	0.50942445
142	0x3f558479	0.8340526
143	0x3de69d07	0.11260419
144	0x3e65a962	0.22427896
145	0x3deb645d	0.11493752
146	0x3e40513d	0.1878099
147	0x3ef3ab2b	0.47591528
148	0x3d8901d3	0.06689801
149	0x3dc547cf	0.09632837
150	0x3e21558b	0.15755288
151	0x3eb68f61	0.35656264
152	0x3e9f0b2a	0.31063205
153	0x3e7ec98a	0.24881569
154	0x3eb85c9e	0.3600816
155	0x3ebe9fad	0.37231198
156	0x3dace558	0.08442181
157	0x3e680856	0.2265943
158	0x3d6ad9bc	0.057336554
159	0x3d920c7c	0.071312875
160	0x3e8105ed	0.25199834
161	0x3e05fff4	0.1308592
162	0x3e81d2ac	0.25356042
163	0x3e3e704f	0.1859753
164	0x3f16df19	0.5893417
165	0x3e2ce609	0.16884626
166	0x3e72cb59	0.23710383
167	0x3f4dc599	0.80379635
168	0x3f698cb6	0.9123033
169	0x3f472acb	0.7779967
170	0x3d8d425f	0.06897425
171	0x3f2c434e	0.672902
172	0x3eaa8435	0.3330399
173	0x3dc4935c	0.09598419
174	0x3e672a64	0.22574764
175	0x3f100f3a	0.56273234
176	0x3e968b86	0.29403323
177	0x3dc46f17	0.09591501
178	0x3e910552	0.28324372
179	0x3e1adb92	0.15122822
180	0x3f300c3a	0.68768656
181	0x3e983ce7	0.29733965
182	0x3e91a58a	0.2844661
183	0x3e5ef411	0.21772791
184	0x3d54d8a5	0.05196442
185	0x3e171da2	0.14757398
186	0x3dd28859	0.102799125
187	0x3e9f39c9	0.31098774
188	0x3f20022d	0.6250332
189	0x3e59dd64	0.2127586
190	0x3e06137c	0.1309337
191	0x3e9f36a5	0.31096378
192	0x3e9bc669	0.30424812
193	0x3f48a7e4	0.7838118
194	0x3ce71e76	0.028212767
195	0x3e335cac	0.1751582
196	0x3e749772	0.23885897
197	0x3d914b06	0.07094388
198	0x3f017f7b	0.50585145
199	0x3def7fe9	0.11694319
200	0x3de9ccd3	0.1141602
201	0x3e02b62b	0.12764804
202	0x3d5c4f98	0.053786844
203	0x3ebe292d	0.3714079
204	0x3f3a3056	0.72730005
205	0x3e512af7	0.20426546
206	0x3dc7b131	0.097505935
207	0x3ed6c47c	0.4194678
208	0x3cdc12cd	0.026864434
209	0x3deb96ba	0.11503358
210	0x3e9c900d	0.30578652
211	0x3e8a05f1	0.26957658
212	0x3da7805f	0.08178782
213	0x3e09123e	0.13385865
214	0x3d89e93e	0.067339405
215	0x3e15a8a0	0.14615107
216	0x3e6c81c4	0.23096377
217	0x3df2e828	0.118606865
218	0x3e084190	0.1330626
219	0x3e22bcf5	0.15892394
220	0x3def83c5	0.11695055
221	0x3f2e40a7	0.680674
222	0x3e913d8c	0.2836727
223	0x3e2114b0	0.15730548
224	0x3f7b3db2	0.98141015
225	0x3ddbca72	0.10731973
226	0x3ef03372	0.4691425
227	0x3e532679	0.20620145
228	0x3f0de0c7	0.5542111
229	0x3df0f12f	0.11764752
230	0x3e963185	0.29334655
231	0x3e7d96a0	0.2476449
232	0x3d87ca11	0.06630338
233	0x3ec89c19	0.39181593
234	0x3e0b7158	0.13617456
235	0x3e9b7172	0.3035999
236	0x3ec2275f	0.37920663
237	0x3eed7389	0.4637721
238	0x3ed7b8b3	0.42133102
239	0x3e09f435	0.13472064
240	0x3e8e6b7e	0.27816385
241	0x3e0b9c42	0.13633826
242	0x3e3b6996	0.18301997
243	0x3ebbd14d	0.3668312
244	0x3f197465	0.5994323
245	0x3bdeb76b	0.0067967675
246	0x3ded733d	0.115942456
247	0x3ece3944	0.40278065
248	0x3e28b499	0.16475143
249	0x3e186486	0.14882097
250	0x3f02bbb8	0.51067686
251	0x3f0a4e00	0.5402527
252	0x3de27d1c	0.11059019
253	0x3eb9f5c0	0.36320305
254	0x3ce5410c	0.027985118
255	0x3ed99e66	0.4250366

running_var f4 [256]
0	0x3e8d8ef3	0.27648124
1	0x3e74cc2a	0.23906007
2	0x3f0c93b1	0.5491286
3	0x3f453fe0	0.7705059
4	0x3e7ee72d	0.24892874
5	0x3e8bd742	0.27312666
6	0x3e9acd97	0.30234978
7	0x3e89309d	0.26794901
8	0x3ecd0e6c	0.40050066
9	0x3e86cb2e	0.2632689
10	0x3e9818cb	0.29706416
11	0x3ed1c944	0.40973866
12	0x3e9f2afc	0.31087482
13	0x3e96a440	0.29422188
14	0x3e7598c0	0.23984051
15	0x3ea57a9a	0.323201
16	0x3e6e52fd	0.23273845
17	0x3e899695	0.26872697
18	0x3e703044	0.23455912
19	0x3eb3e01a	0.35131913
20	0x3f246d08	0.6422887
21	0x3e729cb0	0.23692584
22	0x3e9ebef6	0.31005067
23	0x3f24e198	0.6440673
24	0x3e7b50bf	0.24542521
25	0x3f224ed2	0.6340152
26	0x3e621e49	0.22081865
27	0x3e97f600	0.2967987
28	0x3e8c3b28	0.27388883
29	0x3f5a9f1f	0.8539905
30	0x3e73a578	0.2379359
31	0x3e83828d	0.2568554
32	0x3ed8d83b	0.4235247
33	0x3ea34862	0.3189116
34	0x3f94f15f	1.1636161
35	0x3f8d1225	1.1021162
36	0x3e6eb225	0.23310144
37	0x3e8b2363	0.27175435
38	0x3eae5661	0.34050277
39	0x3f0da72d	0.55333215
40	0x3f171ba7	0.5902657
41	0x3e758ac2	0.23978713
42	0x3eafa148	0.34302735
43	0x3f1ff19c	0.6247804
44	0x3e94e10c	0.29077947
45	0x3e8c62dd	0.27419177
46	0x3eb03c9c	0.3442124
47	0x3e8b1b13	0.27169093
48	0x3f63c7cf	0.8897676
49	0x3eff6ee4	0.4988929
50	0x3e7daaf4	0.24772245
51	0x3e6d3601	0.23165132
52	0x3f26c6dc	0.65147185
53	0x3ed0da32	0.4079147
54	0x3e7b3947	0.24533568
55	0x3e866531	0.26249078
56	0x3ea118ef	0.31464335
57	0x3e6f1ade	0.23350093
58	0x3f176ed8	0.5915351
59	0x3e72635c	0.23670715
60	0x3ede172f	0.43377063
61	0x3ea14af2	0.3150249
62	0x3e6d21a2	0.23157361
63	0x3e7482f2	0.23878077
64	0x3f35f39a	0.7107483
65	0x3e695055	0.2278455
66	0x3e8bd88c	0.2731365
67	0x3ecc3806	0.39886492
68	0x3e8f8b85	0.28036132
69	0x3e82a8a6	0.25519294
70	0x3e8f3595	0.27970567
71	0x3eaa81ad	0.3330206
72	0x3ee6ff3f	0.45116612
73	0x3f276e06	0.6540226
74	0x3f8024e8	1.0011263
75	0x3e9f7203	0.31141672
76	0x3e74040d	0.2382967
77	0x3e741fff	0.2384033
78	0x3e7407ec	0.23831147
79	0x3e8a8371	0.27053407
80	0x3f8b81ea	1.0899022
81	0x3e7e4f8e	0.24835035
82	0x3f0b1f4c	0.5434463
83	0x3e9361a6	0.28785437
84	0x3ec45b17	0.38350746
85	0x3e771eab	0.24132793
86	0x3e8bde9c	0.27318275
87	0x3e906728	0.28203702
88	0x3e887e32	0.2665878
89	0x3e733ec0	0.23754406
90	0x3e8442c1	0.2583218
91	0x3f0c85da	0.5489174
92	0x3e88c460	0.26712322
93	0x3e6fbfe4	0.23413044
94	0x3e896723	0.268365
95	0x3ecbeba6	0.39828223
96	0x3e9bb52b	0.30411658
97	0x3f4cf28c	0.800576
98	0x3e8bd37a	0.2730978
99	0x3f08e386	0.53472173
100	0x3e688050	0.22705197
101	0x3f01d495	0.50715
102	0x3e7d9658	0.24764383
103	0x3e5b8d97	0.21440731
104	0x3e8627fe	0.26202387
105	0x3f54fc0f	0.8319711
106	0x3e7e8dc5	0.24858768
107	0x3f259a6a	0.6468874
108	0x3f325944	0.6966746
109	0x3ebb9f27	0.3664486
110	0x3eb5e333	0.35524902
111	0x3f5e2b41	0.8678475
112	0x3e943518	0.28946757
113	0x3ec723ec	0.38894594
114	0x3e9933fc	0.29922473
115	0x3f0d2dec	0.55148196
116	0x3e76eae5	0.24113043
117	0x3e9b288d	0.30304375
118	0x3e82afa7	0.25524637
119	0x3eea2e10	0.45738268
120	0x3eea28ef	0.45734355
121	0x3ed3a1c6	0.4133436
122	0x3e679883	0.22616772
123	0x3f4441de	0.76663005
124	0x3f52d1c5	0.8235133
125	0x3ead9106	0.33899707
126	0x3f5b7ed7	0.8574042
127	0x3e940c0c	0.2891544
128	0x3f0a24f3	0.5396263
129	0x3ebbacb1	0.3665519
130	0x3e5f7f68	0.21825945
131	0x3f49cd81	0.788292
132	0x3e58f0e5	0.21185644
133	0x3e72784e	0.23678705
134	0x3e909aca	0.28243095
135	0x3f689197	0.9084715
136	0x3e8c0baa	0.2735265
137	0x3e7aeeac	0.24505109
138	0x3ec27834	0.37982333
139	0x3e881a92	0.26582772
140	0x3ef31138	0.47474074
141	0x3ee7d1e2	0.45277315
142	0x3f7e1808	0.9925542
143	0x3e805892	0.25067574
144	0x3f023f57	0.508779
145	0x3e90ae9e	0.28258222
146	0x3e8c4985	0.2739984
147	0x3f17cae4	0.5929396
148	0x3e6c21d0	0.23059773
149	0x3e7564d7	0.23964249
150	0x3ea87e02	0.32908636
151	0x3ed2b612	0.41154534
152	0x3eb593e2	0.35464388
153	0x3f392288	0.72318316
154	0x3ed4d71f	0.41570374
155	0x3ea7c630	0.32768393
156	0x3e6b348e	0.22969267
157	0x3f04c525	0.5186332
158	0x3e67810d	0.22607823
159	0x3e6c2f32	0.23064879
160	0x3e95effe	0.29284662
161	0x3e8513e4	0.25991738
162	0x3ee843c7	0.4536421
163	0x3e7f5006	0.2493287
164	0x3f4dada9	0.8034311
165	0x3e8a50b7	0.27014706
166	0x3e93d9fb	0.28877243
167	0x3f8d60f7	1.1045216
168	0x3fac1ef3	1.3446945
169	0x3f9d04b8	1.2267065
170	0x3e6370e9	0.2221104
171	0x3f161b2a	0.586352
172	0x3ee49c21	0.44650367
173	0x3e7712ca	0.24128261
174	0x3e86b888	0.2631266
175	0x3f3d020b	0.7383124
176	0x3ea90367	0.33010408
177	0x3e88d0df	0.26721856
178	0x3eaa007f	0.33203503
179	0x3e971188	0.29505563
180	0x3f91b930	1.138464
181	0x3e9316e9	0.28728417
182	0x3ed54e23	0.41661176
183	0x3e96902f	0.29406878
184	0x3e676c45	0.22599895
185	0x3e9fe17b	0.31226715
186	0x3e758593	0.23976736
187	0x3f28869d	0.65830404
188	0x3f4ede83	0.80808276
189	0x3eaf124a	0.3419364
190	0x3e8d875d	0.27642336
191	0x3e99f3c3	0.30068788
192	0x3eb33884	0.35004056
193	0x3fab6cf7	1.3392628
194	0x3e5b2ae8	0.21403086
195	0x3e8e327e	0.27772897
196	0x3ea70ca4	0.32626832
197	0x3e68dd55	0.22740681
198	0x3ee80187	0.45313665
199	0x3e837cdd	0.256812
200	0x3e83c69a	0.25737458
201	0x3e855fb6	0.26049584
202	0x3e61a57a	0.2203578
203	0x3f033799	0.5125671
204	0x3f29a2bc	0.6626394
205	0x3e9c9544	0.3058263
206	0x3e8077d5	0.25091425
207	0x3ec6a986	0.3880121
208	0x3e591d12	0.21202496
209	0x3e7827ce	0.24233934
210	0x3eada17c	0.33912265
211	0x3e9c719b	0.30555424
212	0x3e684980	0.22684288
213	0x3e7997e2	0.24374345
214	0x3e702fe9	0.23455776
215	0x3e84cb03	0.25936136
216	0x3e97ff44	0.2968694
217	0x3e8e7f7e	0.27831644
218	0x3e831a3a	0.25605947
219	0x3e865ac4	0.26241124
220	0x3e8a9515	0.27066866
221	0x3f6f3619	0.9344192
222	0x3ea37834	0.31927645
223	0x3e94281a	0.28936845
224	0x3f89efeb	1.0776342
225	0x3e841857	0.2579982
226	0x3f4ecb30	0.8077879
227	0x3e8968dd	0.26837817
228	0x3f5ee1d3	0.8706333
229	0x3e919552	0.28434235
230	0x3f0baab5	0.54557353
231	0x3ea388c1	0.31940272
232	0x3e76a158	0.24084985
233	0x3f22b991	0.635644
234	0x3e85b4f3	0.26114616
235	0x3ef3c008	0.47607446
236	0x3ecd3aec	0.40084016
237	0x3f4fc417	0.81158584
238	0x3f1e836f	0.619193
239	0x3e970be3	0.29501256
240	0x3e9b2ef3	0.30309257
241	0x3ea7cee6	0.32775038
242	0x3e8bf11c	0.2733239
243	0x3ee37efd	0.44432822
244	0x3f0649fd	0.5245665
245	0x3e539b32	0.20664671
246	0x3e936cf2	0.28794056
247	0x3f348e14	0.70529294
248	0x3e9c9554	0.30582678
249	0x3e9fd53d	0.31217375
250	0x3f5e21b6	0.8677019
251	0x3f14481d	0.57922536
252	0x3e8f02cc	0.2793182
253	0x3ef79c3d	0.48361388
254	0x3e592710	0.21206307
255	0x3ec5741a	0.3856514

weight f4 [256, 256]
0	0xbd344599	-0.044011686
1	0x3d4fb5c6	0.050710462
2	0x3d586fee	0.05284112
3	0x3d4a6e90	0.049421847
4	0xbcb91ee8	-0.022597745
5	0x3d20714d	0.039170552
6	0xbd548a23	-0.05188955
7	0x3cea71b7	0.028618677
8	0xbbfbdf46	-0.0076865284
9	0xbd54b568	-0.051930815
10	0xbd4c9213	-0.049943995
11	0xbd7233ba	-0.05913136
12	0x3c392517	0.011300347
13	0xbcb6ccae	-0.022314396
14	0xbcebb3d9	-0.028772281
15	0x3d748582	0.059697635
16	0xbc9d50c6	-0.019203555
17	0x3cac34f2	0.02102134
18	0xbc3bd187	-0.011463529
19	0x3d17340a	0.036914863
20	0x3c9c297e	0.019062754
21	0x3d225545	0.0396321
22	0x3c8611d5	0.016365925
23	0xbc59c8f4	-0.01329254
24	0x3d62ec86	0.055401348
25	0xbb90a9af	-0.004414759
26	0xbd1adb60	-0.03780687
27	0x3c9e6050	0.019333035
28	0xbbf55e8a	-0.0074880766
29	0xbd3e722a	-0.046495594
30	0x3bfea090	0.0077706054
31	0xbc652510	-0.013985887
32	0xbcc5fe24	-0.024169035
33	0xbcf34f5a	-0.029700924
34	0xbcd58797	-0.02606563
35	0xbccb9e87	-0.024855865
36	0x3bdb43d7	0.0066914367
37	0x3d748ebe	0.059706442
38	0xbd16aa7a	-0.036783673
39	0xbceb1b9d	-0.02869969
40	0xbd287ea5	-0.041136403
41	0xbb301dbb	-0.002687319
42	0x3b780c45	0.003784911
43	0xbd2e06df	-0.04248702
44	0x3cea7991	0.02862242
45	0xbd684e59	-0.056715343
46	0x3d701537	0.058613982
47	0x3c4c61a4	0.012474451
48	0xbbc08449	-0.0058751446
49	0xbcb394b5	-0.021921495
50	0x3ce645d9	0.028109478
51	0x3d3a7f01	0.045531277
52	0xbd245353	-0.040118527
53	0xbc855656	-0.01627652
54	0x3d3e5bbe	0.04647421
55	0xbc494557	-0.012284598
56	0xbd3d7cbc	-0.046261534
57	0xbca05b4b	-0.019574782
58	0x3b40d60a	0.0029424452
59	0xbc3b080f	-0.011415496
60	0xbd2e83b2	-0.042606063
61	0xbd1e6f08	-0.038680106
62	0x3c896b98	0.016774938
63	0x3d2e8b0b	0.04261307
64	0x3d6ab116	0.05729779
65	0xbbfc0189	-0.0076906127
66	0x3cc5c716	0.024142783
67	0xbd49a9a9	-0.049234066
68	0x3d08a360	0.03335893
69	0x3d760b86	0.060069583
70	0x3d050f7e	0.032485478
71	0xbcd0224a	-0.025406975
72	0x3d52549f	0.051350232
73	0xbd707d82	-0.058713444
74	0xbbe98645	-0.007126602
75	0xbc7b4275	-0.015335669
76	0xbd7fda27	-0.062463906
77	0xbd10e49f	-0.03537428
78	0xbd383572	-0.044972844
79	0x3c8aa4c0	0.016924262
80	0xbba63203	-0.00507188
81	0x3cee6375	0.02910016
82	0xbc5e6764	-0.013574455
83	0x3d52a920	0.05143082
84	0x3bec2f67	0.0072077992
85	0x3d52ecdf	0.05149543
86	0x3d4c9e4b	0.049955647
87	0xbd55bc28	-0.052181393
88	0xbd2ca828	-0.042152554
89	0x3d1a3bf6	0.03765484
90	0x3d72e7d1	0.05930311
91	0xbd57e0a7	-0.05270448
92	0x39b194ad	0.00033870843
93	0xbcc878da	-0.024471689
94	0x3d729750	0.059226334
95	0x3d557441	0.05211282
96	0x3d38ad46	0.04508712
97	0x3d0c1407	0.034198787
98	0xbbc23346	-0.0059265224
99	0x3d6d7113	0.057969164
100	0xbced77a0	-0.028987706
101	0x3b412a4b	0.0029474671
102	0xbc84e898	-0.01622419
103	0xbd38fe21	-0.04516423
104	0xbcef1b26	-0.02918775
105	0x3c7f8903	0.015596631
106	0xbba5c71f	-0.0050591375
107	0xbd2aeafd	-0.04172801
108	0xbc02b0f6	-0.007976761
109	0x3c307b87	0.010771639
110	0xbd34b001	-0.044113163
111	0x3d1ae7fb	0.03781889
112	0xbd5c0e1c	-0.053724393
113	0x3a788e00	0.0009481609
114	0xbd500074	-0.050781682
115	0xbd63b75f	-0.0555948
116	0xbbf09a78	-0.007342633
117	0x3d695f19	0.056975458
118	0x3d718abd	0.0589702
119	0x3cb691b8	0.022286281
120	0x3d45d517	0.04829892
121	0xbd0a5834	-0.033775523
122	0x3d100f66	0.035170935
123	0x3d1e0435	0.03857823
124	0xbd76366f	-0.060110506
125	0xbd459432	-0.048237033
126	0x3ce14ce2	0.02750248
127	0x3bbe7f26	0.005813497
128	0xbd2c98eb	-0.04213802
129	0xbd493323	-0.049121033
130	0x3d396a9d	0.04526769
131	0x3be94a17	0.007119428
132	0xba69633e	-0.0008903033
133	0xbd776e6e	-0.06040805
134	0x3d622fb2	0.055221267
135	0xbd27a5d9	-0.04092965
136	0x3ce364bb	0.027757993
137	0xbbe886a3	-0.007096128
138	0x3b3b66cf	0.0028595214
139	0x3cf46179	0.029831635
140	0xbc855d89	-0.016279953
141	0xbc895871	-0.016765805
142	0x3d4dc25a	0.050234176
143	0xbd44aa19	-0.04801378
144	0x3ce7a6af	0.028277723
145	0xbc8466c8	-0.016162291
146	0xbca778b0	-0.02044329
147	0x3d2cf53c	0.04222606
148	0x3c2ff21b	0.010738875
149	0xbd6f9702	-0.05849362
150	0x3d65435d	0.055972446
151	0xbcfc5b48	-0.030805245
152	0x3d6132ed	0.054980207
153	0xbc9d89d4	-0.01923076
154	0x3d7aac3d	0.061199415
155	0x3c9ced36	0.01915608
156	0xbb49f0aa	-0.0030813613
157	0x3cc68e60	0.024237812
158	0xbb1f8277	-0.0024339238
159	0xbcf94dc5	-0.030432591
160	0x3d0bc80b	0.034126323
161	0x3d2439da	0.040094234
162	0xbbf79513	-0.007555613
163	0x3d704485	0.058659095
164	0x3b6ef0e9	0.0036459512
165	0xbd09d1aa	-0.033647217
166	0xbd0ab49c	-0.03386365
167	0x3d2e6f42	0.042586572
168	0xbccbe988	-0.02489163
169	0x3d234131	0.039857093
170	0xbd7c5035	-0.06159993
171	0x3b36daae	0.002790134
172	0xbd2ff5ab	-0.042958897
173	0x3cb8e2ee	0.022569146
174	0x3d4c6331	0.049899284
175	0x3ccbc3e0	0.024873674
176	0xbcb33450	-0.02187553
177	0xbd713824	-0.05889143
178	0xbcf1d419	-0.029520081
179	0xbd1a4f9e	-0.037673585
180	0x3d760300	0.060061455
181	0xbd09c4be	-0.033634894
182	0x3cc9c78f	0.02463129
183	0x3d4a413c	0.04937862
184	0x3cbc7b87	0.023008121
185	0xbd625ea1	-0.055266026
186	0xbbeb8bbb	-0.007188288
187	0xbc93ab67	-0.018026067
188	0x3d22d819	0.039756868
189	0xbbb2d487	-0.005457464
190	0xbb833cd8	-0.004005056
191	0x3d667543	0.056264173
192	0x3c76ac65	0.0150557505
193	0x3cf1120a	0.029427547
194	0xbca276c6	-0.019832026
195	0x3d275020	0.040847898
196	0x3c114748	0.008867092
197	0xbc4b1e07	-0.012397296
198	0x3c39e625	0.011346375
199	0xbd48e759	-0.049048755
200	0x3b1bf02f	0.0023794284
201	0x3ced3c93	0.028959548
202	0xbd6dc567	-0.058049586
203	0xbd054b79	-0.03254268
204	0x3d21c4f6	0.039494477
205	0x3ac35415	0.0014902378
206	0xbb083e4f	-0.0020789092
207	0x3bb515a1	0.00552626
208	0xbce24c80	-0.027624369
209	0x3d5617fe	0.052268974
210	0xbbc2e901	-0.0059481864
211	0xbcc036cf	-0.023463635
212	0x3d055996	0.03255614
213	0xbd531037	-0.051529136
214	0xbc358955	-0.011080106
215	0x3bb708ed	0.005585781
216	0xbca4acb2	-0.020101879
217	0x3d0a7872	0.03380627
218	0xbd5aac2c	-0.053386852
219	0xbc990384	-0.018678434
220	0xbcdbf7f1	-0.026851626
221	0x3d6b847f	0.057499405
222	0x3cc569ed	0.02409836
223	0xbd4113dd	-0.047138084
224	0x3cc952f1	0.024575682
225	0xbb103bfa	-0.0022008405
226	0x3d6c004f	0.05761748
227	0x3d0ea9fd	0.034830082
228	0xbd13d109	-0.036088023
229	0x3d6540e7	0.0559701
230	0xbc30cdd8	-0.0107912645
231	0xbc721911	-0.014776484
232	0x3c9547a3	0.018222636
233	0x3d800b23	0.06252124
234	0x3c9e3850	0.019313961
235	0xbd7550b5	-0.05989142
236	0xbca453ef	-0.020059554
237	0x3d6fc65f	0.05853879
238	0xbcb984c3	-0.022646314
239	0xbcfc0221	-0.030762734
240	0xbd4e5c99	-0.050381277
241	0xbd0bf3ba	-0.034167983
242	0xbd0c162f	-0.034200843
243	0x3c70d744	0.014699761
244	0x3ccee85b	0.02525728
245	0x3d73aebb	0.059492808
246	0x3d27bdeb	0.040952604
247	0x3ae031f3	0.001710473
248	0x3d06b97a	0.032891728
249	0x3d1331f4	0.03593631
250	0xbd5b120f	-0.05348402
251	0x3d025034	0.03181477
252	0xbd2ea0a1	-0.042633656
253	0x3d477185	0.048692245
254	0xbcdb5c52	-0.02677742
255	0x3c517a0f	0.012785449
